checkpoint_actor1.pth (torch, 525855 bytes, 6 tensors)

fc1.weight f4 [400, 24]
-0.021981293 0.08546302 -0.018250108 0.012633425 -0.06781852 -0.10789656 0.019879472 0.048061963
-0.0154154245 0.060031593 -0.02173443 -0.015198173 0.00032025523 -0.1232696 -0.006942402 0.0388983
-0.03228209 0.10053113 0.030493382 0.02664823 0.02070117 -0.24843685 -0.024136262 -0.018018052
-0.026658993 -0.13306062 -0.035029765 -0.037136838 -0.08742529 0.022589015 0.03351597 0.041746557
0.05221783 -0.068199724 -0.0029867385 0.001908007 -0.040353503 0.0028146198 0.018126052 0.044887304
0.07366073 -0.05841299 -0.0051768916 -0.024712278 -0.11463316 0.017531732 0.013090646 0.015195013
0.004111571 -0.041515153 -0.014561811 0.024785962 -0.0058388803 -0.02023752 0.011018952 0.004918648
0.03960344 -0.04599335 0.039848223 0.040763836 0.06355778 -0.083767205 0.0074179885 0.010844318
0.068406485 0.05116462 0.002262273 0.008397915 0.12919979 -0.038804777 0.027739648 0.007673039
-0.017840622 0.09028894 -0.01685437 -0.03878127 -0.104615666 -0.08469208 0.001854964 -0.054655507
-0.016107637 0.06372113 0.028540837 0.02899904 0.008198007 -0.15291409 -0.009838785 0.075105526
-0.048738714 0.03712374 -0.005350768 0.040991068 0.031354886 -0.16222833 0.0044421325 0.00821872
-0.030109812 0.17906563 -0.029476795 -0.013381938 -0.032304488 -0.08108515 0.038701955 0.028610077
-0.049803205 0.19636261 -0.0057898015 0.016181357 -0.027967846 -0.15926261 -0.0022073453 0.0155065935
0.01684552 0.15212975 0.014205219 -0.020663165 0.014663437 -0.24969213 -0.03201338 0.03249358
0.0815798 -0.02957202 -0.0127797695 0.0005317385 0.061741292 0.036697857 -0.016117662 0.030584715
-0.0029654044 -0.04376222 0.006194361 0.009736293 -0.027753573 0.07380573 -0.017884662 -0.02375482
0.018598948 -0.03750111 -0.05676843 0.03008218 -0.10329343 0.20566916 0.028175836 0.028627252
0.050817076 -0.016550077 0.02736627 -0.03528542 -0.011267668 -0.13032362 -0.06351526 -0.014683135
0.017366383 0.00809282 -0.026819648 0.026214743 0.015608718 -0.08986716 0.022455571 0.073145725
-0.026197368 -0.043595664 -0.0017838934 0.045435503 -0.033719953 -0.05947966 -0.033808757 0.049218588
-0.053059526 -0.05482529 -0.030022021 -0.01864859 0.02456657 -0.05435925 0.016885972 -0.09625905
0.01473352 -0.13105164 0.0016793156 -0.03877869 0.003434459 -0.011293589 0.020328099 -0.0025198364
-0.017087575 -0.14419597 -0.028155249 0.031928465 -0.015082727 0.07209003 -0.012680637 0.0055164127
0.0006067196 0.009605252 0.037096523 -0.10249718 0.016965117 -0.06342392 -0.039910622 -0.09214645
-0.008051448 0.06959067 -0.0035218298 0.026906174 0.04809543 -0.13489938 0.027762977 -0.03590731
-0.014365735 0.0837056 0.011337012 0.023088092 0.054320086 -0.11842547 -0.035277948 0.06359829
0.029181795 -0.011060936 -0.0060898275 -0.09686825 0.31469062 0.04166949 -0.008017099 -0.09642702
-0.0035968565 -0.06862369 0.020055242 -0.039120972 0.2990559 0.07550688 -0.0072174845 -0.099142276
0.0025103937 -0.076409 0.009552256 0.02904255 0.25228074 0.085664734 -0.017016547 0.02362431
-0.068555325 0.10734653 0.0030190882 0.017557107 -0.07220693 -0.036873136 0.0009602078 -0.044444054
-0.030796768 0.11846704 0.0019577034 -0.018753815 0.041153286 -0.03138332 -0.0020960246 0.021216508
00000000: 1d12 b4bc 3c07 af3d 4081 95bc 6dfc 4e3c
00000010: 70e4 8abd dff8 dcbd 46da a23c 9fdc 443d
00000020: fa90 7cbc b0e3 753d 670c b2bc c201 79bc
00000030: eee7 a739 c674 fcbd 177d e3bb d353 1f3d
00000040: 3a3a 04bd 44e3 cd3d 42cd f93c 644d da3c
00000050: 8095 a93c 3b66 7ebe 69b9 c5bc 989a 93bc
00000060: f663 dabc 0b41 08be 5f7b 0fbd cc1c 18bd
00000070: 080c b3bd 990c b93c 0b48 093d 70fe 2a3d
00000080: 5de2 553d 4cac 8bbd 28bd 43bb 1716 fa3a
00000090: b749 25bd 7c75 383b 167d 943c c0db 373d
000000a0: 70db 963d 7642 6fbd eaa2 a9bb 6771 cabc
000000b0: cac4 eabd b59e 8f3c 267a 563c 81f4 783c
000000c0: 5bba 863b cb0b 2abd aa94 6ebc ee0b cb3c
000000d0: 1454 bfbb 28c9 a5bc d688 343c 9c2c a13b
000000e0: 3737 223d 8663 3cbd e437 233d fbf7 263d
000000f0: 952a 823d 248e abbd 9912 f33b 5eac 313c
00000100: b318 8c3d fe91 513d a542 143b 6997 093c
00000110: f34c 043e c2f1 1ebd 423e e33c 1e6e fb3b
00000120: 7f26 92bc 68e9 b83d 2d12 8abc 1cd9 1ebd
00000130: bd40 d6bd 0b73 adbd 4322 f33a 74de 5fbd
00000140: 2af4 83bc 3980 823d 79ce e93c 658f ed3c
00000150: ef50 063c 8395 1cbe db32 21bc edd0 993d
00000160: 3fa2 47bd 100f 183d 7f55 afbb 40e6 273d
00000170: fb6d 003d 2f1f 26be 4f8f 913b cfa7 063c
00000180: daa8 f6bc fb5c 373e 5279 f1bc eb3f 5bbc
00000190: b651 04bd f90f a6bd f185 1e3d ae5f ea3c
000001a0: 72fe 4bbd 4813 493e 60b8 bdbb c48e 843c
000001b0: d31c e5bc bd15 23be 1ca9 10bb 5e0f 7e3c
000001c0: 9eff 893c e7c7 1b3e 02bd 683c cc45 a9bc
000001d0: ea3e 703c 4baf 7fbe 7620 03bd fd17 053d
000001e0: 4f13 a73d 0541 f2bc 3d62 51bc 5e64 0b3a
000001f0: 70e4 7c3d 7e50 163d 3009 84bc cc8c fa3c
00000200: 3b57 42bb 0340 33bd 11fa ca3b f984 1f3c
00000210: 765b e3bc 7527 973d db82 92bc 7899 c2bc
00000220: d25c 983c c49a 19bd 0386 68bd e76e f63c
00000230: 818b d3bd f09a 523e 03d1 e63c b383 ea3c
00000240: 9125 503d 0794 87bc 3a2f e03c 7287 10bd
00000250: 069c 38bc 8e73 05be 4a14 82bd 8891 70bc
00000260: f243 8e3c bf97 043c e1b4 dbbc 4dc0 d63c
00000270: b5bb 7f3c 460c b8bd bff4 b73c 6dcd 953d
00000280: dd9b d6bc 5e91 32bd 88d1 e9ba 941a 3a3d
00000290: ef1d 0abd f2a0 73bd 0d7b 0abd 6e99 493d
000002a0: f254 59bd 7c90 60bd bef0 f5bc eec4 98bc
000002b0: d53f c93c cea7 5ebd 7354 8a3c 7723 c5bd
000002c0: dd64 713c 6732 06be 7b1c dc3a 67d6 1ebd
000002d0: a914 613b bf08 39bc 1d87 a63c d723 25bb
000002e0: 3efb 8bbc 1ca8 13be d6a5 e6bc 6cc7 023d
000002f0: 8b1d 77bc f0a3 933d 72c2 4fbc 06c3 b43b
00000300: 430c 1f3a 595f 1d3c 86f2 173d 0bea d1bd
00000310: 6efa 8a3c 66e4 81bd 5279 23bd 47b7 bcbd
00000320: 38ea 03bc 8e85 8e3d 80ce 66bb 566a dc3c
00000330: b7ff 443d 1023 0abe 2f6f e33c 8b13 13bd
00000340: 435e 6bbc d76d ab3d e0be 393c 3d23 bd3c
00000350: bd7e 5e3d 0e89 f2bd 9c7f 10bd d23f 823d
00000360: a90e ef3c ee38 35bc 2d8d c7bb dc62 c6bd
00000370: 211f a13e a1ad 2a3d 275a 03bc 887b c5bd
00000380: 3db9 6bbb 948a 8cbd e44a a43c 503d 20bd
00000390: db1d 993e 5aa3 9a3d a680 ecbb 1b0b cbbd
000003a0: 6b85 243b 527c 9cbd 1181 1c3c a4ea ed3c
000003b0: f12a 813e fe70 af3d 4966 8bbc c587 c13c
000003c0: bc66 8cbd 7fd8 db3d e5db 453b ecd3 8f3c
000003d0: 3ae1 93bd 4908 17bd 74b6 7b3a f80a 36bd
000003e0: 8149 fcbc d99e f23d d04c 003b 9aa1 99bc
000003f0: 5990 283d cc8b 00bd 755d 09bb 3ece ad3c

fc1.bias f4 [400]
-0.19993953 -0.07955442 -0.03297319 -0.15209857 0.07903135 -0.07746734 0.13414443 0.0120191295
0.08767832 0.03684522 -0.06467929 0.22057906 -0.09636368 -0.09702578 -0.18447173 0.07992618
-0.07115124 -0.09017956 0.10182262 -0.06610803 -0.0040066075 -0.06826122 -0.11193564 -0.078375526
-0.018899579 0.15575694 -0.13621248 -0.14003494 0.18887389 -0.06707609 -0.15500942 -0.16682242
0.030036816 -0.20999576 0.08940168 0.10823504 0.13324775 -0.19945331 0.049786963 0.07310482
0.1139675 0.09393859 0.08150864 -0.19923769 -0.18477164 -0.20080161 -0.17538725 0.11044387
0.05281308 0.01476223 0.14416657 -0.10127681 -0.17995901 0.051687345 -0.2022041 0.006867826
0.03665742 -0.051963154 -0.022091383 -0.08408153 0.14548561 -0.090196796 0.12455109 0.19606917
-0.13975267 0.094832584 -0.10348914 0.08229474 0.015455628 -0.16646837 0.2200997 0.0184326
-0.067726426 -0.14765204 -0.08393068 -0.2137217 0.083608374 -0.1627851 0.14987585 -0.04241359
-0.15157114 -0.1439803 0.14214918 -0.19624305 -0.13921747 0.07382278 -0.1474773 -0.061900113
0.08827236 -0.08494325 0.19596179 -0.1974557 -0.005944053 -0.08604102 -0.11178297 -0.12285091
0.043918256 -0.102525 0.15736021 -0.14006929 -0.2440499 0.02775406 0.043742202 -0.21845528
0.10862874 0.13544673 -0.12979555 0.10862688 0.065916166 0.094852954 -0.10415392 0.022749525
-0.04089548 -0.16954917 0.09463584 0.03168457 -0.0020773853 -0.06762149 0.19104736 0.15572341
0.0851556 -0.12719004 -0.06819362 0.04328683 0.018824652 -0.076379396 -0.23083293 -0.0019500224
-0.15461884 -0.15605871 0.16651224 0.17459509 -0.13435954 -0.16125983 -0.057988282 0.16904192
-0.03788901 0.059026524 -0.19103172 -0.031559855 0.13580364 0.0596946 -0.014929355 -0.01184905
-0.25601646 0.09769559 -0.16938709 -0.101319715 -0.075668335 0.07960797 0.114299 -0.10018473
-0.03751674 -0.13337345 0.013151085 0.12250331 -0.1225825 -0.14969482 -0.047285452 -0.1894357
-0.15780891 -0.1599709 -0.09467861 -0.19969337 -0.10577299 -0.17856225 0.13046524 -0.17925237
0.07572193 0.016327962 -0.08859442 0.08192481 -0.08633631 0.17085256 -0.10731738 -0.11892905
0.03146002 -0.1425324 -0.09923716 0.10167787 0.04814668 -0.17410263 -0.10782084 0.19896354
-0.15799679 0.08630262 -0.14357501 -0.090629816 -0.05713746 -0.011916533 -0.13258801 -0.18573195
-0.10859034 -0.048323143 0.020851713 -0.03772995 -0.14470102 -0.20806228 -0.022569735 -0.1325404
0.12629242 -0.10589585 0.043396235 -0.046384048 0.07700914 -0.16743788 0.10319453 0.105005026
0.14475916 0.008994788 -0.048069548 -0.053410955 0.022879936 0.11238464 -0.228733 0.11628491
0.14216936 0.08432056 0.23314406 0.1416833 0.1535253 -0.09942902 -0.14123622 0.023292257
-0.06468406 0.09567336 0.1798152 -0.21817632 -0.12433969 -0.07409642 0.17352511 -0.22269866
0.00880003 0.108823866 -0.09191743 -0.101191856 -0.05338583 -0.029472608 0.13078488 0.036067694
-0.22990751 0.1197411 0.12592803 -0.10285984 -0.10386305 0.024480302 0.07539793 -0.17131333
0.17792924 -0.010954375 -0.14425856 -0.081232496 -0.084730394 0.07548974 -0.14491178 0.05934076
00000000: f3bc 4cbe 6eed a2bd e50e 07bd babf 1bbe
00000010: 30db a13d 32a7 9ebd 285d 093e e2eb 443c
00000020: b190 b33d 03eb 163d 9376 84bd 7adf 613e
00000030: 525a c5bd 74b5 c6bd 28e6 3cbe 56b0 a33d
00000040: beb7 91bd 10b0 b8bd 6188 d03d a663 87bd
00000050: dc49 83bb 8acc 8bbd 833e e5bd 5983 a0bd
00000060: 4ad3 9abc bf7e 1f3e 497b 0bbe 5265 0fbe
00000070: 2868 413e 305f 89bd caba 1ebe 7fd3 2abe
00000080: c50f f63c 2109 57be 3a18 b73d 55aa dd3d
00000090: 1972 083e 7d3d 4cbe 6aed 4b3d fbb7 953d
000000a0: cb67 e93d e062 c03d 00ee a63d f704 4cbe
000000b0: c734 3dbe f09e 4dbe b798 33be 6530 e23d
000000c0: 8752 583d 48dd 713c 67a0 133e 376a cfbd
000000d0: 2d47 38be 1cb6 533d 970e 4fbe 800b e13b
000000e0: 1726 163d 51d7 54bd fdf8 b4bc f032 acbd
000000f0: 2efa 143e 19b9 b8bd a414 ff3d 5bc6 483e
00000100: 531b 0fbe 9637 c23d 1df2 d3bd 258a a83d
00000110: 9a39 7d3c af76 2abe d161 613e f7ff 963c
00000120: 27b4 8abd 1932 17be d9e3 abbd dcd9 5abe
00000130: de3a ab3d 23b1 26be 0e79 193e dfb9 2dbd
00000140: 7735 1bbe 926f 13be 8e8f 113e f0f3 48be
00000150: 068f 0ebe 6630 973d 4a04 17be f98a 7dbd
00000160: 24c8 b43d baf6 adbd 35aa 483e d431 4abe
00000170: 55c6 c2bb 4636 b0bd 78ee e4bd 4299 fbbd
00000180: a1e3 333d a1f8 d1bd 0923 213e 536e 0fbe
00000190: 38e8 79be 7c5c e33c 062b 333d beb2 5fbe
000001a0: bf78 de3d 8cb2 0a3e 20e9 04be c577 de3d
000001b0: 0eff 863d 4442 c23d a74e d5bd 365d ba3c
000001c0: 0582 27bd 4c9e 2dbe 6fd0 c13d aec7 013d
000001d0: be24 08bb 237d 8abd eba1 433e f575 1f3e
000001e0: 0f66 ae3d 1b3e 02be 19a9 8bbd 884d 313d
000001f0: 2836 9a3c cd6c 9cbd 785f 6cbe e597 ffba
00000200: 6754 1ebe dbcd 1fbe 2f82 2a3e 0ec9 323e
00000210: 8c95 09be 4c21 25be 1f85 6dbd 5319 2d3e
00000220: 8231 1bbd ccc5 713d d29d 43be e844 01bd
00000230: 1c10 0b3e 5382 743d 419a 74bc 8522 42bc
00000240: 9714 83be a014 c83d cf73 2dbe b680 cfbd
00000250: 00f8 9abd 8109 a33d 9815 ea3d a72d cdbd
00000260: 27ab 19bd 0d93 08be a677 573c 04e3 fa3d
00000270: 890c fbbd 9949 19be 64ae 41bd 6ffb 41be
00000280: a998 21be 69cf 23be dce6 c1bd 6b7c 4cbe
00000290: 829f d8bd 06d9 36be ae98 053e ef8d 37be
000002a0: 1914 9b3d 38c2 853c fe70 b5bd 32c8 a73d
000002b0: 17d1 b0bd f9f3 2e3e 37c9 dbbd 1391 f3bd
000002c0: 39dc 003d 03f4 11be da3c cbbd 7d3c d03d
000002d0: 7435 453d f647 32be 2cd1 dcbd 19bd 4b3e
000002e0: e9c9 21be 6ebf b03d 5405 13be 209c b9bd
000002f0: f808 6abd 903d 43bc 27c5 07be 8430 3ebe
00000300: 9d64 debd 7dee 45bd 36d1 aa3c b88a 1abd
00000310: 812c 14be 470e 55be 2ae4 b8bc acb8 07be
00000320: cd52 013e ecdf d8bd 40c0 313d 33fd 3dbd
00000330: f8b6 9d3d d674 2bbe a757 d33d e00c d73d
00000340: bf3b 143e e05e 133c 93e4 44bd 72c5 5abd
00000350: b46e bb3c eb29 e63d fc38 6abe c826 ee3d
00000360: d894 113e 42b0 ac3d 51bd 6e3e 6d15 113e
00000370: bc35 1d3e 71a1 cbbd 3aa0 10be 67cf be3c
00000380: 1479 84bd 65f0 c33d 7a21 383e 9d69 5fbe
00000390: cfa5 febd ddbf 97bd 91b0 313e 1e0b 64be
000003a0: 002e 103c 0cdf de3d 353f bcbd ad3d cfbd
000003b0: 1aab 5abd 8a70 f1bc 79ec 053e b8bb 133d
000003c0: e06c 6bbe d23a f53d 47f3 003e 2ea8 d2bd
000003d0: 27b6 d4bd ea8a c83c 3b6a 9a3d c36c 2fbe
000003e0: 1533 363e fb79 33bc 84b8 13be 395d a6bd
000003f0: 2187 adbd 5d9a 9a3d c163 14be 4c0f 733d

fc2.weight f4 [300, 400]
-0.057496652 0.03745567 -0.0130263 -0.024011616 -0.047902577 -0.041737188 -0.044242408 0.04314812
-0.0069519035 -0.0032974517 0.05726628 -0.06271163 -0.08829406 0.042743437 -0.0028365275 -0.054742925
-0.087929145 -0.013190912 0.05026802 -0.042331174 -0.031946357 -0.047021784 -0.020288229 0.023701405
-0.033501938 0.02327777 -0.089344904 0.017326 -0.054525577 0.051817466 0.042009808 -0.14618446
0.007208599 -0.1116909 -0.02529135 0.042503215 0.021504411 0.034637474 0.000994906 0.07820928
-0.093784824 0.010464062 -0.025366494 0.030537955 0.044731747 0.0026985887 -0.0411881 -0.05508978
-0.014423554 0.08884519 -0.023895929 -0.035024125 0.028885217 -0.03368369 -0.0293689 -0.06511397
0.00037951724 -0.04890509 0.0031803958 -0.13895062 0.024284663 0.049751345 0.0285462 -0.061996438
0.029149098 -0.07401639 -0.04303238 0.08605767 0.0073785284 -0.09570889 -0.05138057 -0.005538584
0.0359147 0.006919603 -0.0007262257 -0.031506192 0.069115594 0.107065715 0.08450218 -0.050124474
0.07307559 -0.13345377 0.08113082 -0.056433905 0.036652863 -0.02936958 0.007852501 0.07976039
0.04042764 -0.017418751 0.010137859 -0.019466694 0.0034022145 0.0884967 0.01594048 0.012255412
0.055074107 -0.059544757 -0.04016719 -0.016891658 -0.021229133 0.061375335 -0.013280506 -0.10294888
-0.082642704 0.050941117 0.04727628 -0.06670161 0.0077116257 -0.061890848 0.011215175 -0.024181645
-0.064298026 -0.008771176 -0.0052877264 0.0066573434 -0.030407773 -0.035675887 -0.044566993 -0.054532878
0.0010350166 -0.03310931 -0.047323704 0.12443978 -0.0062764455 0.06529923 -0.031967916 -0.01622752
0.041526526 -0.013617616 -0.06630923 -0.07138346 -0.021463979 0.06583735 -0.040757798 -0.075755104
0.025967 0.06725426 -0.01677944 0.07416637 -0.02177966 -0.042158563 -0.028516067 0.12112588
-0.02476781 0.014895591 0.073580466 -0.0022431049 0.00922609 0.09241008 -0.036808893 -0.010878902
0.0115187485 0.03020215 -0.009944949 -0.022261381 0.027647119 0.0065155365 -0.0472241 -0.00016376731
-0.05315382 -0.025531573 -0.08970966 -0.004557063 0.0031163122 -0.031149425 -0.01021655 -0.0193476
0.06366195 -0.04572253 0.007780927 0.06605601 -0.06590766 -0.017389715 -0.015687548 -0.06923631
0.0741486 -0.06875286 0.07409228 -0.0066826744 0.06750148 -0.016333064 0.05571091 0.006397269
-0.010239478 0.006820994 -0.047975667 -0.029082526 -0.03245208 0.065399624 -0.07083659 0.0030065586
0.03765138 -0.08603366 0.026835479 0.017942198 0.012947472 0.024156764 -0.030733299 0.027236074
0.0431749 0.022571877 -0.036168057 -0.049931005 -0.09470011 0.048003167 -0.0181042 0.073325306
-0.025332266 0.059159644 -0.01665861 -0.09948697 0.030561373 -0.09879626 0.059052113 0.09144143
0.041037187 0.11507764 0.001507835 -0.039096072 -0.0008179917 0.054832857 0.030056207 0.05135972
0.028141238 0.0367432 -0.08005099 0.020808728 0.07594533 -0.02474016 0.06566906 0.0077404925
0.080358595 0.028234776 0.042690895 -0.038374066 0.020684771 -0.011593065 -0.002289851 0.0074101673
-0.006555426 0.124775544 -0.009615401 -0.08147716 0.002411943 0.025019176 -0.057193834 0.027428132
0.01972276 -0.09762619 -0.08303117 0.039170668 0.097175345 0.010730861 -0.011344215 -0.08773028
00000000: 9c81 6bbd 1e6b 193d 436c 55bc 02b4 c4bc
00000010: 7e35 44bd 9df4 2abd 8737 35bd 15bc 303d
00000020: cbcc e3bb 0f1a 58bb 0c90 6a3d f46e 80bd
00000030: 84d3 b4bd be13 2f3d 09e5 39bb 1e3a 60bd
00000040: 3214 b4bd b21e 58bc d7e5 4d3d 7463 2dbd
00000050: 2fda 02bd ea99 40bd 8033 a6bc 7329 c23c
00000060: 5439 09bd 06b1 be3c 76fa b6bd 41ef 8d3c
00000070: 3656 5fbd 8d3e 543d 7a12 2c3d 61b1 15be
00000080: 1c36 ec3b 33be e4bd ce2f cfbc da17 2e3d
00000090: 052a b03c 06e0 0d3d 8167 823a 302c a03d
000000a0: 4212 c0bd 7571 2b3c 65cd cfbc bc2a fa3c
000000b0: a338 373d ceda 303b dab4 28bd d2a5 61bd
000000c0: c550 6cbc 78f4 b53d 65c1 c3bc 7575 0fbd
000000d0: b1a0 ec3c e9f7 09bd 0c97 f0bc 795a 85bd
000000e0: f1f9 c639 b450 48bd 306e 503b 1249 0ebe
000000f0: a1f0 c63c 11c8 4b3d b8d9 e93c faef 7dbd
00000100: 17ca ee3c e895 97bd b942 30bd 013f b03d
00000110: 95c7 f13b 0603 c4bd 6f74 52bd 037d b5bb
00000120: 4b1b 133d d6bd e23b 2f60 3eba a30c 01bd
00000130: 7a8c 8d3d 4545 db3d 7b0f ad3d 524f 4dbd
00000140: a8a8 953d 1ba8 08be ea27 a63d 3d27 67bd
00000150: 5021 163d 7998 f0bc c7a7 003c 6a59 a33d
00000160: 7497 253d c5b1 8ebc 4319 263c 9e78 9fbc
00000170: b0f7 5e3b c23d b53d 9c95 823c ecca 483c
00000180: 6395 613d 34e5 73bd 5a86 24bd 6060 8abc
00000190: b8e8 adbc b464 7b3d 7b96 59bc ddd6 d2bd
000001a0: 9440 a9bd a2a7 503d c6a4 413d db9a 88bd
000001b0: ceb1 fc3b 4281 7dbd dabf 373c 9618 c6bc
000001c0: afae 83bd fbb4 0fbc aa44 adbb d825 da3b
000001d0: b919 f9bc e120 12bd e18b 36bd de5d 5fbd
000001e0: 65a9 873a a19d 07bd 80d6 41bd 49da fe3d
000001f0: a4aa cdbb 9abb 853d caf0 02bd 93ef 84bc
00000200: b817 2a3d 6c1c 5fbc 22cd 87bd 7e31 92bd
00000210: 3ad5 afbc bcd5 863d a6f1 26bd 7e25 9bbd
00000220: bfb8 d43c 9abc 893d 0975 89bc 8ae4 973d
00000230: 426b b2bc 75ae 2cbd 879a e9bc d810 f83d
00000240: dde5 cabc a30c 743c 5bb1 963d 0e01 13bb
00000250: 0729 173c 7f41 bd3d ecc4 16bd 6c3d 32bc
00000260: 22b9 3c3c 806a f73c 24f0 22bc 805d b6bc
00000270: 367c e23c 4880 d53b 0f6e 41bd f4b8 2bb9
00000280: d2b7 59bd 9727 d1bc b3b9 b7bd 6a53 95bb
00000290: 0b3b 4c3b 142d ffbc 5163 27bc dc7e 9ebc
000002a0: 3261 823d 8c47 3bbd 25f7 fe3b 6048 873d
000002b0: 98fa 86bd e074 8ebc 2c83 80bc c4cb 8dbd
000002c0: 39db 973d 4dce 8cbd b1bd 973d 56fa dabb
000002d0: 373e 8a3d ebcc 85bc 2031 643d 2fa0 d13b
000002e0: 7cc3 27bc a582 df3b 2282 44bd 7a3e eebc
000002f0: 79ec 04bd 3df0 853d c612 91bd af09 453b
00000300: 5538 1a3d 6a32 b0bd 14d6 db3c 84fb 923c
00000310: a221 543c 68e4 c53c 66c4 fbbc 301e df3c
00000320: 2ad8 303d a8e8 b83c f524 14bd 7484 4cbd
00000330: 22f2 c1bd f89e 443d 424f 94bc 942b 963d
00000340: 9d85 cfbc 6251 723d a377 88bc d3bf cbbd
00000350: d85b fa3c b255 cabd a1e0 713d a545 bb3d
00000360: 9c16 283d d3ad eb3d 8ca2 c53a 3423 20bd
00000370: 7e6e 56ba 6b98 603d 6f38 f63c 925e 523d
00000380: 7488 e63c 0a80 163d c6f1 a3bd 1177 aa3c
00000390: 3a89 9b3d e0ab cabc 807d 863d f5a3 fd3b
000003a0: 0c93 a43d 9e4c e73c a6dc 2e3d 202e 1dbd
000003b0: 1c73 a93c d7f0 3dbc 5311 16bb fdd0 f23b
000003c0: e6ce d6bb 528a ff3d ea89 1dbc 7fdd a6bd
000003d0: b011 1e3b 04f5 cc3c 1544 6abd f6b0 e03c
000003e0: a091 a13c 3df0 c7bd 3f0c aabd 6c71 203d
000003f0: de03 c73d 7ed0 2f3c 16dd 39bc efab b3bd

fc2.bias f4 [300]
-0.06396294 0.012553805 0.025122626 0.07551522 0.032824766 -0.00109577 -0.019107223 -0.025466174
0.06343724 0.044527072 -0.0050590127 -0.017098632 -0.007600345 -0.018994652 0.046025764 -0.049600773
0.120760426 -0.06967947 -0.044567395 0.012971536 -0.049799815 -0.03487154 -0.033365708 0.06203946
-0.06556402 0.073890105 -0.015371256 0.06607486 -0.019088123 0.10313042 0.014811729 0.026199676
-0.025552882 0.028334517 0.04825137 0.030454183 -0.024112446 0.094356515 -0.019114178 -0.004056069
-0.009266175 0.052846983 0.08447325 -0.075698584 0.05606242 0.06556442 -0.006937479 0.06057561
0.09140464 0.048719056 0.0008759147 0.038339294 0.056163047 0.030469615 0.06409198 0.065092534
-0.029432805 0.13047582 -0.0049025244 0.016498579 0.014106907 -0.03220342 0.07721607 0.050442103
-0.017476764 0.018490665 -0.03657927 -0.0050200317 -0.038458627 0.062352724 -0.009300673 0.01295117
0.06836149 0.032100085 -0.0036657671 0.06404836 0.031093024 -0.004911468 0.10466719 0.044080786
0.10803276 -0.007740568 0.02875257 0.041821495 0.039535884 0.0054920795 -0.0012195637 0.02879472
0.15534326 0.057802547 0.035602193 -0.01764506 0.037489172 0.060591385 -0.0042193653 0.10520622
0.07497953 0.0047855256 0.03154665 -0.03696528 -0.03640122 0.030324448 -0.044957407 0.006861158
-0.016637348 0.04229225 0.057143934 0.030109635 0.02145694 -0.027504195 -0.011346322 0.072109535
0.022900928 0.06024889 -0.01856498 0.071101904 -0.012187022 0.083207935 0.05696335 0.058530923
0.037308734 -0.014230929 0.006032719 -0.0080611445 -0.005722145 0.011873952 0.1363396 0.046875823
0.0012219484 0.059511967 0.03183779 0.015194668 0.011794247 0.04791638 -0.019928267 -0.039853647
0.124205895 0.07508564 0.043553274 0.012616866 -0.025013957 -0.007642891 0.08752668 -0.013909187
-0.002053088 -0.002378672 0.027472347 0.06678742 0.008566557 -0.017975323 0.02603547 -0.017762888
0.02802661 -0.021712817 0.06825199 0.03063831 0.021451952 0.005834074 0.04993432 0.012874866
0.07815307 0.016956221 0.0070550865 -0.092779316 -0.023638768 -0.009201979 0.04724086 -0.014968633
0.09301956 -0.014939622 0.028809791 0.005687642 0.0835139 0.05358114 -0.015868992 0.029998971
-0.0708037 -0.02903 0.04033773 0.013547107 0.005712745 0.037272204 0.00744205 0.025065087
0.03471021 0.036223028 0.04695734 0.012352433 -0.04182814 -0.025418712 -0.057922322 0.049518794
0.02313323 -0.028759569 -0.0040350826 0.052717913 -0.014355323 0.07780117 0.0917641 -0.040256195
0.024848877 -0.008120359 -0.0020854808 0.04172994 0.094836 0.046783894 0.029403163 0.009717693
-0.030391715 0.062979355 -0.0030920154 0.028494533 -0.06842058 -0.015332303 0.08314579 0.040439032
-0.05708023 0.021169493 0.053453185 0.052180517 0.046525974 0.04418037 -0.011403947 0.05727252
0.0353342 0.05249121 0.09214994 -0.034735765 -0.0047743185 0.037044443 -0.001218719 0.05575164
0.06265221 0.051354412 -0.013811908 0.07640509 0.0053571616 -0.012181233 0.037166648 -0.05012191
-0.050194126 0.10223082 0.02704741 0.025406992 0.05169803 -0.031660076 0.058217093 0.06655919
-0.040498294 -0.02816266 0.008866514 -0.0035735636 0.059171174 0.043322004 0.060892086 0.101192124
00000000: 00ff 82bd 79ae 4d3c f7cd cd3c b9a7 9a3d
00000010: 4373 063d f19f 8fba c086 9cbc 709e d0bc
00000020: 62eb 813d 0562 363d 13c6 a5bb 6e12 8cbc
00000030: 510c f9bb ac9a 9bbc 8385 3c3d 2e2a 4bbd
00000040: 3e51 f73d 1cb4 8ebd 4d8c 36bd 9186 543c
00000050: e4fa 4bbd 76d5 0ebd 7baa 08bd 171d 7e3d
00000060: 6e46 86bd b253 973d b8d7 7bbc 4252 873d
00000070: b25e 9cbc 0b36 d33d e5ac 723c b4a0 d63c
00000080: 4754 d1bc ca1d e83c 3ba3 453d 0d7b f93c
00000090: 7787 c5bc fd3d c13d 5695 9cbc c6e8 84bb
000000a0: 28d1 17bc 1476 583d 5000 ad3d dc07 9bbd
000000b0: b5a1 653d a346 863d cb53 e3bb 211e 783d
000000c0: 5b32 bb3d a28d 473d a49d 653a aa09 1d3d
000000d0: 390b 663d 6a9b f93c a842 833d 3c4f 853d
000000e0: 111d f1bc 749b 053e 5ba5 a0bb 0728 873c
000000f0: a820 673c bce7 03bd 7523 9e3d 619c 4e3d
00000100: 6e2b 8fbc bc79 973c 25d4 15bd 147f a4bb
00000110: cb86 1dbd 9265 7f3d da61 18bc 2531 543c
00000120: 1c01 8c3d 617b 033d 5e3d 70bb c92b 833d
00000130: ccb6 fe3c 61f0 a0bb c05b d63d 0e8e 343d
00000140: 4840 dd3d 97a4 fdbb 828a eb3c 044d 2b3d
00000150: 61f0 213d e7f6 b33b c4d9 9fba e8e2 eb3c
00000160: 4e12 1f3e 5dc2 6c3d 9bd3 113d 5f8c 90bc
00000170: 3f8e 193d ac2e 783d 9a42 8abb 5c76 d73d
00000180: de8e 993d e6cf 9c3b 0f37 013d e868 17bd
00000190: 7219 15bd fa6a f83c 4225 38bd 91d3 e03b
000001a0: 0c4b 88bc a33a 2d3d c20f 6a3d 7ba8 f63c
000001b0: 77c6 af3c 7a50 e1bc ece5 39bc 2aae 933d
000001c0: ba9a bb3c 8ac7 763d 9615 98bc e09d 913d
000001d0: 13ac 47bc ec68 aa3d 6752 693d 1fbe 6f3d
000001e0: 0bd1 183d d828 69bc 1dae c53b e412 04bc
000001f0: d580 bbbb f78a 423c 9c9c 0b3e dd00 403d
00000200: c929 a03a d2c2 733d 5868 023d 0ff3 783c
00000210: a83c 413c f743 443d 9b40 a3bc 943d 23bd
00000220: a95f fe3d 80c6 993d eb64 323d f9b6 4e3c
00000230: 12ea ccbc 3771 fabb 3041 b33d 5ce3 63bc
00000240: 1a8d 06bb 7ee3 1bbb b00d e13c d8c7 883d
00000250: bf5a 0c3c fc40 93bc 5748 d53c 7a83 91bc
00000260: 1098 e53c 14df b1bc b3c7 8b3d 31fd fa3c
00000270: 01bc af3c c32b bf3b ee87 4c3d 1af1 523c
00000280: b70e a03d c6e7 8a3c 5b2e e73b 1503 bebd
00000290: 17a6 c1bc e6c3 16bc a27f 413d ff3e 75bc
000002a0: 0a81 be3d 51c5 74bc 8302 ec3c 665f ba3b
000002b0: 5609 ab3d e677 5b3d b0ff 81bc 67c0 f53c
000002c0: 8801 91bd 53d0 edbc 2d39 253d aff4 5d3c
000002d0: fa31 bb3b bdaa 183d 71dc f33b 4c55 cd3c
000002e0: 4b2c 0e3d 995e 143d 5756 403d dc61 4a3c
000002f0: fc53 2bbd e73a d0bc f53f 6dbd 38d4 4a3d
00000300: e681 bd3c 3099 ebbc ba38 84bb bdee 573d
00000310: 9732 6bbc 3856 9f3d d1ee bb3d aee3 24bd
00000320: df8f cb3c 410b 05bc 90ac 08bb 03ed 2a3d
00000330: 6039 c23d 78a0 3f3d e7de f03c f536 1f3c
00000340: 0cf8 f8bc 52fb 803d 69a3 4abb 5e6d e93c
00000350: 1720 8cbd 5734 7bbc 5748 aa3d 66a3 253d
00000360: f6cc 69bd a56b ad3c baf1 5a3d 3dbb 553d
00000370: 0592 3e3d 7af6 343d 9fd7 3abc 9796 6a3d
00000380: 98ba 103d 0601 573d 1cb9 bc3d 1747 0ebd
00000390: e371 9cbb eabb 173d 6cbd 9fba d55b 643d
000003a0: cd4f 803d 0159 523d 574b 62bc 467a 9c3d
000003b0: 218b af3b cb93 47bc 0e3c 183d a24c 4dbd
000003c0: 5b98 4dbd 645e d13d 8892 dd3c 5322 d03c
000003d0: 50c1 533d ffad 01bd 0c75 6e3d 2f50 883d
000003e0: 8ae1 25bd 61b5 e6bc db44 113c 7332 6abb
000003f0: 795d 723d 6a72 313d fb69 793d d13d cf3d

fc3.weight f4 [2, 300]
-0.050075255 0.045343056 0.076145045 0.006916336 -0.022203932 -0.0037162327 -0.018083574 0.11785676
0.093342416 0.112265185 0.11858642 0.060581103 0.053912647 0.11009682 0.119981 -0.042089693
0.08113336 0.04652412 -0.025994461 0.067781344 -0.04107333 0.06847033 0.11948998 0.16062047
0.09373156 0.09480541 0.106185175 0.09170472 0.16412051 0.15063025 0.13303061 0.03979398
0.11670499 0.11208327 0.07925549 0.061705064 0.07496432 0.13824987 0.105986066 0.13554193
0.13686241 0.11335578 0.17990744 0.08844168 0.16339551 -0.03061794 -0.04240503 0.1288415
0.070809856 0.085918784 0.027834201 -0.039197028 0.10099125 0.005419352 0.12918332 -0.023399428
-0.02886062 0.0020777567 0.055541668 -0.019689754 -0.029203141 0.07762004 0.082179844 -0.050863747
0.08068213 0.07652282 -0.028755885 0.16225718 -0.040431894 0.11516072 -0.015650524 0.12437977
-0.006011215 -0.061804973 -0.053465888 0.15067643 0.12968507 -0.058541253 -0.00503004 0.0685824
0.11546364 -0.05249408 0.0046639554 0.006854887 -0.032262005 -0.036794275 -0.035977177 -0.037970662
-0.00916935 0.111499295 0.12211632 -0.034507774 -0.044057183 0.13672985 -0.05457425 -0.007953125
-0.0139091015 -0.034346912 -0.04389416 -0.04635989 -0.013570925 0.102004915 -0.017790176 -0.03407234
-0.06856488 0.078757785 -0.0373178 0.12116379 -0.04726694 0.033658057 -0.028058887 0.02125954
-0.021949919 0.06249243 -0.05443133 -0.008423935 -0.05043044 0.11955864 0.097697265 0.0975135
0.109461896 0.041910786 0.018081754 -0.024307018 0.06805895 0.10308304 0.0062925485 0.06424331
0.08903908 0.018336648 0.1430892 -0.024004946 -0.04648272 0.011713956 -0.04121459 -0.03480485
0.00047832332 0.0008567745 -0.037389558 -0.038663138 -0.049743395 -0.009952536 0.016956698 -0.027233718
-0.062334284 -0.039870296 0.097402155 0.045080654 0.10210402 0.07667781 0.039170537 0.09044493
0.11766108 0.07673989 0.13317923 0.10849617 -0.04638683 -0.052159347 0.10653905 -0.041373946
0.057733882 0.12187053 0.09230569 0.014088469 -0.034959845 0.116074845 -0.05810577 0.10375776
-0.004516648 0.08142888 0.018766554 0.038733948 0.08786728 -0.03130143 -0.03631995 0.11292796
0.060283303 -0.030328834 0.074004434 0.109944314 -0.0649986 0.078584865 -0.055156693 0.17885524
0.14472578 0.13779745 0.13110825 -0.035865277 -0.057894394 -0.0630914 0.11719971 0.0803982
-0.02982502 -0.028242297 0.10822091 0.047185514 -0.019594029 0.09512253 0.004356307 -0.06523567
-0.053829096 0.094258696 -0.03769969 -0.014608229 0.13701113 -0.01364099 0.08671378 -0.07109118
0.112580925 -0.005387181 -0.05040517 -0.0374185 -0.030693 -0.033293996 0.12423938 0.048542894
-0.032027137 0.08776152 0.16483021 0.17036597 -0.0066126813 -0.040014543 0.04318754 0.14561744
0.067417525 0.081715465 -0.06731491 -0.047710273 -0.02770947 -0.004189661 -0.0026151258 0.09973211
0.087944835 0.08522064 0.06562988 0.12510873 0.057549804 -0.033657964 0.12384529 -0.036060467
0.06548624 0.10666282 0.09068156 0.09092928 0.1657235 0.027426964 0.14500438 -0.022367278
0.07541391 -0.025142845 0.119493544 -0.03539624 0.07508437 0.0028647021 0.14246829 -0.0025739435
00000000: b61b 4dbd a4b9 393d eff1 9b3d 6ea2 e23b
00000010: 05e5 b5bc 0a8c 73bb 0124 94bc e35e f13d
00000020: 4f2a bf3d 4aeb e53d 70dd f23d e423 783d
00000030: 82d3 5c3d 717a e13d 99b8 f53d 3e66 2cbd
00000040: 3f29 a63d 1390 3e3d 56f2 d4bc f2d0 8a3d
00000050: 823c 28bd 2c3a 8c3d 2ab7 f43d b179 243e
00000060: 55f6 bf3d 5729 c23d 9d77 d93d afcf bb3d
00000070: 350f 283e d13e 1a3e 2d39 083e 03ff 223d
00000080: 0703 ef3d ea8b e53d b450 a23d 73be 7c3d
00000090: e586 993d 6091 0d3e 390f d93d 81cb 0a3e
000000a0: a925 0c3e 1327 e83d a839 383e e920 b53d
000000b0: 2751 273e 79d2 fabc e6b0 2dbd 07ef 033e
000000c0: c204 913d 30f6 af3d 8d04 e43c 108d 20bd
000000d0: 80d4 ce3d d294 b13b a248 043e 28b0 bfbc
000000e0: 1b6d ecbc f92a 083b a97f 633d 684c a1bc
000000f0: 6d3b efbc 41f7 9e3d e84d a83d 8156 50bd
00000100: ac3c a53d ffb7 9c3d 7691 ebbc bf26 263e
00000110: ea9b 25bd 62d9 eb3d 8735 80bc d2ba fe3d
00000120: baf9 c4bb 3627 7dbd 0cff 5abd ec4a 1a3e
00000130: 2acc 043e f4c8 6fbd 09d3 a4bb ee74 8c3d
00000140: 3378 ec3d 0804 57bd 18d4 983b f69e e03b
00000150: 2a25 04bd 98b5 16bd ce5c 13bd 2087 1bbd
00000160: 0b3b 16bc be59 e43d 1f18 fa3d 0658 0dbd
00000170: 4e75 34bd e902 0c3e 4089 5fbd d34d 02bc
00000180: 00e3 63bc 59af 0cbd 5dca 33bd dee3 3dbd
00000190: 9658 5ebc f4e7 d03d b4bc 91bc 708f 0bbd
000001a0: be6b 8cbd c34b a13d 8dda 18bd b924 f83d
000001b0: fb9a 41bd 08dd 093d c0db e5bc 7d28 ae3c
000001c0: 51d0 b3bc 10f8 7f3d 63f3 5ebd 8b04 0abc
000001d0: 2690 4ebd 29db f43d 8115 c83d 28b5 c73d
000001e0: 8f2d e03d a5aa 2b3d 3020 943c 831f c7bc
000001f0: 7e62 8b3d 331d d33d b931 ce3b ff91 833d
00000200: 1f5a b63d bd36 963c fa85 123e 05a6 c4bc
00000210: aa64 3ebd e4eb 3f3c a1d0 28bd 888f 0ebd
00000220: 78c7 fa39 2a99 603a cb25 19bd 3d5d 1ebd
00000230: bbbf 4bbd f60f 23bc c6e8 8a3c 3f19 dfbc
00000240: 3c52 7fbd 094f 23bd c87a c73d 7ea6 383d
00000250: ea1b d13d 4109 9d3d 4971 203d 313b b93d
00000260: 4bf8 f03d ce29 9d3d 2360 083e 3d33 de3d
00000270: 1e00 3ebd 0aa5 55bd 2531 da3d ba77 29bd
00000280: 5d7a 6c3d 4297 f93d c40a bd3d 52d3 663c
00000290: 0e32 0fbd a6b8 ed3d 5100 6ebd f37e d43d
000002a0: 6400 94bb 2fc4 a63d 51bc 993c 7da7 1e3d
000002b0: c3f3 b33d ee35 00bd 3ac4 14bd c646 e73d
000002c0: a0eb 763d 2d74 f8bc a38f 973d 7c2a e13d
000002d0: fc1d 85bd 1af1 a03d fceb 61bd d425 373e
000002e0: ff32 143e c61a 0d3e 3e41 063e 78e7 12bd
000002f0: ac22 6dbd 1036 81bd 6706 f03d d0a7 a43d
00000300: 9a53 f4bc 645c e7bc eda2 dd3d 9945 413d
00000310: a883 a0bc 9acf c23d 5abf 8e3b 479a 85bd
00000320: e67b 5cbd b40a c13d fd6a 1abd 5a57 6fbc
00000330: a54c 0c3e 757e 5fbc ff96 b13d 4198 91bd
00000340: d490 e63d f386 b0bb a775 4ebd 2444 19bd
00000350: e36f fbbc 495f 08bd 3771 fe3d ead4 463d
00000360: e32e 03bd 50bc b33d 40c9 283e 6b74 2e3e
00000370: 31af d8bb 4ae6 23bd 6be5 303d bd1c 153e
00000380: 3312 8a3d 705a a73d 66dc 89bd d96b 43bd
00000390: f8fe e2bc 6c49 89bb 8862 2bbb 5940 cc3d
000003a0: 6c1c b43d 2988 ae3d f568 863d 811c 003e
000003b0: 58b9 6b3d efdc 09bd 99a2 fd3d 24b4 13bd
000003c0: a61d 863d 0972 da3d 41b7 b93d 2139 ba3d
000003d0: 6cb3 293e 83ae e03c 077c 143e 953b b7bc
000003e0: 9c72 9a3d 5ef8 cdbc 08b9 f43d a6fb 10bd
000003f0: d6c5 993d babd 3b3b 35e3 113e 9baf 28bb

fc3.bias f4 [2]
-0.0092834905 -0.0342048
00000000: c819 18bc 551a 0cbd
