checkpoint_critic0.pth (torch, 747231 bytes, 5 tensors)

fc1.weight f4 [480, 24]
0	0x390fc303	0.0001371019
1	0x3da92f2a	0.08260949
2	0xbc196437	-0.009362272
3	0x3ca68c24	0.020330496
4	0xbd07e4b0	-0.033177078
5	0x3c4cdd8a	0.012503991
6	0x3cd07248	0.025445119
7	0x3d57bf4e	0.052672677
8	0x3c86348f	0.016382484
9	0x3dd99f80	0.10626125
10	0xbc4a522a	-0.012348691
11	0x3b8e81ff	0.004348993
12	0x3c92c34b	0.017915389
13	0xbca6254c	-0.020281456
14	0x3a975270	0.0011544954
15	0x3d5c1684	0.05373241
16	0xbc22eab9	-0.009943658
17	0x3df2aa74	0.118489176
18	0x3c8aba99	0.01693468
19	0x3bddb970	0.0067664906
20	0x3cc3d547	0.02390541
21	0xbe2c1ebe	-0.16808602
22	0xbd06e742	-0.03293539
23	0xbd0b4c90	-0.034008563
24	0xbd127c46	-0.035763048
25	0xbd121345	-0.035662908
26	0xbd244f9a	-0.040114976
27	0xbc973e94	-0.018462457
28	0xbdf8f4a5	-0.12156037
29	0x3cfba511	0.030718358
30	0x3cb7f995	0.022457877
31	0x3d5b546b	0.053547304
32	0x3d54b531	0.05193061
33	0x3c97d43c	0.018533818
34	0x3b14c592	0.002270077
35	0xbc6052b7	-0.013691596
36	0x3bb63c7e	0.0055614104
37	0x3d23667b	0.039892655
38	0x3cb07b63	0.02154321
39	0x3cd13f7a	0.025542963
40	0x3db81257	0.08987873
41	0x3ccac163	0.024750417
42	0xbb35c954	-0.002773841
43	0x3c9da5f3	0.01924417
44	0x3d646cac	0.0557677
45	0xbaf6d7f7	-0.0018832673
46	0x3c63c479	0.013901823
47	0x3d640a94	0.05567415
48	0xbaa60215	-0.0012665415
49	0x3cff58b6	0.03117023
50	0xbc8ab74c	-0.016933106
51	0x3be1fedb	0.006896836
52	0x3b720bbe	0.0036933268
53	0xbd9d27a8	-0.076735795
54	0x3bd25345	0.006418618
55	0xbc38248f	-0.011239185
56	0x3d1fdb3a	0.03902743
57	0x3d2cc0e3	0.04217614
58	0x3c2d5e6a	0.010581592
59	0x3d9316f1	0.0718211
60	0x3bdcd883	0.0067396774
61	0xbe4862b3	-0.19568901
62	0xbc9bd6b3	-0.019023275
63	0x3d364e7f	0.044508453
64	0x3d73e60d	0.059545565
65	0x3dea232c	0.1143249
66	0xba912323	-0.0011073094
67	0x3cced2b0	0.025246948
68	0xbb7ca176	-0.0038548387
69	0xbd8e765c	-0.06956169
70	0x3cb57452	0.022150192
71	0x3cc9670c	0.02458527
72	0xbc410da0	-0.011783034
73	0x3cee6a43	0.029103404
74	0xbc05c821	-0.00816539
75	0xbb78f3b8	-0.0037987065
76	0xbdccb12c	-0.0999473
77	0x3d5c2b45	0.053752203
78	0x3c120b6e	0.008913858
79	0xbc95d531	-0.018290134
80	0xbcb282e4	-0.02179093
81	0x3c3cc6be	0.011521993
82	0x3c898d2d	0.01679095
83	0xbcb1bb5d	-0.021695787
84	0x3d2db9f4	0.042413667
85	0xbd374a6a	-0.0447487
86	0xbc957597	-0.018244548
87	0x3ca71103	0.020393854
88	0xbcf91663	-0.030406183
89	0x3c067491	0.008206503
90	0xbba4fd2a	-0.0050350623
91	0x3d772da8	0.060346276
92	0x3dc0b7c0	0.094100475
93	0xbe021f38	-0.12707222
94	0x3b7fe0eb	0.0039043974
95	0x3cf9465e	0.030429062
96	0x3c0c816f	0.008575781
97	0x3e73117e	0.23737141
98	0xbce36918	-0.027760074
99	0xba8c3a3e	-0.001069851
100	0x3ca8b4d1	0.020594032
101	0x3d765298	0.06013736
102	0x3d0d38f6	0.03447815
103	0x3d18a152	0.037263222
104	0xbb85f595	-0.0040881136
105	0x3e5e2ac8	0.21696007
106	0x3bd5e260	0.00652723
107	0xbb132a81	-0.0022455754
108	0xbc1d44aa	-0.00959889
109	0x3da3e03d	0.080017544
110	0x3c20862b	0.009797613
111	0xbb3b88ff	-0.0028615592
112	0x3d991220	0.0747416
113	0x3e3e5f49	0.18591036
114	0x3cb847e6	0.022495221
115	0x3c7c7c5f	0.015410512
116	0x3cca4aa3	0.024693793
117	0xbda8904a	-0.08230646
118	0xbca15a3e	-0.019696351
119	0x3d82f0d8	0.063935935
120	0x3daec306	0.085332915
121	0xbb314f6e	-0.00270554
122	0xbb89f2c3	-0.0042098477
123	0xbbba14a0	-0.005678728
124	0x3d310326	0.043215893
125	0xbe00d18e	-0.12579939
126	0xbbedcb28	-0.007256884
127	0x3cb23876	0.021755438
128	0x3c421ed4	0.01184817
129	0xbd0d5606	-0.034505866
130	0x3c7d4d01	0.015460254
131	0x3b9f4ce9	0.0048614633
132	0x3aae8528	0.001331483
133	0xbdaeb58d	-0.08530722
134	0xbbd5aed1	-0.006521084
135	0xbcd2a0b4	-0.025711395
136	0x3d98ba20	0.074573755
137	0x3c81aaec	0.015828572
138	0xbd0ecdf0	-0.034864366
139	0xbd4a2572	-0.049352117
140	0xbc5176a5	-0.012784635
141	0xbb37a23c	-0.0028020283
142	0x3d2ed03b	0.042679053
143	0xbd4f965e	-0.05068051
144	0x3cff35ba	0.031153549
145	0xbd8af82c	-0.06785616
146	0x3d12da59	0.035852764
147	0xbc95ca8c	-0.018285058
148	0x3d88c5d3	0.06678357
149	0xbe338805	-0.17532356
150	0xbd40f651	-0.047109906
151	0x3a08dfb7	0.00052213244
152	0xbcb8a23d	-0.022538299
153	0xbdae1576	-0.08500187
154	0xbc8abdd7	-0.016936226
155	0xbd3004eb	-0.04297344
156	0x3d16534a	0.036700524
157	0xbc28b533	-0.0102971075
158	0x3ce5c02d	0.028045738
159	0xb90a6b63	-0.0001320071
160	0xbcbd795a	-0.023129154
161	0xbe08035a	-0.13282529
162	0x3c734de3	0.014850113
163	0xbd7a2e0a	-0.061079063
164	0xbd9d8f6a	-0.0769337
165	0x3c282987	0.010263807
166	0xbc6bac5d	-0.014384356
167	0xbd6c08e3	-0.057625663
168	0xbd2f6a89	-0.04282621
169	0x3dae75b3	0.08518543
170	0xbcf92a59	-0.0304157
171	0x3cc24dc6	0.023718726
172	0xbc75bfa6	-0.014999306
173	0xbdf5f207	-0.12009054
174	0x3c4b3ee6	0.012405133
175	0xbd410a56	-0.047128998
176	0x3cdcfbf7	0.026975615
177	0x3ce245fd	0.027621264
178	0xbc4c9eed	-0.012489063
179	0xbc3382fe	-0.010956524
180	0xbc540da6	-0.012942707
181	0xbd835357	-0.0641238
182	0x3b9497cb	0.0045346967
183	0x3cb564f5	0.022142867
184	0x3c0adfc2	0.0084762
185	0x3ce22b89	0.02760865
186	0xbc53d701	-0.012929679
187	0x3c672684	0.014108304
188	0x3d820f13	0.063505314
189	0xbd967b86	-0.07347779
190	0x3a9cdd36	0.0011967781
191	0xbc23e1e2	-0.010002585
192	0xbc4dde15	-0.0125651555
193	0xbd5fc23d	-0.0546286
194	0x3d12dee2	0.03585709
195	0xbcfee10e	-0.031113174
196	0x3dbdbbf5	0.092643656
197	0x3d5f4094	0.054504946
198	0xbd0d1118	-0.03444013
199	0xbcb1783c	-0.021663778
200	0xbcd6684e	-0.026172783
201	0x3d2110e8	0.039322764
202	0xbc5c3ec4	-0.013442699
203	0x3cc20244	0.023682721
204	0x3d0688d0	0.03284532
205	0xbd2cf25d	-0.042223323
206	0x3c77aa1a	0.015116239
207	0xbd09dcd9	-0.033657882
208	0x39f3cae4	0.00046499737
209	0x3d947481	0.07248784
210	0x3cb83a68	0.022488788
211	0xbcbf297d	-0.023335213
212	0xbdc010fa	-0.09378238
213	0xbd81e33a	-0.06342168
214	0xbca45eb8	-0.020064697
215	0x3c5f9135	0.01364546
216	0x3d220644	0.039556757
217	0xbcef14fd	-0.029184813
218	0xbc2c5b1c	-0.010519769
219	0xbd062412	-0.032749243
220	0x3d132e6b	0.03593294
221	0xbd0cb7a0	-0.034354806
222	0xbc492df4	-0.0122790225
223	0xbd047dba	-0.032346465
224	0x3cd29853	0.0257074
225	0xbd5cc452	-0.053898163
226	0x3ba09bb9	0.004901376
227	0xbbe76ca0	-0.0070625097
228	0x3d16efbc	0.036849722
229	0x3db8859f	0.09009861
230	0xbca3cd62	-0.019995395
231	0xbd7d5a70	-0.061853826
232	0x3ddebb34	0.1087555
233	0xbc5b8bcc	-0.013400029
234	0x3c03ccbc	0.008044418
235	0xbc54b1cf	-0.012981846
236	0x3d4e2fae	0.05033844
237	0x3ded9dc6	0.116023585
238	0xbc84c93b	-0.016209235
239	0xbc92de1b	-0.017928174
240	0xbc5c3cdd	-0.013442245
241	0x3d026d59	0.031842563
242	0xbb551a9e	-0.0032517086
243	0x3c5693bb	0.013096745
244	0xbd5fa774	-0.054603055
245	0x3d6a5411	0.05720908
246	0xbba82319	-0.005131137
247	0xbd322fbd	-0.043502558
248	0x3c6b6ce4	0.014369223
249	0x3db4db29	0.08830864
250	0xbbb1bc82	-0.005424083
251	0xbcc03de5	-0.023467014
252	0x3c689074	0.014194597
253	0x3d1c4dc0	0.038160086
254	0xbc157e6b	-0.009124379
255	0x3c5554e2	0.013020726

fc1.bias f4 [480]
0	0x3e60c013	0.2194827
1	0xbe14b397	-0.14521633
2	0x3e2f9ee8	0.17150462
3	0x3e0b4f45	0.13604458
4	0xbe1f5f49	-0.15563692
5	0x3d9fd23e	0.078037724
6	0xbe5b52a9	-0.21418251
7	0xbe3d1378	-0.18464458
8	0x3ba8fe46	0.005157265
9	0xbe18ae29	-0.14910187
10	0x3e2ffc84	0.17186171
11	0xbba0c294	-0.004906008
12	0x3bd3d56b	0.0064646504
13	0x3e65efe3	0.22454791
14	0x3da26907	0.079301886
15	0xbe05430a	-0.13013855
16	0xbcd17032	-0.025566194
17	0x3daafc45	0.08348898
18	0x3dfaeb78	0.12251943
19	0xbd6e618c	-0.058198497
20	0x3dcb98fd	0.099412896
21	0xbe3d827a	-0.18506804
22	0xbd0e8f93	-0.03480489
23	0xbe0b87f3	-0.1362608
24	0xbe442dd5	-0.19158109
25	0xbe376879	-0.17910947
26	0xbe15047e	-0.14552495
27	0xbdb27097	-0.08712881
28	0x3d198f00	0.03748989
29	0xbd00c042	-0.03143335
30	0xbd8eab2d	-0.06966243
31	0xbdd823ce	-0.10553704
32	0xbd9d5409	-0.07682044
33	0x3e14c451	0.14528014
34	0x3e2c4a3a	0.1682519
35	0xbdffa9dd	-0.12483571
36	0xbcc16119	-0.02360587
37	0x3e413ad3	0.18870096
38	0xbe27b4b5	-0.16377528
39	0x3cad376d	0.021144593
40	0xbe5b01b8	-0.21387374
41	0x3ccaaf56	0.02474181
42	0xbe80cfb0	-0.25158453
43	0xbdbb8822	-0.09156825
44	0x3e10781f	0.14108323
45	0xbe7ec715	-0.24880631
46	0xbbe12ffa	-0.0068721743
47	0x3d79b127	0.06095996
48	0x3e2da51d	0.16957517
49	0x3d69cb23	0.057078492
50	0xbe6fb706	-0.23409662
51	0x3c1ca208	0.009560116
52	0xbcda9b6b	-0.026685437
53	0xbd92b4ea	-0.07163413
54	0xbd5ff494	-0.054676607
55	0x3d58a077	0.052887406
56	0xbe6012e6	-0.21882209
57	0xbdacd7cf	-0.084396
58	0x3cb3df1c	0.021956973
59	0x3dc141d7	0.09436386
60	0xbe1460c6	-0.14490041
61	0xbe2b2865	-0.16714628
62	0xbdb90799	-0.09034652
63	0xbe694ed8	-0.22783983
64	0xbd0f5503	-0.034993183
65	0xbe325796	-0.17416224
66	0xbde0a9dc	-0.10969898
67	0xbc6f3675	-0.014600386
68	0x3e59dc36	0.2127541
69	0xbd0d6bfc	-0.03452681
70	0xbdec3688	-0.115338385
71	0xbe897f28	-0.26854825
72	0x3dd8f26c	0.10593113
73	0xbd61688c	-0.055031344
74	0xbe324041	-0.17407323
75	0x3e7316e0	0.23739195
76	0xbe56f443	-0.20991616
77	0x3e4ec914	0.20193893
78	0xbe0f45eb	-0.13991515
79	0x3e378031	0.17919995
80	0xbd411619	-0.047140215
81	0x3c22a47b	0.0099269105
82	0x3e1d5623	0.1536489
83	0xbe687e21	-0.22704364
84	0xbe7a6d5e	-0.24455783
85	0xbd78d2d8	-0.06074795
86	0x3e66ee75	0.22551902
87	0xbd9d3f33	-0.0767807
88	0x3e2bb11d	0.16766782
89	0xbe24276b	-0.16030662
90	0x3de5c6aa	0.11219533
91	0xbe475a11	-0.19467951
92	0xbe880f3e	-0.2657413
93	0x3da5f88c	0.08104047
94	0x3e462466	0.19349822
95	0xbe0caefe	-0.13738629
96	0xbdaa284e	-0.08308469
97	0xbdd14991	-0.1021911
98	0xbe23eed3	-0.16009073
99	0x3e326a1b	0.17423289
100	0x3e0d41b5	0.13794596
101	0xbdedbac6	-0.1160789
102	0xbcfefee5	-0.031127403
103	0xbd90b181	-0.07065106
104	0xbe8f6717	-0.2800834
105	0xbd3bd35c	-0.045855865
106	0xbe74b50e	-0.23897192
107	0x3e28acfc	0.16472238
108	0xbd8eb22d	-0.06967578
109	0xbe43cbac	-0.19120663
110	0x3dbe07f4	0.09278861
111	0x3dfc3824	0.123153955
112	0xbe3cc47c	-0.18434328
113	0x3e11fe4b	0.14257161
114	0xbdda816a	-0.10669215
115	0xbe7cb93d	-0.24680038
116	0xbe02de86	-0.12780198
117	0xbe9c39d3	-0.30512866
118	0x3e03efe1	0.12884475
119	0x3cd0f1cf	0.025505928
120	0xbd4dc9a2	-0.05024112
121	0xbd91b8f6	-0.071153566
122	0xbe4d4ca2	-0.20048764
123	0xbe06b144	-0.13153559
124	0xbe21f341	-0.1581545
125	0xbe2d4c09	-0.16923536
126	0x3d6f1ed7	0.05837902
127	0x3e0fd13f	0.14044665
128	0xbe4a5ea2	-0.19762662
129	0xbe1dc119	-0.15405692
130	0x3cf64933	0.030064201
131	0xbe1e8e45	-0.15483959
132	0x3dd9b916	0.106310055
133	0x3dcfb865	0.10142592
134	0xbcf26b47	-0.02959217
135	0xbe6f91f9	-0.23395528
136	0x3e7a5161	0.24445106
137	0x3db10e78	0.08645338
138	0xbdfe485e	-0.12416147
139	0xbc6280c1	-0.013824643
140	0xbe5730f2	-0.21014765
141	0xbe187b0a	-0.14890686
142	0xbde1f101	-0.11032296
143	0x3da2bdc3	0.079463504
144	0xbdc73984	-0.09727767
145	0x3db06cda	0.08614512
146	0x3e5d01bf	0.21582697
147	0x3d840496	0.06446187
148	0x3e2da4f8	0.16957462
149	0xbe7248dd	-0.23660608
150	0x3e39a677	0.18129908
151	0xbe224c0f	-0.15849327
152	0x3d1ac4ef	0.037785467
153	0x3d88d150	0.06680548
154	0xbe2be287	-0.16785632
155	0x3e020601	0.12697603
156	0x3d7bed43	0.061505567
157	0x3e3eb92c	0.18625325
158	0xbd62775e	-0.05528962
159	0xbe1bbf8a	-0.15209785
160	0x3cf96eee	0.030448403
161	0xbe3f523a	-0.1868371
162	0xbe589477	-0.21150385
163	0xbd28adad	-0.041181255
164	0x3d747300	0.059679985
165	0x3dfd8103	0.12378123
166	0x3c97dfb7	0.018539293
167	0x3e144f25	0.14483316
168	0x3db09f0c	0.08624086
169	0xbe26ff9d	-0.16308446
170	0xbe0570d3	-0.1303132
171	0x3e41b3d6	0.18916258
172	0xbdb2ff29	-0.08740074
173	0xbe915803	-0.2838746
174	0xbe07357a	-0.13203993
175	0x3cd7ba85	0.026334057
176	0xbe0eca5b	-0.1394438
177	0xbe689c3a	-0.22715846
178	0x3e70f643	0.23531441
179	0xbdb3da8f	-0.08781921
180	0x3dba39b5	0.09093038
181	0xbe02af9f	-0.12762307
182	0xbc04c64b	-0.008103917
183	0xbd57c385	-0.052676696
184	0x3da0e744	0.078566104
185	0x3e36cba0	0.17851114
186	0xbd99e015	-0.075134434
187	0xbe3b2218	-0.18274724
188	0x3d1d92e8	0.03847018
189	0xbd9a3bc6	-0.07530932
190	0x3dd37e40	0.10326815
191	0xbe0b9e69	-0.13634647
192	0xbe9233c4	-0.2855512
193	0xbcc27827	-0.023738934
194	0xbe07dded	-0.13268252
195	0xbe68e076	-0.22741875
196	0x3e2e768a	0.17037407
197	0xbd888329	-0.06665642
198	0x3c394b83	0.011309507
199	0xbcd6e942	-0.026234273
200	0xbe2cafeb	-0.16863982
201	0x3e45d146	0.19318113
202	0x3c6147bb	0.013750012
203	0xbd9e6115	-0.07733361
204	0x3ce3a55e	0.027788814
205	0x3db9f58a	0.09080036
206	0x3e36b8f7	0.17843996
207	0xbe0fb4fa	-0.14033881
208	0xbca3cb62	-0.019994441
209	0xbe97c45e	-0.29642004
210	0x3e120823	0.14260916
211	0xbd8a158d	-0.06742392
212	0xbc13ac7e	-0.009013293
213	0xbe0ec515	-0.13942368
214	0xbc8b5aea	-0.017011125
215	0xbdd7a929	-0.105303116
216	0x3e5a3ac8	0.21311486
217	0xbe2c03fd	-0.16798396
218	0x3dd3e8e3	0.10347154
219	0xbe118a79	-0.1421298
220	0x3c388b2f	0.011263653
221	0xbdba00e9	-0.09082205
222	0xbd86709d	-0.06564448
223	0x3dcbf48b	0.09958752
224	0xbe184b55	-0.14872487
225	0xbe5f2d04	-0.21794516
226	0xbea18bff	-0.3155212
227	0x3daf1505	0.08548931
228	0xbe8645b1	-0.26225045
229	0x3d78bf12	0.060729094
230	0xbe60eaa8	-0.21964514
231	0xbdf472ef	-0.11935984
232	0xbe81219a	-0.25220948
233	0x3e1d15d4	0.15340358
234	0xbe723241	-0.23651983
235	0xbceace9f	-0.028662978
236	0xbc8846fb	-0.016635409
237	0xbbf95029	-0.007608433
238	0xbe3d9ebd	-0.18517585
239	0xbea0fdf7	-0.3144376
240	0xbe76ce79	-0.241022
241	0x3e03eeca	0.1288406
242	0xbba6c744	-0.0050896723
243	0x3d99c9c8	0.0750919
244	0xbcabf120	-0.020989
245	0xbe6279da	-0.22116795
246	0x3d80efeb	0.06295761
247	0x3d31aed8	0.043379635
248	0xbdc825ca	-0.09772833
249	0x3dfc8dfa	0.123317674
250	0xbe11cfe0	-0.14239454
251	0x3e8c954f	0.27457663
252	0xbdbe8137	-0.093019895
253	0xbe8f0e49	-0.27940586
254	0x3d83ef73	0.06442156
255	0xbd00a2ea	-0.031405367

fc2.weight f4 [360, 482]
0	0xbd4c27d9	-0.04984269
1	0x3d458d84	0.048230663
2	0x3cf6e584	0.030138738
3	0x3d218e8b	0.03944258
4	0xbbb0077a	-0.005371985
5	0xbd24b80e	-0.04021459
6	0x3d1a0f08	0.03761199
7	0xbc22bf7d	-0.00993335
8	0xbc256641	-0.01009518
9	0x3b9b8725	0.004746335
10	0x3bb6376a	0.005560805
11	0x3bce6037	0.006298091
12	0x3d2ce572	0.042211004
13	0x3d8f6c1b	0.07003041
14	0xbda1731c	-0.078832835
15	0x3cf26673	0.029589867
16	0x3ce07a6f	0.02740213
17	0xbc614dee	-0.01375149
18	0x3d864566	0.065562055
19	0xbe15ffb1	-0.1464832
20	0xbc3df021	-0.011592896
21	0x3d16ec8e	0.03684669
22	0x3d916047	0.070984416
23	0xbbbd888a	-0.005784099
24	0x3cc43ade	0.023953851
25	0x3d397677	0.045278993
26	0x3da0e4da	0.0785615
27	0xbb41d6fe	-0.0029577608
28	0xbcc3eda3	-0.023917025
29	0x3cfc7650	0.030818135
30	0x3cf91417	0.030405087
31	0x3d6b1077	0.05738875
32	0xbd296d8d	-0.04136424
33	0xbc3ff258	-0.011715494
34	0xbd298b83	-0.041392814
35	0x3d095747	0.0335305
36	0xbd907d5d	-0.07055161
37	0x3cbb9414	0.022897758
38	0xbc6f68fb	-0.014612432
39	0x3d3501d3	0.044191193
40	0x3d5a288c	0.053261325
41	0xbc3562e6	-0.0110709425
42	0x3c75ae89	0.014995226
43	0x3c8717eb	0.016490897
44	0x3ca21681	0.019786121
45	0xbcc2d90c	-0.023785137
46	0xbd112d2e	-0.035443477
47	0xb9eafe05	-0.00044821217
48	0xbc1246e6	-0.008928036
49	0x3c90c24d	0.017670775
50	0x3c87ffb7	0.016601427
51	0x3cb3ef66	0.02196474
52	0x3c84f2b1	0.016229006
53	0xbcfc80ff	-0.030823229
54	0x3d0dd569	0.034627352
55	0xbd0ea0f3	-0.034821462
56	0xbb4decdc	-0.0031421697
57	0x3c8948bd	0.016758317
58	0xbcea05a1	-0.028567137
59	0xbd1159a7	-0.03548589
60	0x3c571a33	0.013128805
61	0x3cfb27f6	0.030658703
62	0xbc03a2e6	-0.0080344435
63	0x3d049128	0.032364994
64	0xbd1a780e	-0.03771215
65	0x3cca8bf6	0.024724942
66	0x3c132f3b	0.008983429
67	0xbd239b93	-0.03994329
68	0xbc3dc1af	-0.011581822
69	0x3b5c7477	0.0033638754
70	0xbd4cac37	-0.049968924
71	0x3d224031	0.039612
72	0xbc550704	-0.013002161
73	0x3d5a69ef	0.053323682
74	0x3ce27bf3	0.027646994
75	0xbd251563	-0.0403036
76	0xbcd8ef13	-0.026481187
77	0xbc57d3fd	-0.013173101
78	0xbd34f9b0	-0.044183433
79	0x3d4b5615	0.04964264
80	0x3c828530	0.01593265
81	0xbb13671d	-0.002249188
82	0x3d44c6fe	0.048041336
83	0x3d3a95ed	0.045553137
84	0x3cd0403a	0.02542125
85	0x3ca8f9c8	0.020626917
86	0x3d00f387	0.031482246
87	0x3d2a1aa0	0.041529298
88	0xbc91619d	-0.017746741
89	0x3d3fd1d0	0.046830952
90	0xbd37f63e	-0.04491257
91	0x3ce9ebd4	0.028554834
92	0x3cd285f4	0.02569864
93	0xbb2a5ae0	-0.0025994107
94	0x3d7827b7	0.06058475
95	0xbda84083	-0.0821543
96	0x3d696bdc	0.05698763
97	0xbc361373	-0.0111130355
98	0x3b2374c7	0.002494143
99	0xbcf4348e	-0.029810216
100	0x3ca05c8d	0.019575382
101	0x3d292559	0.041295383
102	0x3d42263a	0.047399737
103	0x3cccb02d	0.02498635
104	0x3d116e0b	0.035505336
105	0xbcb05b50	-0.021527916
106	0x3bbede7d	0.0058248625
107	0x3c3473d7	0.0110139465
108	0xbcb4f62b	-0.022090038
109	0xbce8dbba	-0.028425086
110	0x3a54f643	0.0008123854
111	0x3d1f281f	0.03885662
112	0x3c18ff23	0.009338173
113	0xbbfa9437	-0.007647063
114	0xbcddc58c	-0.027071737
115	0xbcbf7714	-0.02337221
116	0xbc58c053	-0.013229447
117	0x393e0335	0.00018121007
118	0x3cd8910b	0.02643635
119	0x3d2158fb	0.0393915
120	0xbcb5996d	-0.022167886
121	0xbd8ce52c	-0.068796486
122	0x3d54793c	0.05187343
123	0x3c12ab45	0.008951967
124	0xbd2432b5	-0.04008742
125	0x3d8788d4	0.06617895
126	0xbcb3a7ba	-0.021930564
127	0xbc8dfa3d	-0.017331237
128	0xbc8134e3	-0.015772289
129	0x3d4d8da1	0.050183896
130	0xbd045249	-0.032305036
131	0xbbc1bf96	-0.0059127314
132	0xbd082cd1	-0.033245865
133	0xbc81fa41	-0.0158664
134	0x3a003e9e	0.0004892143
135	0xbcd6ae09	-0.026206033
136	0x3d30b06e	0.043137006
137	0xbd9fa053	-0.07794251
138	0xbd39eaa8	-0.0453898
139	0xbc6f94aa	-0.014622847
140	0xbce48f40	-0.027900338
141	0xbd598ff3	-0.053115796
142	0x3cb42b67	0.021993352
143	0x3d86c715	0.06580941
144	0x3d076fe7	0.033065703
145	0xbd06fa45	-0.03295352
146	0xbc149e21	-0.009070904
147	0xbd4ce1e2	-0.050020106
148	0x3d58d5c9	0.052938256
149	0xbb64d913	-0.0034919425
150	0x3c9fc232	0.01950178
151	0x3cb6b35f	0.022302328
152	0x3ab380cb	0.0013695
153	0xbc839a0e	-0.01606467
154	0xbd2e8983	-0.04261161
155	0x3caa078c	0.020755552
156	0x3d8bd030	0.06826818
157	0x3d857525	0.06516484
158	0x3da31235	0.07962457
159	0xbc3c33bf	-0.011486947
160	0xbd919bd3	-0.07109799
161	0xbcb39f13	-0.021926438
162	0xbd25f4c5	-0.040516634
163	0x3bf1079f	0.007355645
164	0x3c76da02	0.015066626
165	0x3cfd41e0	0.0309152
166	0x3c013085	0.007885103
167	0xba6ff941	-0.0009154268
168	0xbd61a9c3	-0.055093538
169	0x3c59c915	0.013292571
170	0x3d2b95a9	0.041890774
171	0x3c22f256	0.009945473
172	0xbbd00415	-0.006348143
173	0x3c914672	0.017733786
174	0xbddfd1a6	-0.10928659
175	0xbd188c78	-0.037243336
176	0x3cd38cd2	0.025823984
177	0xbdcd4ffd	-0.10025022
178	0x3ca4d3f7	0.020120604
179	0xbd806c17	-0.062706165
180	0xbd0d50a3	-0.03450073
181	0xbd188e5a	-0.037245132
182	0x3afb81af	0.0019188429
183	0x3d57e48d	0.052708197
184	0x3cf12708	0.029437557
185	0xbd4104b8	-0.04712364
186	0x3d617bfd	0.055049885
187	0x3d3557f9	0.04427335
188	0xbcec66f1	-0.02885768
189	0x3cbd35a5	0.023096869
190	0xb9266910	-0.00015870132
191	0xbd197c48	-0.03747204
192	0x3d4233f0	0.047412813
193	0xbc68eb80	-0.014216304
194	0xbd292613	-0.041296076
195	0x3c9d0d9e	0.019171532
196	0x3cc6fcf8	0.024290547
197	0xbd9af663	-0.07566526
198	0xbd0a7c20	-0.03380978
199	0xbcaba32f	-0.020951835
200	0xbc9d2475	-0.019182423
201	0xbb958fd0	-0.004564263
202	0x3cd8858c	0.026430868
203	0xbcba4844	-0.022739537
204	0x3ce0f1e4	0.027459092
205	0x3c96ad1d	0.018393094
206	0xbb886902	-0.0041629085
207	0x3c401c57	0.011725507
208	0x3cb09f72	0.021560404
209	0x3d433965	0.047662158
210	0x3b775f4f	0.0037746017
211	0x3cdfa4f2	0.027300332
212	0xbd5bbb78	-0.05364558
213	0xbd438249	-0.04773167
214	0xbd1c14c0	-0.038105726
215	0x3ca18e57	0.019721193
216	0xbcc0dabd	-0.023541803
217	0x3d2aa0cc	0.041657254
218	0x3cafc855	0.02145783
219	0x3d6f97df	0.058494445
220	0x3bcc95d7	0.0062434482
221	0x3c8c2076	0.017105322
222	0x3da20ed9	0.07912988
223	0x3c2bb220	0.01047948
224	0x3cf58d01	0.029974462
225	0x3d2d0d5e	0.042249076
226	0x3c7317ff	0.014837264
227	0xbb3495fa	-0.0027555213
228	0x3c5c7d6b	0.013457636
229	0xbcdd0eca	-0.026984591
230	0x3d52eb6c	0.051494047
231	0x3c496c91	0.012293951
232	0x3c6adeae	0.014335318
233	0x3d2fe430	0.042942226
234	0xbb722947	-0.0036950873
235	0xbb5bb256	-0.0033523045
236	0x3cd6a0e6	0.02619977
237	0xbd3e8ef0	-0.046523035
238	0xbc1c6e12	-0.009547727
239	0x3d24e5d0	0.04025823
240	0x3c9108cd	0.017704392
241	0xbd89bd4f	-0.06725561
242	0x3c7dc4d3	0.015488821
243	0x3d11d9b3	0.035608005
244	0x3d47a5e3	0.048742186
245	0xbd3ac3c5	-0.045596857
246	0xbb670f0a	-0.0035256767
247	0xbc6d1a23	-0.0144715635
248	0x3c459794	0.012060065
249	0xbb6101eb	-0.0034333419
250	0xbd62962a	-0.05531899
251	0x3c7d7b49	0.015471288
252	0xbc96cdb3	-0.018408632
253	0xbd3ad064	-0.045608893
254	0x3d2ae8b9	0.041725848
255	0xbd531151	-0.051530186

fc2.bias f4 [360]
0	0x3c999e57	0.01875226
1	0xbd247676	-0.040152036
2	0x3d2262b5	0.039644916
3	0x3d29bb8f	0.041438635
4	0xbd5605b5	-0.052251536
5	0x3dcde20f	0.10052883
6	0x3d3bbee2	0.045836337
7	0xbd2a18f3	-0.0415277
8	0xbd9d166e	-0.07670294
9	0xbc5f3e80	-0.013625741
10	0xbd27b5b8	-0.040944785
11	0xbc0e33d2	-0.008679347
12	0xbc7d7bc6	-0.015471404
13	0x3d7fece7	0.062481787
14	0xbb93d72b	-0.004511734
15	0x3d644c44	0.055736795
16	0x3d1ddfea	0.03854362
17	0x3c04eb75	0.008112778
18	0x3cb6a11d	0.022293622
19	0xbbfb67aa	-0.00767227
20	0xbd4e9b09	-0.05044082
21	0xbe02a87e	-0.12759587
22	0x3d94076e	0.072279796
23	0x3d12ae9e	0.03581106
24	0xbcbb98de	-0.022900041
25	0xbc82c5ee	-0.01596352
26	0x3d90172a	0.07035668
27	0x3cf1e858	0.029529735
28	0x3d3d8bf5	0.04627605
29	0xbd6a2903	-0.057168018
30	0x3cfe7f4c	0.03106656
31	0x3c122821	0.0089207
32	0xbd0a9daf	-0.033841785
33	0x3d3df70a	0.046378173
34	0x3d27e0a3	0.040985715
35	0x3d0196c8	0.031637937
36	0x3a7ee16b	0.0009722921
37	0xbd11e31b	-0.035616975
38	0x3cb9a7a1	0.02266294
39	0x3d0cd7a2	0.03438533
40	0x3cc403e2	0.023927633
41	0xbc548617	-0.012971423
42	0x3d2fc829	0.042915497
43	0x3ccb3adc	0.02480834
44	0xbcce3eda	-0.025176454
45	0xbc593bf6	-0.013258925
46	0x3acc8fd6	0.0015606831
47	0xbda40ac0	-0.08009863
48	0xbccf1cf0	-0.025282353
49	0xbc76657c	-0.015038844
50	0x3d2bd9ed	0.041955877
51	0x3cf6649a	0.030077267
52	0x3bb08c45	0.005387815
53	0xbd5b3c69	-0.05352441
54	0xbca4aa2f	-0.020100681
55	0xbcf05369	-0.029336648
56	0x3d829881	0.06376744
57	0x3da89f13	0.08233466
58	0x3d861421	0.06546808
59	0x3bc4bec2	0.0060041854
60	0xbc70ec73	-0.014704811
61	0x3d23451b	0.039860826
62	0x3c2aeb0f	0.010432019
63	0x3d9409ac	0.07228407
64	0xbdc57c16	-0.09642808
65	0x3d528017	0.051391687
66	0x3cce02d8	0.02514784
67	0xbc254fd4	-0.010089833
68	0x3d8c85e3	0.06861474
69	0xbd57e44d	-0.05270796
70	0x3d113816	0.03545388
71	0x3d43f23f	0.047838446
72	0xbd28a250	-0.04117042
73	0x3d12391f	0.035699006
74	0x3d636f4e	0.05552607
75	0xbb8deac3	-0.0043309643
76	0xbc6d265a	-0.014474476
77	0x3d3ac1b1	0.045594875
78	0xbd974774	-0.073866755
79	0x3cf68912	0.030094657
80	0x3d91a545	0.07111601
81	0x3bea28f3	0.007145995
82	0x3ca4bd35	0.020109752
83	0x3d55d028	0.052200466
84	0x3ce0d4c0	0.027445197
85	0xbde38a36	-0.11110346
86	0xbc2e9dda	-0.010657752
87	0x3d71ef91	0.05906636
88	0x3d0c37f2	0.03423304
89	0x3c7c3f09	0.015395888
90	0x3ccf9341	0.02533877
91	0xbd9eef19	-0.07760448
92	0x3d86138b	0.06546696
93	0xbc1f7823	-0.009733233
94	0x3dafea1d	0.085895754
95	0x3dd3fd25	0.10351018
96	0xbd1ce17a	-0.03830097
97	0xbd671e41	-0.056425337
98	0xba95f21e	-0.0011439954
99	0x3a511779	0.0007976215
100	0x3d5bc867	0.053657915
101	0xbcdd9b96	-0.027051728
102	0x3d29b01d	0.04142772
103	0xbd0b132c	-0.03395383
104	0xbda4a3bb	-0.080390416
105	0x3db50933	0.08839645
106	0x3d918af5	0.07106582
107	0x3b70bbcc	0.003673303
108	0x3d695692	0.056967326
109	0x3cda15b6	0.02662168
110	0x3d5e9a5e	0.054346435
111	0x3d025fc7	0.03182962
112	0x3d7428e2	0.0596093
113	0x3d57e653	0.05270989
114	0x3d988a84	0.07448295
115	0x3db03dfe	0.08605574
116	0xbcd7165b	-0.026255777
117	0x3dba7b6a	0.091055706
118	0xbd91f034	-0.07125893
119	0xbd03c0b5	-0.0321662
120	0x3c8fd586	0.01755787
121	0x3d8758d1	0.06608737
122	0xbd84c645	-0.064831294
123	0xbc76baef	-0.015059217
124	0xbc8f3a0d	-0.017483735
125	0x3cb5df7a	0.022201288
126	0x3d2c33d6	0.042041622
127	0xbd6bbd90	-0.057553828
128	0x3d08b6c2	0.033377416
129	0x3d4663eb	0.048435133
130	0x3d14cb27	0.036326554
131	0xbd35f210	-0.044420302
132	0x3d36bd45	0.044614095
133	0x3d04087f	0.032234665
134	0xbbcb4486	-0.006203237
135	0x3d8c1df0	0.068416476
136	0xbb35096f	-0.002762403
137	0x3ca81227	0.020516468
138	0xbc1c14e5	-0.009526466
139	0xbd37d0d3	-0.044876885
140	0xbd0678da	-0.032830097
141	0x3db97a24	0.090564996
142	0xbd19d07d	-0.037552346
143	0xbd023e17	-0.031797495
144	0x3d0e0e1a	0.034681417
145	0x3cc69eb8	0.024245605
146	0x3cdf2121	0.027237477
147	0x3d341be9	0.04397193
148	0xbca25187	-0.019814266
149	0x3cc6a39d	0.024247939
150	0x3ac347c1	0.0014898704
151	0x3d5da862	0.05411566
152	0xbc97e1a4	-0.018540211
153	0x3d83ee4f	0.06441938
154	0x3cf6b9ac	0.030117832
155	0x3dcbb9fc	0.09947583
156	0xbd25c08f	-0.04046684
157	0x3cf1ed73	0.02953217
158	0xbd03e375	-0.03219934
159	0x3dc59003	0.09646609
160	0x3d521b12	0.051295348
161	0x3b29361c	0.0025819605
162	0x3ad5c278	0.0016308567
163	0x3d1b4e31	0.037916366
164	0xbd5c02e7	-0.053713705
165	0xbc54ce71	-0.012988673
166	0x3d10eecf	0.035383996
167	0x3cfca7bf	0.030841706
168	0xbda8b1c8	-0.08237034
169	0x3bb2a2f0	0.0054515526
170	0xbdda3a4f	-0.10655653
171	0xbd7637f5	-0.06011196
172	0x3d0125e4	0.031530276
173	0x3d8e220b	0.06940087
174	0x3bf2e87e	0.007412969
175	0x3d46f49b	0.048573118
176	0x3c3dd6ec	0.011586886
177	0x3d24d1af	0.040239032
178	0xbbdf0dc3	-0.0068070604
179	0x3ca03c2a	0.019559938
180	0x3beba53f	0.0071913297
181	0xbccd7e08	-0.02508451
182	0xbd2e54c0	-0.042561293
183	0xbb0a4b50	-0.0021102019
184	0xbca2b093	-0.019859588
185	0x3cce66ad	0.025195444
186	0x3d924a1a	0.0714304
187	0x3d5d76d9	0.05406842
188	0x3cf9a55e	0.030474361
189	0xbcb6fd34	-0.022337534
190	0x3b075c88	0.0020654518
191	0xbbe0e900	-0.0068637133
192	0xbd82dcc4	-0.06389764
193	0x3d6f3b95	0.05840643
194	0x3d1b4428	0.037906796
195	0x3dc12d77	0.094325
196	0x3c1b823f	0.009491502
197	0x39aeb521	0.00033322818
198	0x3be2dc0a	0.0069232034
199	0xbcbfb5f8	-0.0234022
200	0xbd06d0b6	-0.032913886
201	0x3c59622f	0.013268038
202	0x3cdf9105	0.02729083
203	0xbc7cf6f9	-0.015439742
204	0x3d6f84fa	0.058476426
205	0x3d97e6ee	0.07417093
206	0x3d9ae979	0.075640626
207	0x3d5e9844	0.05434443
208	0xbd82ff15	-0.06396309
209	0x3d4400df	0.047852393
210	0xbd95a6c3	-0.07307198
211	0xbd1705e7	-0.036870863
212	0xbd92aefc	-0.07162282
213	0x3d89dd2b	0.067316376
214	0xbc0a9700	-0.008458853
215	0xbc187f54	-0.009307701
216	0x3db28a8c	0.08717832
217	0x3d8e3eb0	0.069455504
218	0xbd658109	-0.05603126
219	0x3bf9c018	0.0076217763
220	0x3ceb3d95	0.028715888
221	0x3bb7502d	0.0055942745
222	0x3d0c677c	0.034278378
223	0x3c73224e	0.014839722
224	0x39644a70	0.00021771505
225	0x3d56d9da	0.052453853
226	0xbd2be6cb	-0.04196815
227	0xbbde4b5f	-0.0067838873
228	0x3c41be86	0.0118252095
229	0xbc45e22c	-0.012077849
230	0x3cd618ca	0.026134867
231	0x3d9a988b	0.075486265
232	0x3d365ae0	0.04452026
233	0x3d70d80d	0.058799792
234	0xbc2c6953	-0.010523158
235	0x3cf66ee6	0.030082177
236	0xbbd17b7e	-0.0063928952
237	0x3d92d4e6	0.071695134
238	0x3b0b1b18	0.0021225866
239	0xbcbd7e74	-0.023131587
240	0xbd1ed5cc	-0.03877811
241	0xbd947307	-0.07248502
242	0x3c9c31b1	0.019066663
243	0x3d4fb994	0.05071409
244	0x3ad13bc6	0.0015963248
245	0x3b1a3ab8	0.0023533534
246	0xbd002819	-0.03128824
247	0xbd0c2f8b	-0.034225028
248	0x3d512c61	0.051067714
249	0xbd5d80ee	-0.054078035
250	0x3da3522c	0.079746574
251	0x3d435486	0.04768803
252	0x3d04476d	0.03229468
253	0x3cffd57e	0.03122973
254	0xbdb5fb60	-0.088858366
255	0xbd8c0916	-0.068376705

fc3.weight f4 [1, 360]
0	0xbb36f5c4	-0.0027917484
1	0x3aed54f6	0.0018106985
2	0x3b37f91c	0.0028072065
3	0xbbdfab18	-0.006825816
4	0xbd2adfc8	-0.04171732
5	0x3b01f7a9	0.0019831455
6	0x3bd55cd6	0.006511311
7	0xbc007bac	-0.007841986
8	0xbbd7b429	-0.006582756
9	0xbbccae30	-0.0062463507
10	0x3ae5f26a	0.0017543558
11	0x3bf1ac63	0.0073752864
12	0xbbaaba89	-0.005210225
13	0x3b8371b5	0.0040113577
14	0xbd8aef36	-0.06783907
15	0x3ae75d97	0.0017651793
16	0x3c67cd76	0.014148107
17	0xbc17c9d3	-0.009264427
18	0x3b9f97e5	0.004870402
19	0xbdafe32a	-0.0858825
20	0xbc2ea0bc	-0.010658439
21	0xbcd51bb9	-0.026014196
22	0x3b709e63	0.00367155
23	0x3b8df883	0.0043326034
24	0xbc3e0dfc	-0.011600014
25	0xbb959374	-0.004564697
26	0x3b1d4bdc	0.0024001515
27	0xbc3561a2	-0.011070641
28	0x3b64befb	0.0034903872
29	0xbbca6ce0	-0.0061775297
30	0xbd8a201b	-0.06744405
31	0xbd843f66	-0.06457405
32	0xbdb56e79	-0.088589616
33	0x3b5f8cf6	0.003411112
34	0x3b06a9bd	0.002054795
35	0xbc43a9ee	-0.01194237
36	0xbdac63fa	-0.084175065
37	0xbbd95617	-0.006632577
38	0xbd310d0c	-0.043225333
39	0xbcbc98fa	-0.023022164
40	0x3b711ccb	0.0036790844
41	0x3d31d5cd	0.043416787
42	0xbbe907ea	-0.007111539
43	0xbc7f19c8	-0.015570112
44	0xbc642fa9	-0.013927379
45	0xbc07f95b	-0.008299197
46	0xbba38c3b	-0.004991082
47	0xbbe5c2a4	-0.0070117284
48	0xbddc4305	-0.107549705
49	0xbc176a29	-0.009241619
50	0xbb7aa154	-0.0038243132
51	0xbb8e5a6b	-0.0043442748
52	0xbbb4a67f	-0.005513012
53	0xbdb3b706	-0.08775143
54	0xbbdd5651	-0.0067546745
55	0x3c8eabda	0.01741593
56	0x3b320200	0.0027161837
57	0x3b628355	0.0034563143
58	0x3b2af3ab	0.0026085179
59	0x3b2f992d	0.002679418
60	0x3bce9ea0	0.0063055307
61	0x3c2e4280	0.010635972
62	0xbc08e7a2	-0.008356007
63	0x3b4b8f0b	0.0031060602
64	0xbbde143f	-0.006777316
65	0xbc34b1aa	-0.011028687
66	0xbd249b05	-0.0401869
67	0x3b673a81	0.0035282674
68	0xbbcfd8aa	-0.006342967
69	0x3baeaa94	0.005330393
70	0xbc918e7c	-0.017768137
71	0x3b3ab86d	0.0028491274
72	0xbbc4d386	-0.006006661
73	0x3beb78ab	0.0071860156
74	0xbb7b812c	-0.0038376553
75	0xbc8497a2	-0.016185585
76	0xbb3ab0b4	-0.002848667
77	0x3b2391c5	0.0024958712
78	0xbc2a64fd	-0.010400054
79	0xbd425e87	-0.04745343
80	0x3b75b15e	0.0037489752
81	0xbb888980	-0.004166782
82	0xbba41937	-0.0050078887
83	0xbbb51d53	-0.0055271774
84	0xbbf6df2b	-0.007533928
85	0xbc4adad1	-0.012381271
86	0xbc979717	-0.018504662
87	0x3ac2ddc8	0.0014867121
88	0xbc23d674	-0.00999986
89	0xbc6457f3	-0.013936984
90	0xbddb0ad1	-0.106954224
91	0xbbae211e	-0.0053140065
92	0x3b673c0c	0.0035283593
93	0x3b1b326b	0.0023681174
94	0x3aef423d	0.0018253993
95	0x3af7b700	0.0018899143
96	0x3da0a1cd	0.07843361
97	0xbd8a78a0	-0.06761289
98	0x3c6fadad	0.01462881
99	0x3c225168	0.009907104
100	0x3ba371c5	0.0049879276
101	0xbc04528b	-0.00807632
102	0x3c6092f4	0.013706911
103	0x3cafa63b	0.02144157
104	0xbcd31b5a	-0.025769878
105	0x3b5face5	0.0034130153
106	0x3b40bf06	0.0029410734
107	0x3b5fee14	0.0034169005
108	0xbba3119e	-0.0049764654
109	0x3d8ca396	0.06867139
110	0xbc63942d	-0.013890308
111	0x3b72bed8	0.0037040021
112	0xbc889827	-0.016674114
113	0x3b8d4690	0.00431139
114	0x3b0ac517	0.0021174604
115	0x3b1d25c4	0.002397881
116	0x3b118b63	0.0022208325
117	0x3b24ba82	0.0025135581
118	0xbc4ba38c	-0.012429129
119	0xbb9701be	-0.004608362
120	0x3b541307	0.0032359974
121	0x3b7bb497	0.00384072
122	0xbb887b13	-0.004165062
123	0x3aaca3f9	0.0013171426
124	0x3af56bf8	0.0018724194
125	0xbdafde20	-0.08587289
126	0xbbb1b809	-0.00542355
127	0xbd552056	-0.05203279
128	0xbc0b8f5e	-0.008518068
129	0x3b033816	0.0020022443
130	0xbc00b49c	-0.007855561
131	0xbc4aafd6	-0.012371024
132	0xbbf881ef	-0.0075838487
133	0x3b823fe0	0.0039748996
134	0xbc8b8e18	-0.017035529
135	0x3b32afe5	0.0027265486
136	0x3ca46a98	0.02007036
137	0xbc132b12	-0.008982437
138	0xbbd189b9	-0.0063945916
139	0xbd1ad79b	-0.037803274
140	0xbc7ee899	-0.015558385
141	0x3b548960	0.0032430515
142	0xbb05cf6a	-0.0020417818
143	0xbbef8a6b	-0.007310202
144	0x3c9fb754	0.019496597
145	0x3b8a5beb	0.0042223833
146	0x3c600d7b	0.013675089
147	0x3b352919	0.0027642904
148	0xbbe5c1f4	-0.0070116464
149	0xbc96d6de	-0.018413004
150	0x3c026e49	0.007960864
151	0x3ba2d094	0.004968712
152	0xbc016bfc	-0.007899281
153	0x3b50258d	0.0031760663
154	0x3b2eaff5	0.0026655172
155	0x3b51d275	0.0032016311
156	0xbbd0948e	-0.0063653653
157	0x3b8b439e	0.004250004
158	0xbcdf9f96	-0.027297776
159	0x3b233be1	0.0024907517
160	0xbbefaeb3	-0.007314527
161	0xbc47a196	-0.012184521
162	0x3b52861e	0.0032123397
163	0xbb44cca9	-0.0030029214
164	0xbcda51e9	-0.026650386
165	0xbbf251f7	-0.007395025
166	0x3c3d01a5	0.011536037
167	0xbc138cea	-0.0090057645
168	0xbd31c21d	-0.04339801
169	0xbd13ce26	-0.03608527
170	0xbcfd0d81	-0.030890228
171	0x3ab07a98	0.001346427
172	0xbda9036f	-0.08252608
173	0x3b2d486e	0.0026440877
174	0xbba2d977	-0.0049697715
175	0x3b8500eb	0.0040589473
176	0xbcb57132	-0.022148702
177	0x3b3b5415	0.0028584052
178	0xbcc56959	-0.024098085
179	0xbb930431	-0.0044865836
180	0xbbd835cf	-0.0065982114
181	0x3d4b1dbc	0.049588904
182	0xbcbd5b4a	-0.02311482
183	0xbd7e3ed4	-0.062071636
184	0x3cdd210e	0.0269933
185	0xbbe3deed	-0.006954065
186	0x3b171ea0	0.0023059025
187	0xbb626d91	-0.003455017
188	0xbb9697d1	-0.0045957346
189	0xbb9f999b	-0.004870606
190	0x3d258a75	0.040415246
191	0x3b554513	0.0032542392
192	0xbbe7554d	-0.007059729
193	0x3be033d2	0.006842115
194	0xbbb1f8f3	-0.0054312884
195	0xbca7930c	-0.02045586
196	0xbd8bf06e	-0.06832968
197	0xbb62a93b	-0.0034585733
198	0xbbfccfc3	-0.007715197
199	0xbc045e8a	-0.0080791805
200	0xbc48fc68	-0.01226721
201	0xbd66fa42	-0.05639101
202	0xbc05424e	-0.008133484
203	0x3cb640a7	0.022247626
204	0x3b0ed976	0.0021797097
205	0x3b7c9155	0.0038538773
206	0x3b6c40f5	0.003604946
207	0xbbb46b74	-0.0055059735
208	0xbc9079c3	-0.017636186
209	0xbbb4d575	-0.00551861
210	0xbbf10161	-0.0073549007
211	0x3b1168b7	0.002218766
212	0xbb75d05b	-0.0037508223
213	0x3b4f0534	0.0031588795
214	0xbb6686e9	-0.0035175628
215	0xbbaf6a1b	-0.005353225
216	0x3b1bc0cc	0.002376604
217	0x3b2e4c48	0.002659576
218	0xbbaf967a	-0.0053585144
219	0xbbe19f21	-0.0068854247
220	0x3d605703	0.05477048
221	0xbbc38edb	-0.0059679574
222	0x3b387748	0.002814727
223	0xbc63e0d3	-0.013908583
224	0xbd4cf065	-0.050033946
225	0x3af34dbc	0.0018562595
226	0x3c40f1f6	0.011776438
227	0xbc21efd9	-0.009883844
228	0xbccf8676	-0.02533267
229	0xbdbd94a1	-0.09256864
230	0x3bbd61b8	0.0057794712
231	0xbbc331d6	-0.0059568686
232	0x3b8d07cb	0.0043039075
233	0x3be19e21	0.0068853055
234	0xbb96f0dd	-0.00460635
235	0xbc106265	-0.008812522
236	0xbbe08d1f	-0.0068527604
237	0x3b40a558	0.0029395428
238	0x3ba1d074	0.0049381796
239	0xbd1867d2	-0.037208386
240	0xbbb70488	-0.005585257
241	0xbc60b144	-0.013714138
242	0x3b9436ab	0.0045231185
243	0x3b1c587f	0.0023856459
244	0xbbdc706b	-0.0067272685
245	0xbd4a6172	-0.049409337
246	0xbb615e68	-0.0034388546
247	0xbb726c53	-0.0036990836
248	0x3c31ca99	0.010851526
249	0xbcd3a877	-0.025837166
250	0x3b32c940	0.00272806
251	0xbba5b729	-0.005057235
252	0xbbd4e10b	-0.006496554
253	0xbc0f2347	-0.008736438
254	0xbbc3b432	-0.0059724087
255	0xbcf0231b	-0.029313615
