checkpoint_critic1.pth (torch, 527007 bytes, 5 tensors)

fc1.weight f4 [400, 24]
000000 e0 d0 07 3b ec 75 94 bd c9 3b b2 bc 7d 7b 12 3d
       0.0020723864 -0.07249054 -0.021757023 0.0357623
000010 b3 73 00 bd e8 23 61 bd 9d 1f 86 3c d6 cc 91 3d
       -0.03136034 -0.054965883 0.016372496 0.071191475
000020 64 71 a9 3c 93 34 ce bd ea 4e 39 bc 7d 55 de 3a
       0.020683952 -0.100686215 -0.0113103185 0.0016962733
000030 9b e7 f1 3c f6 aa 17 bd 77 2c 64 3b ee 86 64 3d
       0.029529383 -0.037028275 0.0034816542 0.05579274
000040 b6 b7 18 bc 72 47 8f bd 0f c6 e6 3c bf e4 33 3d
       -0.009321144 -0.06996049 0.028170614 0.04391932
000050 38 7d 5a bc 9d a2 ba bd 4f c0 d8 bc a4 f1 43 ba
       -0.013335519 -0.09113047 -0.026458887 -0.0007474667
000060 c8 e0 99 bc c1 31 c5 bd 12 c2 0f bd 26 a2 b4 bc
       -0.018783942 -0.096286304 -0.03509719 -0.022049975
000070 e1 e3 dd bd 96 a5 49 3d 28 01 09 3d 87 c9 68 3d
       -0.1083448 0.04923018 0.03344837 0.056832816
000080 e6 41 65 3d 73 d8 e0 bb 43 8a 3f bc c4 f2 81 bc
       0.05597105 -0.0068617403 -0.011690679 -0.01586283
000090 1c bc a2 3c cc 34 0e 3d fd 5e 1a 3c 8e 23 de 3c
       0.019865088 0.03471832 0.009422061 0.027116563
0000a0 af d9 8d 3d 16 b3 0f 3d 32 36 22 bc 48 03 49 3c
       0.069262855 0.0350829 -0.0099006165 0.012268849
0000b0 dd cc 10 3d da 73 31 3d 1f 15 09 3c 92 b6 55 3d
       0.035351623 0.043323375 0.008366852 0.052176066
0000c0 d4 01 d4 bb c7 69 28 bd f4 46 70 bc 7b f6 20 3d
       -0.0064699445 -0.041116502 -0.014665354 0.039297562
0000d0 2a 5b 94 bd e3 fd 23 bb ea d5 32 3c 5f 2b 9f 3c
       -0.07243951 -0.0025023154 0.010915259 0.01942986
0000e0 56 91 9c 3c 71 74 fd bc 85 48 72 3c b2 1a 2c 3d
       0.01911227 -0.030939313 0.014787798 0.042017646
0000f0 80 13 24 bd 37 e8 80 bd 6f 86 90 bc 4d 37 46 3c
       -0.04005766 -0.062942915 -0.017642228 0.012098146
000100 97 54 93 3c 97 53 2f 3c 9b 81 40 bc d2 64 a5 bc
       0.017984672 0.010701082 -0.01174965 -0.020189676
000110 32 af 89 3c 92 8a 0d 3d d8 ea 60 3c 30 55 ab bc
       0.016807172 0.03455598 0.013727866 -0.020914644
000120 9f 57 88 bc 90 e2 b9 b9 38 d6 14 bc a2 77 04 bc
       -0.016643343 -0.00035454752 -0.009084277 -0.008085163
000130 c1 00 03 be c3 53 f4 3c 84 b1 1d 3c 1a 47 c4 bc
       -0.12793256 0.029825097 0.009624843 -0.023959685
000140 48 ee e4 bc 95 74 e4 bc a8 95 83 3c 7a 77 c9 bb
       -0.027945653 -0.027887622 0.016062573 -0.006148276
000150 5b 68 81 3b 8c 94 ce bc 2f d2 b6 bc d4 ab 23 3d
       0.0039492077 -0.025217317 -0.02231702 0.03995879
000160 a5 48 40 bd 59 19 11 bd cd 2b e4 bb 00 6b 44 3d
       -0.04694428 -0.035424564 -0.0069632293 0.047953606
000170 ea 41 97 3d 7c 56 97 bd 9a 71 39 3b 73 b9 78 3c
       0.07385619 -0.073895425 0.0028296472 0.015180933
000180 84 38 0f bc 31 08 4f 3d 7c e7 04 bd 55 c3 a1 bc
       -0.008741502 0.05054492 -0.032447323 -0.019746462
000190 0e 24 2c 3d 08 62 b4 3d 7d 5b 12 3d 99 3b b6 3c
       0.042026572 0.088077605 0.03573178 0.022245215
0001a0 f9 26 22 bc 0f 7e a1 3d 41 76 d6 3b 61 12 e5 3b
       -0.009896987 0.07885372 0.0065448587 0.0069907163
0001b0 1b 19 6d bb d5 da 47 3c dc ec 25 3c 43 f6 ce 3b
       -0.0036178294 0.01219817 0.010127272 0.006315978
0001c0 2c be 81 3d 14 98 90 3c df ba c2 3c a3 39 d6 bc
       0.063351005 0.017650642 0.023770748 -0.02615053
0001d0 a1 4b 26 bd 86 f7 9d bd 5d e4 b7 bc c7 3a dd 3c
       -0.04059947 -0.07713227 -0.02244776 0.027005566
0001e0 34 8a 6d 3d a7 94 01 3b d3 e9 83 bb 8f c3 3a bc
       0.05799313 0.0019772442 -0.0040256768 -0.011399164
0001f0 6a e3 69 bc 60 ec 88 bd 36 49 f1 bb 6c d0 98 3c
       -0.014275411 -0.0668571 -0.0073634638 0.01865407
000200 e9 b7 04 bd ab 0a ae bc 48 6c 2e 3c 3b 4c 0e 3c
       -0.032401953 -0.021245321 0.010645933 0.008685167
000210 27 01 0b bd 7e b4 0a bd 26 16 5c bc 67 36 cb bc
       -0.033936646 -0.033863537 -0.013433015 -0.024806214
000220 a3 cf cc 3c 95 2d 0d bb 09 fe 38 bd 6c 47 09 bd
       0.025001353 -0.0021542062 -0.04516414 -0.03351538
000230 aa f4 16 bb 6c 45 99 3d 61 f0 22 3d 2b 3d 0f bd
       -0.0023034015 0.07483944 0.039780024 -0.034970444
000240 cd 8a c4 3b 2e 3f bf 3d 5c 56 48 3d 80 2e 2e 3c
       0.0059979917 0.093382224 0.048910484 0.010631204
000250 1b cc 8a bb 22 5c f8 bd 56 e9 2b bd b8 dc ff 3c
       -0.004235757 -0.12126948 -0.041970573 0.031233177
000260 7a 10 ee bc 9f 3a b8 3d 62 6d a3 bc 9f 32 da bc
       -0.029060591 0.08995556 -0.019949619 -0.026635466
000270 19 13 d2 3c 56 c1 a2 bd 9e 3b f0 3c 35 42 a6 3c
       0.025643872 -0.07947032 0.029325303 0.020295242
000280 32 a1 50 bd 43 24 c7 3c cb ce 44 3c b3 ca 15 bd
       -0.050934978 0.024309283 0.012012194 -0.036570262
000290 f9 a9 11 bc c0 21 7d bd 0f f1 a3 bc eb 4b 06 bd
       -0.008890622 -0.061799765 -0.020012407 -0.032787245
0002a0 ea c8 13 bd 12 09 f1 bc 70 52 c9 bc 39 27 0e 3d
       -0.03608028 -0.02942327 -0.024575442 0.034705374
0002b0 c5 5f cd bc 3b e7 f6 bd 10 f3 b6 3c df bc 2f bd
       -0.02507008 -0.120558225 0.022332698 -0.04290473
0002c0 8e 37 0e 3d cf 22 90 bd f7 fb 39 bc ad 54 fd 3c
       0.03472095 -0.07037889 -0.011351577 0.030924166
0002d0 54 cc 30 bc a1 44 bb bd 32 1a ef 3b 86 97 89 3d
       -0.010790903 -0.09143949 0.007296824 0.06718354
0002e0 4f 45 28 3c 38 bf bf bc 47 fc 6a bb 9e 23 23 3d
       0.010270431 -0.02340661 -0.0035855935 0.03982889
0002f0 8f 9b b4 3d 50 aa 2b bd be cb 42 3c ec d0 5b 3c
       0.08818733 -0.04191047 0.011889396 0.01341651
000300 a7 92 c2 bb cb 6e 84 bd 49 00 24 3d b9 74 f2 bc
       -0.0059378925 -0.064664446 0.040039334 -0.029596673
000310 5d b7 02 3d a0 62 4e 3d 61 6b 17 bd 69 a9 9d bc
       0.03191315 0.050387025 -0.03696764 -0.01924582
000320 2a f8 43 bc 7b 11 18 3d 61 6d 66 bc 2e 80 27 3d
       -0.011961022 0.037126046 -0.014064164 0.040893726
000330 e6 7e 94 3c dc 4f 53 bd be 11 8d 3c 7e 91 b3 bc
       0.018126916 -0.05158983 0.017220374 -0.021919962
000340 bf 8f d1 3b 3d 44 2c 3d 74 bd b9 3c eb df e9 bc
       0.0063953097 0.042057265 0.022673346 -0.028549155
000350 c8 7b 31 bd 34 74 ba bd 4e 21 c4 bc 1a f7 43 3c
       -0.043330938 -0.09104195 -0.023941662 0.011960769
000360 3a 70 80 3d 67 22 a0 3c 93 ec 54 bc 68 a9 81 bc
       0.062714055 0.019547654 -0.012995857 -0.01582785
000370 46 fe c0 3b 60 4c 90 bc 71 7f 74 bc 7b 18 7c bc
       0.0058896868 -0.017614543 -0.0149229625 -0.015386696
000380 20 2c ed 3c 52 c2 61 bc 1f be ae 3b 41 a1 28 bc
       0.028951705 -0.01377924 0.005332723 -0.010292352
000390 75 0a 46 3d db 20 17 3d e3 bb b3 bc de 00 90 bd
       0.048349816 0.036896568 -0.021940177 -0.070314154
0003a0 00 ce 7d 3d c2 7d d1 3c f0 be b7 3c 13 f8 d0 38
       0.061964035 0.025572661 0.022429913 9.96442e-05
0003b0 0b bd 45 3d 6a fd 01 3c e6 9e 87 bb e2 48 ae bb
       0.04827599 0.007933954 -0.004138815 -0.005318747
0003c0 65 32 16 bd 71 59 d5 3b 25 57 c2 b9 81 45 00 3d
       -0.036669154 0.0065109064 -0.0003706749 0.031316284
0003d0 38 79 71 bd eb c3 26 3d 21 39 1f bb 44 5f fb bc
       -0.058953494 0.040714186 -0.0024295526 -0.030685075
0003e0 5a d0 77 bb ab d3 1d 3d cb 1a 60 bb 40 d0 b0 bc
       -0.0037813396 0.03853194 -0.0034195657 -0.021583676
0003f0 1a 79 87 3c 03 4a 87 3c f3 e2 f4 bb 5e 9f 96 3c
       0.016537238 0.016514784 -0.0074733435 0.01838654

fc1.bias f4 [400]
000000 a4 1d c4 3d 65 80 e4 3d 0c bb 96 bd 29 5a ac bd
       0.09575966 0.11157302 -0.07359895 -0.08415634
000010 35 0f e2 bd e7 42 4f 3e e9 6f 75 bd 5d 3c 10 3e
       -0.11038057 0.20240365 -0.05992118 0.14085527
000020 be f3 2a bd 4e 5b 7d bd aa 39 dc bd ae a9 1e 3e
       -0.041736357 -0.061854653 -0.10753186 0.15494415
000030 40 5e 06 be 84 bf d7 bd 5b 2c 92 3d 61 c3 0d be
       -0.13121891 -0.105345756 0.071373664 -0.13844062
000040 b2 76 10 bc 83 4d e2 3c 97 82 65 be 3a 58 19 be
       -0.008817362 0.027624851 -0.22413097 -0.14975062
000050 93 26 4a bd 39 93 be bd a8 40 90 3d d8 0a 87 3d
       -0.049353193 -0.09305424 0.07043582 0.06593865
000060 b4 a4 36 be e5 fb 34 3e 47 4a 0b 3d db 09 10 be
       -0.17836267 0.17674215 0.034006383 -0.1406626
000070 a2 75 35 3d cd 0d 83 be 5b f3 8e 3d ab 47 70 bd
       0.044301637 -0.25596467 0.0698001 -0.058662098
000080 ac 86 84 3d 02 b8 23 3e 86 a3 2f bc 6e ca 4c be
       0.06470999 0.15988162 -0.010720139 -0.19999096
000090 04 8d 24 bd 10 93 0a bd 68 f9 13 3e 1a 5d ec 3d
       -0.040173545 -0.033831656 0.1445061 0.11541195
0000a0 52 f1 48 be d6 5a 6a 3c 34 c4 20 be d3 9b 48 3e
       -0.19623306 0.014303884 -0.15699846 0.19590692
0000b0 54 53 5a be 13 90 09 3d 61 a5 8c 3c ab 58 44 3e
       -0.2132085 0.033584666 0.017168703 0.19174449
0000c0 93 8a 14 3e 30 82 79 3d 83 46 9c 3d 6a 2b 7c bc
       0.14505987 0.060915172 0.076306365 -0.01539121
0000d0 b1 46 2b be 2c 83 01 3e 95 33 7c be b4 db 4b be
       -0.16726185 0.12647694 -0.24629052 -0.19908029
0000e0 14 a3 2f 3e cc dc a7 3c 4e af 04 bd 59 56 36 3e
       0.17152053 0.020491026 -0.032393746 0.17806377
0000f0 00 3a 96 3d a0 4e c5 bd 3f f0 6c 3e b3 a9 79 bd
       0.07335281 -0.09634137 0.23138522 -0.060952853
000100 7b 30 47 3e 57 11 51 be ae b6 50 be a5 14 22 bc
       0.19452088 -0.20416771 -0.20382187 -0.009892617
000110 1d 66 33 3e 0c 1b 3e be dd f4 f6 3b 0a 88 d4 bd
       0.17519422 -0.18565005 0.007536514 -0.1037751
000120 28 55 79 be 48 63 90 bd 9a a2 62 bd fd 5a 94 3d
       -0.24348891 -0.070501864 -0.05533085 0.07243917
000130 85 97 54 be 73 b0 21 be a1 86 0b 3d 88 bd b6 bd
       -0.20760925 -0.15789966 0.03406394 -0.08922869
000140 db 0e 00 3e 7c a9 0e be 6d b9 5f be be 1c 16 3e
       0.12505667 -0.1393184 -0.21848078 0.14659402
000150 e2 84 df 3d e1 51 cc bd 50 f6 5c 3e 08 21 37 3e
       0.10914017 -0.09976555 0.21578336 0.17883694
000160 f5 24 71 be d4 bc 83 bd e1 9e 88 bd 59 2b a3 3d
       -0.23549254 -0.064325005 -0.06670929 0.07967252
000170 c9 d7 6a 3d db e2 1a be 68 8c 2a 3e cc 8d 3f be
       0.057334695 -0.15125601 0.16655123 -0.18706435
000180 2a c2 0f be 81 91 cd 3d 7f 0e 59 be ac 64 58 be
       -0.14038911 0.10037518 -0.21196936 -0.21132153
000190 37 a0 3a 3e 73 d9 d6 bd fc 4d 8e bd 0c 97 d5 3d
       0.1822518 -0.10490694 -0.06948468 0.104292005
0001a0 4c 58 c6 bd 76 b3 f0 bd 60 c0 5b be 07 b1 ce bd
       -0.0968481 -0.117529795 -0.21460104 -0.10092359
0001b0 74 52 07 bd ff 77 5e be 5b be b5 bb 9a 46 eb bc
       -0.033037618 -0.21725462 -0.005546374 -0.028720189
0001c0 8c 68 df 3d 6d f4 73 be 4c 64 42 bd 86 ce fb bc
       0.109086126 -0.2382371 -0.04745893 -0.030738126
0001d0 e1 e2 48 bd 2e c1 2d be 12 00 f9 3d 04 e0 f2 3d
       -0.049044494 -0.16968223 0.121582165 0.11859134
0001e0 a8 f7 21 be 7e 82 ce 3c c5 dc 7f bd d9 0a 2d bd
       -0.1581713 0.025208708 -0.0624664 -0.042246673
0001f0 f8 28 47 3d 37 22 f0 bd 5d 34 de 3d 90 62 fa 3d
       0.048623055 -0.11725276 0.10849831 0.122258306
000200 8b 5d 4b 3e 7e 69 67 be 66 e5 78 3b 25 af db 3c
       0.19859903 -0.22598836 0.003797853 0.026816914
000210 83 a8 ce bd 9a cf 01 bd 62 05 3e bd bf 7e 8d bd
       -0.10090735 -0.031692125 -0.046391852 -0.069089405
000220 e2 47 de bd 3e 1d 12 be 32 2e 62 be 70 64 34 3e
       -0.10853554 -0.14268968 -0.22087935 0.17616439
000230 70 5d 0d 3d d8 c5 04 3e a1 d7 82 3d 54 98 40 bd
       0.034512937 0.12966096 0.06388784 -0.04702027
000240 ca d9 09 3e 63 1d ec bd 8f 45 6f 3c 10 05 35 be
       0.13461986 -0.115290426 0.014603986 -0.17677712
000250 26 a0 45 3e 85 e3 88 be f7 b1 0d be c9 ad 48 3c
       0.19299373 -0.26736084 -0.1383742 0.012248465
000260 87 c0 18 be e2 4f 53 be cf d4 49 be 38 5c fa bd
       -0.14917193 -0.20635942 -0.19710086 -0.122246206
000270 93 0c 36 be 54 06 1c be d6 31 dd 3d ef 28 f7 3d
       -0.17778234 -0.15236789 0.10800521 0.12068354
000280 1c 8b b6 bd 6d 31 13 bc a4 49 11 be 20 49 05 3e
       -0.08913252 -0.008983952 -0.14188248 0.13016176
000290 77 f6 f9 bd 2f 77 67 bd fa 36 8e bd 86 3e 41 3d
       -0.122052126 -0.056510147 -0.0694408 0.047178768
0002a0 8b 0a 82 be 8f a9 51 3e 6e 4f c5 3c dd 91 1f be
       -0.2539867 0.20474838 0.024085727 -0.15582986
0002b0 c2 20 60 3d 53 31 86 be 3b a1 78 3d b3 c9 04 3e
       0.05471874 -0.26209506 0.060700636 0.12967567
0002c0 ba 0f 76 bd 34 5f 75 be 12 30 32 be e8 25 ff 3d
       -0.06007359 -0.23962098 -0.1740115 0.12458402
0002d0 91 bd 66 bd 99 a8 06 3e 16 67 22 be 47 f8 26 3e
       -0.05633313 0.13150252 -0.15859637 0.16305648
0002e0 02 32 b7 3d aa cb a3 bd a0 01 18 be e4 8f 7a bd
       0.08945085 -0.0799783 -0.1484437 -0.06117238
0002f0 b2 0e 7e 3c d1 4b 69 3e 2b 52 21 3e d4 54 5c be
       0.015506433 0.22782828 0.15754001 -0.21516734
000300 56 f3 68 be fa 5c 33 be 85 87 2d be f1 db f2 bd
       -0.22749075 -0.17515936 -0.16946228 -0.11858357
000310 27 0c 5f 3e 41 6d 11 3e db 28 88 bd 7f d4 58 bd
       0.2178198 0.14201833 -0.066484176 -0.052937027
000320 4a 84 e7 bd 6c a4 a3 3b 99 e6 03 bb 58 c3 48 bd
       -0.11304529 0.004993966 -0.002012646 -0.04901442
000330 b5 4f ce 3d a4 98 3a 3e 34 2d 98 3d 19 25 00 be
       0.10073797 0.1822229 0.07430497 -0.12514152
000340 98 f8 27 be b5 f0 bc 3d c9 0b 0f 3e 9d f9 3f 3e
       -0.16403425 0.09225599 0.1396934 0.18747564
000350 91 ee 34 be 4e d2 06 3e 3e d1 e5 bd 88 d4 d4 bc
       -0.17669131 0.13166162 -0.112215504 -0.025980249
000360 50 66 e2 bd dc 64 d4 3b 16 ca 42 3e 6b 32 e6 3d
       -0.11054671 0.00648175 0.19022402 0.11240085
000370 a2 6c 50 3d 41 c3 49 be 40 d0 22 be 2d 6a 4b 3d
       0.05088485 -0.1970339 -0.15899754 0.049661804
000380 39 12 1a 3e c8 a3 66 bd ab 0f 0d 3e b4 4b 88 bd
       0.15046014 -0.056308538 0.13775508 -0.06655064
000390 3c d9 64 be 3d b5 0d be 2b 63 b9 3d 32 b1 c5 3d
       -0.22348493 -0.13838668 0.09052118 0.09652938
0003a0 15 4e 8a 3c 57 d4 3b 3d 75 31 0d be 8e b4 e3 bd
       0.016882936 0.0458568 -0.13788398 -0.111184224
0003b0 e6 fb fe 3d 04 3b be bb a1 e3 9f bd 97 44 8b bd
       0.124503896 -0.005805375 -0.07807089 -0.06800192
0003c0 9b 59 f5 3d af d9 f5 3d af 21 a3 bd 5d 5c d5 3d
       0.119799815 0.120044105 -0.07965409 0.104180075
0003d0 3d 14 1d be 94 34 58 bb 1f ea 16 3e 52 f0 26 be
       -0.15339752 -0.0032990323 0.14737748 -0.16302612
0003e0 bd ea 0d 3e ee 6c 30 3d 18 0e 9a 3d f2 e2 20 3d
       0.13859077 0.043072633 0.075222194 0.039278932
0003f0 dc be 49 bd 2f e5 d8 bd 23 c4 44 bc 6f bf fc bc
       -0.049254283 -0.10590588 -0.012009653 -0.030853001

fc2.weight f4 [300, 402]
000000 1e c4 f5 3c 60 db a2 bc 2e 2c f4 3c 87 7c cb bc
       0.030000743 -0.019879997 0.029806223 -0.024839653
000010 ab b4 61 3b 91 4a 38 bc b8 e6 50 bd a2 1a 8f 3d
       0.0034439962 -0.011248247 -0.05100128 0.06987502
000020 e0 8a 83 3c 4e 18 3e 3b 53 3a 67 3d db c4 92 bc
       0.016057432 0.0029006186 0.056452107 -0.017916134
000030 e9 26 2a bd 2d 31 2f 3d fa dc 8a bd 49 f9 88 bd
       -0.041541014 0.042771507 -0.06780429 -0.06688172
000040 64 66 d9 bc 1e 4e 84 bd 11 17 45 3c 6d 77 61 3c
       -0.026538081 -0.06460212 0.012029425 0.0137613835
000050 fe ad e0 bd 0e b6 8d bd 2c ba 1b bd 23 f1 05 3d
       -0.109706864 -0.0691949 -0.038019344 0.03270067
000060 61 f8 17 3c 33 d2 ec bc db 39 da bb f2 36 ae bc
       0.009275527 -0.028908825 -0.006659729 -0.021266434
000070 4f f5 98 bc 21 c8 b6 3d 46 61 30 3d 67 4b a3 bd
       -0.01867166 0.0892489 0.043061517 -0.07973366
000080 93 2b 08 3d 1b f7 0e bc 10 65 40 bd b0 c4 6b 3d
       0.03324468 -0.008725907 -0.04697138 0.057560623
000090 e1 05 e9 bc af 7d 44 3d 59 2c ff bc 14 c5 dc bc
       -0.028445186 0.047971424 -0.031149076 -0.026949443
0000a0 e8 f3 08 bd 3f 8e 19 3d a2 96 d7 ba e2 ee c7 bc
       -0.033435732 0.037489172 -0.001644809 -0.0244059
0000b0 0c 66 61 bc 9b 1e 2b bd ba ee d3 ba ab d6 7d bc
       -0.01375724 -0.041777235 -0.0016169169 -0.015493075
0000c0 b8 6a da 3c 7f a9 c5 bc 81 58 a8 bd 0a e7 a6 3c
       0.026662216 -0.024128674 -0.08220006 0.02037384
0000d0 ec c5 a0 3d da e9 f5 3c bf 2f 4e 3c 88 9c c5 3c
       0.078502506 0.030018736 0.012584626 0.024122491
0000e0 46 c6 fe 3c 85 c7 67 bc c0 4f ac 3c 61 f2 53 bd
       0.031100404 -0.01414669 0.021034122 -0.051744822
0000f0 20 2e 03 3d 29 c9 e8 3c 6e b9 01 be 53 c6 d7 3b
       0.03202641 0.028416233 -0.12668392 0.0065849214
000100 b8 fd e6 3b 50 56 a7 bc 6d 1a 34 3d 07 b7 aa 3c
       0.0070492886 -0.0204269 0.043970514 0.020839227
000110 c3 e7 ec 3c bc 26 94 bd 45 4e 96 bd e0 7f 59 3d
       0.028919106 -0.072339505 -0.073391475 0.053100467
000120 96 94 a8 bc 92 7c 2c bc 2c 33 a2 3c 60 bc 1b bd
       -0.020578664 -0.010527747 0.019799791 -0.038021445
000130 81 f8 a6 3c a4 e3 5e bb 02 68 9e 3c 3f 23 66 bc
       0.020382168 -0.0034010196 0.019336704 -0.014046489
000140 e2 a8 d4 bb 4e b8 4a bd db 2d 96 3d f4 5b 19 bd
       -0.006489859 -0.049492173 0.07332965 -0.03744121
000150 2d b6 ef 3c 41 50 3a 3d 50 53 74 3c 8f f5 16 3d
       0.029261673 0.045486692 0.014912441 0.036855277
000160 18 a4 3e bc 85 21 b9 bc e9 e9 25 3d 11 a4 78 bd
       -0.011635803 -0.022598991 0.040506277 -0.06070334
000170 e5 4f ef bc 6a 01 16 3d 03 5a 6e bb 5b 28 40 3d
       -0.029212901 0.036622442 -0.003636957 0.046913486
000180 58 9b 07 3d 82 a5 5f bd 67 db ba 39 2e 0a d6 3c
       0.03310713 -0.0546012 0.00035640152 0.0261279
000190 13 37 8a 3b bf 62 35 3d 7a 1e 1a 3b f9 d0 82 bc
       0.004217991 0.044283625 0.00235167 -0.015968787
0001a0 5c b0 b6 bc e1 32 aa 3c e8 8d 39 3c 62 c0 7c bd
       -0.022300892 0.020776214 0.011325337 -0.061706908
0001b0 b9 d1 ee 3c 3a 6c 88 3b 65 62 4f 3d e5 96 b3 bd
       0.029152738 0.0041632922 0.050630946 -0.08769015
0001c0 29 90 95 bc af ac df bb 53 e9 49 bc b8 85 c1 3c
       -0.018257217 -0.0068260054 -0.012323695 0.023623332
0001d0 4d e2 b6 3c 6d f9 87 bc a3 6c 83 bc 87 c0 a5 39
       0.022324705 -0.016598428 -0.016043013 0.00031614696
0001e0 2c 81 07 3c cc 91 9a bd ee 9a 67 bb 28 0a e1 bc
       0.008270543 -0.0754734 -0.0035340148 -0.027470663
0001f0 31 08 9a bd 59 d5 89 3c 31 4d 39 3c 43 29 0e bd
       -0.07521094 0.016825365 0.011309908 -0.03470732
000200 7b 97 9e 3c e0 14 9c 3b 2d b1 f4 bd b4 94 61 bc
       0.01935934 0.0047632307 -0.11947856 -0.013768364
000210 17 4a 1b bd 52 a0 b1 3c 98 67 91 bd 88 54 2c bd
       -0.037912454 0.021682892 -0.07099837 -0.042072803
000220 bb 27 c3 3b cd 4c e7 bc 78 98 34 3d 4d da ad 3c
       0.005955664 -0.028234864 0.044090718 0.021222258
000230 b6 8d cc 3c 2e dd c7 bd 74 a2 15 3d c1 dc 55 3d
       0.024969917 -0.097589836 0.03653188 0.05221248
000240 80 20 9e bc 30 c9 78 3c 1a b6 d7 3c 31 56 f1 ba
       -0.019302607 0.015184686 0.02633195 -0.0018412528
000250 55 ff 8d 3b f9 9a 89 3d b2 ab 9f 3b 27 16 2f bd
       0.0043334165 0.06719012 0.0048727626 -0.042745735
000260 0c 86 3c 3d cf aa a2 3c 73 17 bb bc 78 89 d4 bc
       0.046026275 0.019856839 -0.02283833 -0.025944456
000270 7e a6 08 bd 9d e6 43 3d c6 24 9f 3c ee a3 b4 bc
       -0.033361904 0.04782735 0.019426715 -0.022050824
000280 72 b3 12 ba e3 d5 9a 3c e4 bd b0 bd 88 1d 32 bc
       -0.00055961974 0.018900817 -0.08629969 -0.010871299
000290 10 d0 9d 3d ba cd 33 3b 9f 26 23 3c 8c ad f9 bb
       0.077057004 0.0027435855 0.009957938 -0.0076195654
0002a0 b9 98 0a 3d de 1a 12 bd dd 58 5f 3c 67 d4 c9 3c
       0.033837054 -0.035670154 0.0136320265 0.024637414
0002b0 1e ad d3 bc 6c 96 34 3d 85 d5 df bb 01 39 91 bb
       -0.025839385 0.044088766 -0.0068308734 -0.004431844
0002c0 98 46 fc 3c 3a 6f 58 ba 1f f1 07 3c 70 55 33 bd
       0.03079538 -0.000825632 0.008297234 -0.04378265
0002d0 1c 54 53 3c 84 79 95 bd 78 d7 c7 3c e0 4e ac bd
       0.012898471 -0.07298568 0.024394736 -0.08413482
0002e0 ff dc 44 bc a1 ee 95 3d 13 2a 51 3c bc c1 51 3d
       -0.01201558 0.073209055 0.012766379 0.05121015
0002f0 56 7c 04 bd 11 12 54 bc 79 6d 06 be ac 2b 2b 3d
       -0.03234514 -0.0129437605 -0.13127698 0.041789696
000300 4e 1a 1a 3d 16 f3 61 bd 24 ea bb bb 66 3a 24 3d
       0.037622742 -0.055163465 -0.005734699 0.040094756
000310 89 82 82 3c 16 bb 5f bc 91 39 55 bd c6 4d 42 3d
       0.015931385 -0.013655445 -0.052056853 0.04743745
000320 e0 03 74 3d 67 d9 2d 3c db 46 fe bc 00 89 30 3c
       0.059574008 0.010610915 -0.031039646 0.010774851
000330 4d 37 a2 bd 0f 8d 80 bd 9d ca d6 bb f7 7d 33 3d
       -0.07920704 -0.06276905 -0.006554915 0.0438213
000340 37 b2 ca 3c 4d 74 06 3d 0e e9 82 bd 6b 6f 57 bc
       0.024743183 0.032825757 -0.06392108 -0.013149123
000350 16 90 ec 3a 48 65 d4 bc cc 6f 3e bb 20 b9 5d 3d
       0.0018048312 -0.0259272 -0.0029058335 0.054131627
000360 22 c3 63 3d 5f de 32 3c 54 f5 24 bd 19 6a 8a bd
       0.055606015 0.010917275 -0.040273026 -0.06758518
000370 45 2d 85 3c d9 35 4e 3d 86 b3 f7 b9 d2 9a c7 b8
       0.016256938 0.050344322 -0.00047245267 -9.517897e-05
000380 43 54 db 3b 0c 60 1b 3c 11 37 1d bd fa 01 a1 bc
       0.0066933944 0.009483349 -0.038382594 -0.019654263
000390 9d d9 67 3d bd 91 5d bd 61 e0 7d 3c 74 2d b8 bc
       0.056604017 -0.054094065 0.015495391 -0.022482611
0003a0 ac 5c 4d 3d 82 e0 b4 bc b9 69 81 3d 6d 5b 1e 3c
       0.050137207 -0.02207971 0.06318993 0.009665352
0003b0 73 d7 ef 3a fc d7 a0 3c 94 72 7b 3c f1 3f 41 bc
       0.0018298462 0.01963424 0.015347142 -0.01179503
0003c0 10 7d 8f 3c ba 7c 4c 3d e9 09 12 3d 31 4c fd bb
       0.01751569 0.049923636 0.035653982 -0.00773003
0003d0 1f 3a 71 3d 82 29 f1 3c d9 2c 14 bd 44 d9 98 3c
       0.05889332 0.029438738 -0.036175583 0.018658288
0003e0 62 ea f6 3b 43 4c d2 bc 5d 3d 75 bc d6 62 d3 bc
       0.007535265 -0.02567113 -0.014968243 -0.025803965
0003f0 6c 5c 7d 3d 1a 07 7a bd 5c 7e 97 bd 93 47 89 ba
       0.06185572 -0.06104193 -0.07397148 -0.0010473601

fc2.bias f4 [300]
000000 fc 97 94 bd aa 48 ca 3c 07 27 04 3c 3f ba 12 3c
       -0.07255551 0.024692852 0.0080659455 0.008955537
000010 b8 30 2c 3d 12 0e ab 3c 6a 1c a3 bc 31 f9 7c bd
       0.04203865 0.020880733 -0.01991101 -0.061761085
000020 3a 0e a6 bd ab bc 5e 3d 64 84 a9 3d 31 f8 c1 bc
       -0.08108182 0.054379147 0.08277205 -0.023677917
000030 77 5b 34 bd 16 71 d9 3c d8 3b 49 bc 48 91 81 3c
       -0.04403254 0.026543181 -0.012282334 0.015816346
000040 86 b5 61 bd ba 3c 6f bd b5 99 1a 3d d3 d5 ca ba
       -0.055104755 -0.058407523 0.037744243 -0.0015475102
000050 a8 3c a3 bd a2 01 14 3c c1 a5 12 3d 26 52 c4 3c
       -0.07970554 0.009033592 0.035802606 0.023964953
000060 a5 64 0a 3c e8 90 ac bd fc fc 7e 3d 8d c1 ef 3c
       0.008446847 -0.08426076 0.062252983 0.029267097
000070 b5 63 96 bd 25 ef 3b 3b 13 04 94 3d b2 ee aa bd
       -0.07343236 0.0028676477 0.072273396 -0.08346309
000080 ab de b9 bd ef d3 8f 3d 3e 5a 57 bd c9 64 06 3d
       -0.09075674 0.07022845 -0.052576296 0.03281096
000090 f1 f0 41 3b c9 8a ff bc 59 f7 af bc 83 c0 0d 3d
       0.0029593075 -0.031194108 -0.02148025 0.03460742
0000a0 c8 ab af bc d3 7e 06 bd 89 d9 91 3d 65 db 86 3c
       -0.021444216 -0.032835793 0.0712157 0.016462037
0000b0 0c 2f 9c bd 69 bf 56 bb 5f e0 9a 3d 79 53 30 bb
       -0.07626161 -0.0032767898 0.07562327 -0.0026905222
0000c0 cb e5 0b 3d 69 de b8 bb 34 01 57 bd 30 97 6b bd
       0.034154695 -0.0056417477 -0.05249138 -0.05751723
0000d0 fa 61 a2 3c 62 ba 49 3d 54 83 95 3a 78 38 13 bc
       0.01982211 0.049250014 0.0011406937 -0.008985631
0000e0 a6 cb 1f 3a 8e cc d4 bc c5 e4 b3 3c ac 03 6b ba
       0.00060957146 -0.025976446 0.021959672 -0.0008965086
0000f0 a3 b6 9c 3d aa 2e 58 3d 9a d3 73 3c 3d 2e 03 3d
       0.07652023 0.052778877 0.014881993 0.032026518
000100 67 18 04 bd 61 a1 98 bd ec 2f 49 3d f9 b3 21 bd
       -0.032249834 -0.074526556 0.049117967 -0.039478276
000110 66 47 a0 3c 09 23 85 bc 5e 76 2f bd d5 2a 06 bd
       0.019565295 -0.016252058 -0.042837493 -0.03275569
000120 5b 4f 25 bd 6d db 85 3d cd 68 73 bd c7 72 41 3c
       -0.040358882 0.06535993 -0.059426118 0.01180715
000130 a6 9d 8b bc b0 bc 68 3d ae ab a1 3d 30 3a 94 3d
       -0.017042946 0.05682057 0.078940734 0.07237661
000140 c1 1b 95 3d ee 13 82 bc ba e1 bb bd 26 b1 43 3c
       0.07280684 -0.015878644 -0.09173913 0.011944091
000150 44 f3 2b bb 76 05 e0 3c 54 97 02 3c 65 e9 59 bc
       -0.0026237527 0.027346354 0.00797065 -0.0133002745
000160 0b 70 23 3d 2e 3c 07 3d da f6 2a bc 22 54 25 bd
       0.039901774 0.033016376 -0.010434831 -0.04036344
000170 6b 1d 37 3d 33 f9 73 bd a2 db e5 3c b8 d6 22 bb
       0.04470579 -0.059563827 0.02805883 -0.002484722
000180 95 3f 3c 3d 36 c7 e1 bc 29 b2 80 3d 95 d9 52 3d
       0.045959074 -0.027560811 0.06283981 0.051477034
000190 f7 49 53 3d b3 bd d9 bb 0e fb 57 3c 8a 57 4b 3d
       0.05158421 -0.0066449284 0.013182415 0.04964403
0001a0 f2 e8 23 3d 60 50 4d 3d ad 12 95 bc c4 71 37 bd
       0.040017076 0.05012548 -0.018197382 -0.04478623
0001b0 68 8a 92 3d d5 91 a0 bd 33 52 bd 3c 0a d7 7e 3c
       0.07155305 -0.07840315 0.023110485 0.015554199
0001c0 b7 fe 33 3c 06 7c 93 3b 1b e6 11 3d 6b d6 a7 bc
       0.010986022 0.0045008687 0.035619836 -0.020487985
0001d0 43 69 e5 3b 90 1c 01 3d 21 4b 25 bc f3 18 a3 3c
       0.0070010736 0.03152138 -0.010088713 0.019909358
0001e0 c1 76 0c 3d c0 57 b6 bc 2c 8f 5e 3c 9c 35 c4 3c
       0.03429294 -0.02225864 0.0135839395 0.023951344
0001f0 5d 8e 8d bd 8c 2c 89 bc 41 04 95 bc 32 39 72 3b
       -0.06911919 -0.016744874 -0.018190505 0.003696036
000200 92 a1 af 3d d5 ed c2 bd 52 6a a7 bd f6 d0 80 3b
       0.08575739 -0.09518019 -0.08174576 0.00393116
000210 36 93 3e 3d b5 36 54 3d 18 09 81 3d 6a 44 7b bd
       0.04652711 0.051809985 0.063005626 -0.06134454
000220 a9 4f ce 3c 33 60 a3 bd aa 3b a6 bb 8d 31 94 bd
       0.02518447 -0.07977333 -0.0050730305 -0.072360136
000230 1d a0 06 bd b0 91 9c 3d 90 ab 07 3d 9e 74 00 3d
       -0.03286754 0.07644975 0.0331226 0.031361215
000240 59 7c 6a 3c 8c fd 15 3c 1f d2 89 bb 5b df 27 3c
       0.014311873 0.009154689 -0.0042059566 0.010246123
000250 21 a3 69 bd fb 90 82 3d 81 0d b7 bc 5a 25 66 bd
       -0.057040337 0.06375309 -0.022345306 -0.056187965
000260 6a ba 0b bd ab 90 c7 3a 23 92 e6 bc 9f 90 70 3d
       -0.034113325 0.001522561 -0.028145855 0.05873167
000270 d1 45 8f 3c 49 ab 2e 3d 89 55 2c bd d9 f8 43 bc
       0.017489346 0.04264382 -0.04207376 -0.011961185
000280 82 e0 bc 3b b9 9e c0 bc 6c 8d 33 3d f9 ca ef bb
       0.005764068 -0.023513185 0.043836042 -0.0073178974
000290 96 d2 28 bd 7a 0a 12 bd fd ed 9a bc ce fd c2 3c
       -0.041216455 -0.035654522 -0.01891231 0.023802664
0002a0 0b 88 23 3a 2a 88 7d bb 56 15 21 3d 67 0c 3c 3c
       0.00062382285 -0.0038685896 0.03932699 0.011477566
0002b0 b5 b3 91 bb 8d 3c 82 bd cd 06 8c 3c b1 7d 04 3d
       -0.0044464716 -0.063592054 0.017093087 0.03234643
0002c0 34 13 05 bd 0e da 25 ba c9 1a af 3c 81 00 26 bd
       -0.032489017 -0.0006326743 0.021375077 -0.040527824
0002d0 93 ee ec bb b5 5f 74 3a 16 8a 24 3d 25 a1 95 bc
       -0.0072305887 0.0009322123 0.04017075 -0.018265316
0002e0 9b b3 0a bc ad 27 c6 3c dd 72 9f 3c c8 01 2c 3c
       -0.008465673 0.02418884 0.01946395 0.010498472
0002f0 4e cb 66 3d fe 6b 78 3d 8c 1d d7 bc b4 1c 0f 3c
       0.05634623 0.060649864 -0.026259206 0.008734871
000300 48 36 83 bd a8 83 4d 3c ba 4e af bb 79 9b 43 bc
       -0.06406838 0.012543596 -0.005349961 -0.011938923
000310 a8 ea 04 bd 00 56 38 3d c6 39 16 bc c7 ef 11 3c
       -0.03245035 0.04500389 -0.009169048 0.008907265
000320 4f df 80 3d fd ce 3e bd dd 06 b4 3c 0a 8f 9e 3c
       0.06292593 -0.04658412 0.021975929 0.019355316
000330 72 1a 08 3d f8 86 40 3d e2 6e 24 3d 27 ac c9 bc
       0.033228345 0.047003716 0.04014481 -0.024618221
000340 d3 b2 42 bd 19 ec 5a 3d 94 a5 37 bd a9 ec 18 bd
       -0.04753382 0.053447817 -0.044835642 -0.03733507
000350 35 86 eb 3c 38 d7 a1 3d aa 49 6a 3c 76 fa 83 bd
       0.028750518 0.07902378 0.014299789 -0.06444256
000360 33 b5 86 bd 7e 10 94 3c b9 93 03 3d 29 08 59 3c
       -0.0657753 0.01807427 0.0321233 0.013246574
000370 9d 02 e2 bc 9f b2 01 bc f2 e8 c5 bc dd 99 e9 3b
       -0.027589137 -0.007916122 -0.024158929 0.0071289376
000380 85 84 76 bd 20 6e c0 3c 4e e3 48 3b eb 17 00 3c
       -0.060184974 0.023490012 0.0030653062 0.0078182025
000390 1f 3c 93 3c 54 40 c9 3c 9c 1d 17 bc 73 89 88 bc
       0.017973004 0.024566807 -0.009223368 -0.016667103
0003a0 66 6c aa 3d ee 87 5d bc 5d e2 14 3d 18 64 a0 3b
       0.083214566 -0.013521178 0.03634869 0.0048947446
0003b0 68 67 64 bb e6 9b 11 3d b1 51 89 bd 66 04 0b bd
       -0.0034851674 0.035549067 -0.067050345 -0.03393974
0003c0 58 ec 1d 3d 08 cb f7 bc f6 17 82 3d cb 15 a7 bc
       0.038555473 -0.03024818 0.063522264 -0.020396134
0003d0 ac 98 cc 3a c6 60 52 3c 9e 77 92 bb f6 d9 b5 3c
       0.0015609465 0.012840455 -0.004469826 0.022198658
0003e0 19 4a ff 3b e6 5d 10 bd 00 eb 8d 3d 97 ac ea 3b
       0.0077908156 -0.0352458 0.06929588 0.0071616876
0003f0 06 65 0d bd 02 8a 9e 3c 18 e2 c5 bb f9 ce 15 3d
       -0.03452017 0.019352917 -0.0060389154 0.036574338

fc3.weight f4 [1, 300]
000000 b4 3d 38 bc f0 84 a4 3b b4 6d 6a bb 39 a0 8c bc
       -0.01124518 0.00502073 -0.0035770955 -0.017166244
000010 64 4b 89 3b ac 12 86 3b a7 a7 7e 3c 5c 91 02 bd
       0.0041898955 0.0040915813 0.015542901 -0.031876907
000020 99 54 0b bc ec 70 54 3b dd e1 ce 3b 45 7c ea bc
       -0.008504056 0.003241594 0.006313546 -0.02862371
000030 43 77 90 3a 71 88 74 3b dd 4f 8b 3b 3b 37 a0 bb
       0.0011021871 0.003731277 0.004251464 -0.0048893965
000040 4d eb 98 b9 34 4b ec bc 0a 92 1d 3d 9c e4 76 3b
       -0.00029167012 -0.028844453 0.03846935 0.0037672883
000050 94 80 7b bc db 5d a6 ba ac 0a 6b 3b ce 1e 73 3c
       -0.01535048 -0.0012692766 0.0035864515 0.014838887
000060 66 2a 88 3b de b3 ea bc 4d 96 c8 3b ad d4 74 3c
       0.004155445 -0.02865022 0.006121433 0.014943284
000070 99 d9 2d bc 2f 92 23 bd 04 55 72 3b 26 eb 65 bc
       -0.010610961 -0.039934333 0.0036976943 -0.014033115
000080 96 0b 33 bc ec e1 a0 3b dd 0a a7 bc 92 c3 ce bc
       -0.010928055 0.0049097445 -0.020390922 -0.02523974
000090 93 56 0b bc 92 2e 9a bb 3d 7c a0 bd 5d 30 2e 3b
       -0.008504528 -0.0047052586 -0.078361966 0.002657912
0000a0 30 ef 83 3c 77 a6 97 bc b3 e2 9e 3b f6 10 27 3a
       0.016105264 -0.018511994 0.004848802 0.0006373072
0000b0 d6 41 28 bc f9 83 4b bc 89 c3 8f 3b 83 cd 5f 3b
       -0.010269603 -0.012421601 0.0043873233 0.0034149594
0000c0 eb 6c 6f 39 80 8e 4c 3b 5a 26 55 3b 63 2d 48 bc
       0.00022833391 0.0031212866 0.003252408 -0.012217852
0000d0 35 b6 b4 3c ec 20 8a 3b d5 16 45 bb 87 83 f3 3b
       0.02205954 0.0042153504 -0.0030073423 0.0074314508
0000e0 4c 3b 84 3c ff e1 07 3c a3 bf 01 3d 4e f5 88 3b
       0.016141556 0.008293628 0.0316769 0.004179633
0000f0 7e 72 89 3b df 74 88 bc da 25 fa 3c 57 a9 3c bb
       0.0041945567 -0.016657291 0.030535627 -0.0028787458
000100 53 12 78 bc 36 f5 2d bc 11 ac db bc a1 c7 64 bc
       -0.015141088 -0.010617545 -0.026815446 -0.013963611
000110 a8 bf f3 bc 5d 9d a4 bc aa 9d 2b 3b e8 df 93 bb
       -0.029754475 -0.020094568 0.0026186504 -0.0045127757
000120 31 11 76 bc 8b 91 67 3b 22 0e 60 bc 66 b9 81 3b
       -0.015018747 0.0035334553 -0.0136752445 0.003958869
000130 9a 09 62 bb d9 29 95 3b a0 63 6e 3b 3f 80 8b 3b
       -0.0034490586 0.004552108 0.00363753 0.0042572315
000140 f1 f1 a4 3b 7e 77 a2 3c 67 9c 7b bc 98 a0 97 3c
       0.0050337245 0.019832369 -0.015357113 0.018509194
000150 72 67 a3 3b 32 c3 cf 3b 54 7e 7c 3b a6 f0 97 3b
       0.004986697 0.0063404078 0.0038527446 0.004636842
000160 0c 19 fd 3b 2f 7d 01 bc da 2b 97 3c 73 86 1f bc
       0.007723933 -0.007903381 0.018453527 -0.009736645
000170 7a 39 ae 3b ef 9e 20 bc 3b 34 a6 bc 21 85 14 3c
       0.0053169103 -0.009803518 -0.020288577 0.0090649435
000180 03 c0 51 3b 46 53 cb 3a 4d 47 b2 3b a5 01 86 bc
       0.0032005317 0.0015512488 0.0054406286 -0.016358206
000190 81 f2 1f bc cd 05 6b bc 9e eb 8e 3c e6 59 05 3d
       -0.009762407 -0.014344645 0.017446335 0.032556437
0001a0 ee 17 cc 3b e1 dc 40 bc 67 23 df bc 07 70 b2 bb
       0.0062284386 -0.011771412 -0.02723856 -0.0054454836
0001b0 7b d5 36 3c 21 ff 18 bc 85 e2 cc 3b 94 fe 42 3b
       0.011159296 -0.009338171 0.006252589 0.0029753791
0001c0 46 71 86 bb e1 db 5d bc 0c 9f e1 3b 9b 37 33 3c
       -0.0041028587 -0.013541193 0.006885415 0.01093855
0001d0 d5 4a b8 3b 05 4a 65 bb 74 b3 60 bc f3 eb 6c 3c
       0.005624155 -0.0034986746 -0.01371466 0.014460552
0001e0 0a cd 33 bd ba f9 d7 3c 35 c4 29 bc 2d c2 0d 3c
       -0.043896712 0.026364196 -0.010361721 0.008652252
0001f0 63 5f 34 bc 61 2f 20 3d 66 53 af bc f8 69 10 3c
       -0.01100907 0.039107684 -0.021402072 0.008814327
000200 85 7d 61 3b 5c 7e 70 bc 64 20 3d bc ed 9f d1 3b
       0.003440709 -0.014678564 -0.011543367 0.0063972385
000210 e9 d9 85 bc 0d 3f a3 3b d7 87 95 bc c7 c4 4e bd
       -0.01633926 0.0049818815 -0.01825325 -0.05048063
000220 20 59 50 3c db 85 b8 bc 10 a8 8a bc 2d b6 16 bc
       0.012716562 -0.022524765 -0.016925842 -0.0091987075
000230 c0 d0 78 bb ea a7 38 3b 5d 29 66 bc 1b 80 1d bc
       -0.0037966222 0.0028176256 -0.014047948 -0.009613062
000240 9d 00 c5 bc 72 44 77 3b 6e 70 00 3c b1 01 26 bd
       -0.024048144 0.0037730006 0.007839305 -0.040528957
000250 e8 b0 8a bc d0 e2 8e 3b 03 37 1d 3c b7 b1 c2 bc
       -0.016930059 0.0043605343 0.009595635 -0.023766382
000260 0b 93 f6 3b 31 46 5b 3c 7d b4 9a 3c 32 9c bb bc
       0.007524853 0.013383434 0.018884892 -0.022901628
000270 da 90 14 3d f5 dc 54 3c 97 cc d4 3c 08 7d 21 3d
       0.036270954 0.012992133 0.025976462 0.03942588
000280 f0 1e 61 bc b8 fc 53 bc 64 a2 ac 3b 95 53 10 3b
       -0.013740286 -0.012938671 0.005268382 0.0022022475
000290 29 06 35 3a f7 13 90 bc 2c 1a 05 bd 66 07 d9 3b
       0.000690552 -0.017587645 -0.032495663 0.0066231964
0002a0 33 82 09 bd 15 96 97 bb df c8 2c bc 5e d2 38 3b
       -0.033571433 -0.0046260455 -0.010545938 0.002820156
0002b0 ec b9 4d bb 66 ac 06 bd ba 22 6f 3b 47 46 9c 3c
       -0.0031391336 -0.032879256 0.0036489205 0.01907648
0002c0 8e 81 12 3c 5e 5c 64 3b 7b 3c 0c 3c 79 db 53 bd
       0.008942021 0.0034845094 0.008559342 -0.051722977
0002d0 6e 31 7e bc 6d 6c 87 3c 5a 6e 51 3b 75 2f 5f 3b
       -0.015514715 0.016531194 0.0031956644 0.0034055386
0002e0 ac e1 46 bc 0e 6e 66 3b 63 2a 91 3b c3 57 7e bc
       -0.012138765 0.0035160813 0.0044301017 -0.015523854
0002f0 0b 78 a3 3b 41 b6 4c 3b 04 6d 68 bc 83 36 5a 3b
       0.0049886755 0.0031236561 -0.014186148 0.0033296652
000300 d4 65 d6 bc 1b 6a df bb ff b5 aa 3b a4 7f 44 3b
       -0.026171602 -0.0068180687 0.005209684 0.0029983306
000310 90 0f 53 bc 8b 67 4d bd 24 4b 65 bd 7c a8 8d 3b
       -0.012882128 -0.050147574 -0.055979863 0.0043230634
000320 4f 84 70 3b a5 83 05 bd ea dc 72 3c bb 5d b3 3b
       0.0036699956 -0.03259625 0.014823178 0.00547382
000330 b5 6a 54 3c a6 24 dc bc 47 14 be 3b 86 e1 41 3c
       0.012964894 -0.026872944 0.005800757 0.011833554
000340 eb e4 0f bd b1 21 f1 3b 4c 2e 77 bc 46 3a 12 bc
       -0.035130423 0.0073587527 -0.015086722 -0.008925026
000350 51 47 c3 3c 92 7c eb 3b fd 35 4f 3b c0 b5 9f bc
       0.023837717 0.007186481 0.0031617873 -0.019495845
000360 da 24 44 bd 6b 94 94 3b af 17 e3 bc 75 62 7c bc
       -0.047886707 0.0045342944 -0.027721254 -0.015404333
000370 57 a1 93 3b 8b 06 85 3b 34 13 91 bc 04 04 da bc
       0.004505317 0.004059618 -0.017709352 -0.026613243
000380 d9 28 8c 3b 41 51 7e 3c 43 53 9c 3b ed 4b a5 3c
       0.0042773304 0.015522302 0.0047706678 0.020177806
000390 b7 f6 77 3b 7a ae 42 bd 4e 90 c9 3b 29 ed 5a bc
       0.0037836262 -0.047529675 0.0061512357 -0.013362207
0003a0 7c 9f 7f 3b 4f c1 b9 3c 7a cb 7c bb 31 02 57 3a
       0.0039004972 0.022675185 -0.003857343 0.00082019257
0003b0 2f 0b b3 bb 9c fd 2b 3b db 08 8e bc 93 d9 00 bd
       -0.0054639797 0.0026243692 -0.017338207 -0.031457495
0003c0 30 b4 01 3d 16 62 cf bc ee 6b 46 3b 02 44 77 3b
       0.03166598 -0.025315326 0.0030276733 0.0037729745
0003d0 e8 10 5a 3b 04 d6 81 bb 1e 09 1f 3c 15 bb c9 bc
       0.0033274237 -0.00396228 0.009706764 -0.02462534
0003e0 83 0d 29 3c 3d 7e fa bc 2b 5a 4a 3b 3b a5 ab 3c
       0.010318163 -0.030577773 0.0030876498 0.020952811
0003f0 fa f4 91 bc c5 c4 8e 3c f8 1d 9f bb 96 c8 93 3c
       -0.01781701 0.017427811 -0.0048558675 0.018039983
