checkpoint_actor1.pth (torch_old, 744563 bytes, 6 tensors)

fc1.weight f4 [480, 24]
-0.039772026 0.045914516 -0.027462112 -0.021688184 -0.054313447 -0.058488794 0.0073455325 0.010653473
-0.030263204 0.04127608 -0.0037614908 0.00254469 0.057588752 -0.11010779 0.009741427 0.051927406
-0.07942287 0.034151915 0.02514336 0.00782886 0.0764226 -0.2091005 -0.024725983 -0.03294629
-0.036632925 0.02973416 -0.038832556 -0.09557492 -0.1439609 0.070340216 0.023740498 -0.023565147
0.051702276 0.10590081 -0.02243818 -0.020008707 0.08188482 0.051648162 -0.0031647272 0.019226138
0.0670499 0.1381603 0.00036634647 0.012854114 0.19946025 0.09937672 0.017041953 0.04928358
0.06561313 -0.04756265 -0.05307069 0.08604001 0.040318806 -0.012454942 -0.029719038 0.06790403
0.12109008 -0.01320369 -0.004668657 0.09664774 0.035093505 -0.11557432 -0.034273032 0.06933481
0.13939968 0.054709665 -0.011688525 0.047568947 0.010699016 -0.054055996 0.011569098 0.0469071
-0.035071738 0.0964347 -0.029134389 0.0031294161 -0.11531018 -0.06552736 -0.012055379 -0.011362088
-0.038075414 0.07021611 0.016898613 -0.0052410257 0.031221967 -0.15109763 -0.018137151 0.03684829
-0.04284039 0.0994433 -0.028093534 0.03918289 0.08212876 -0.23095657 -0.019154307 0.009265916
0.0024128722 -0.035450444 -0.05971864 -0.15215081 0.052966412 0.109067276 0.002519599 -0.113817185
0.018243024 -0.0004187766 0.006275681 -0.005749781 0.03328518 0.030295731 0.009546073 -0.0063657975
0.100762144 -0.029715504 0.026367968 0.061112035 0.056039143 -0.00424875 -0.015823865 0.10963586
0.11352911 0.056559537 0.0054426994 0.013216015 0.16287395 -0.07978654 0.002395708 0.040650576
0.007652275 0.04419915 0.016629366 0.00369437 0.0033005099 -0.008565544 -0.005352139 -0.026878342
0.044675034 0.041641045 -0.051710024 -0.053319316 -0.17410238 0.16433723 0.025833517 -0.05464753
0.020365674 0.052841835 0.02993079 0.017165305 0.12246697 -0.05345878 -0.053031575 0.035972163
0.024206426 0.0823739 -0.001593486 -0.06519888 0.089046285 -0.012279223 0.04338763 -0.022357564
0.040407423 0.032322623 0.009714489 -0.16908906 -0.07430763 0.027456013 -0.019519988 -0.16563544
-0.018762076 0.12027966 -0.05568921 0.013232228 0.021689622 0.03858282 -0.012868184 -0.057615
0.10526306 0.11467965 0.010052058 0.029510379 0.08692483 -0.02328905 0.027076002 0.06261066
0.09288814 0.18495555 -0.035907548 0.084951 0.17803842 -0.04730665 -0.021781223 0.060840707
-0.044910416 0.054829672 0.05367386 -0.00019752607 0.012916887 -0.0009732849 -0.01662427 0.009251847
-0.05622032 0.14903066 -0.017840417 0.048853446 0.052173153 -0.10386515 0.010717762 -0.008487299
-0.041430824 0.16314438 0.020859 0.0037840325 0.06499108 -0.15788369 -0.021694554 0.040763866
0.043350685 0.14269231 0.0058294744 -0.0040097474 -0.13292 0.024100492 0.0040702117 -0.0036069953
0.020501124 0.12590219 -0.0024171837 0.04217791 0.06621683 0.027717305 -0.027313523 -0.012614595
0.036428113 0.12790178 0.021822967 0.05004746 0.35752162 -0.006384153 -0.0024309875 0.045101475
-0.070932806 0.083428495 0.014855238 0.039698996 -0.043789275 -0.048218213 0.01297594 -0.016900672
-0.029851666 0.122881085 -0.0019116737 0.01896842 0.061650362 -0.11684508 -0.0056120865 0.055456206
00000000: fee7 22bd dc10 3c3d 39f8 e0bc 6bab b1bc
00000010: c777 5ebd f291 6fbd cbb2 f03b e88b 2e3c
00000020: 8aea f7bc 1b11 293d 5883 76bb d0c4 263b
00000030: 2fe2 6b3d 3180 e1bd 829a 1f3c d5b1 543d
00000040: 75a8 a2bd e1e2 0b3d 73f9 cd3c 9e44 003c
00000050: 7483 9c3d 711e 56be 258e cabc b0f2 06bd
00000060: 680c 16bd 0e95 f33c e30e 1fbd c9bc c3bd
00000070: 7c6a 13be 880e 903d 6f7b c23c b20b c1bc
00000080: c4c5 533d 86e2 d83d 46d0 b7bc 4de9 a3bc
00000090: 3ab3 a73d 068d 533d 5067 4fbb 2280 9d3c
000000a0: 7551 893d e579 0d3e 3112 c039 109a 523c
000000b0: 4f3f 4c3e 0686 cb3d 919b 8b3c 94dd 493d
000000c0: 2d60 863d 0ed1 42bd a760 59bd bf35 b03d
000000d0: 5525 253d d00f 4cbc 5775 f3bc 4511 8b3d
000000e0: 13fe f73d 4a54 58bc 89fb 98bb 40ef c53d
000000f0: 35be 0f3d 3bb2 ecbd e161 0cbd 69ff 8d3d
00000100: cabe 0e3e 3e17 603d 3a81 3fbc a8d7 423d
00000110: ed4a 2f3c d269 5dbd 508c 3d3c a921 403d
00000120: 62a7 0fbd 8e7f c53d 3eab eebc e416 4d3b
00000130: be27 ecbd 3533 86bd ed83 45bc 0d28 3abc
00000140: f7f4 1bbd 77cd 8f3d f66e 8a3c e9bc abbb
00000150: 36c5 ff3c 56b9 1abe 5d94 94bc 3cee 163d
00000160: 6879 2fbd eea8 cb3d 6924 e6bc 3d7e 203d
00000170: 2033 a83d e17f 6cbe 7ee9 9cbc 12d0 173c
00000180: 4721 1e3b 7c34 11bd 889b 74bd 6ccd 1bbe
00000190: 4ff3 583d aa5e df3d db1f 253b fc18 e9bd
000001a0: 6572 953c 3e8f dbb9 3aa4 cd3b a968 bcbb
000001b0: 0a56 083d c12e f83c 2267 1c3c 2e98 d0bb
000001c0: 625c ce3d ee6d f3bc a301 d83c 9d50 7a3d
000001d0: 4d89 653d 1939 8bbb 0da1 81bc c488 e03d
000001e0: f381 e83d f9aa 673d ac58 b23b fc87 583c
000001f0: 6ec8 263e 2067 a3bd 5001 1d3b 3881 263d
00000200: efbf fa3b 2b0a 353d 4f3a 883c 3e1d 723b
00000210: 5e4d 583b 7f56 0cbc ff60 afbb f82f dcbc
00000220: 2bfd 363d cd8f 2a3d e4cd 53bd 5b65 5abd
00000230: e547 32be 0548 283e d0a0 d33c 17d6 5fbd
00000240: ead5 a63c ae70 583d 6b31 f53c 419e 8c3c
00000250: f6cf fa3d 98f7 5abd a337 59bd 8c57 133d
00000260: 8e4c c63c a6b3 a83d 85dc d0ba fe86 85bd
00000270: e65d b63d cb2e 49bc 3ab7 313d 3627 b7bc
00000280: 4182 253d ba64 043d 8529 1f3c af25 2dbe
00000290: 992e 98bd 6feb e03c 62e8 9fbc 569c 29be
000002a0: edb2 99bc 2f55 f63d 5e1a 64bd fdcb 583c
000002b0: 6fae b13c 0509 1e3d 13d5 52bc b5fd 6bbd
000002c0: 2994 d73d 2add ea3d 63b1 243c c0bf f13c
000002d0: a505 b23d aec8 bebc 7ece dd3c 053a 803d
000002e0: 233c be3d fd64 3d3e cb13 13bd cafa ad3d
000002f0: b44f 363e 9ec4 41bd 896e b2bc 1b34 793d
00000300: fcf3 37bd 1495 603d 1fd9 5b3d 001f 4fb9
00000310: 5aa1 533c 0b24 7fba 9f2f 88bc 0f95 173c
00000320: 4747 66bd 7e9b 183e 1126 92bc 8d1a 483d
00000330: 84b3 553d 40b7 d4bd 8d99 2f3c 500e 0bbc
00000340: 5eb3 29bd 520f 273e 7ee0 aa3c 88fd 773b
00000350: 0b1a 853d 43ac 21be c7b8 b1bc 03f8 263d
00000360: 7d90 313d ef1d 123e 2d05 bf3b 3364 83bb
00000370: 2e1c 08be 656e c53c 695f 853b 5763 6cbb
00000380: f9f1 a73c 81ec 003e 9d69 1ebb bfc2 2c3d
00000390: b09c 873d 670f e33c 9cc0 dfbc 72ad 4ebc
000003a0: a535 153d aff8 023e 14c6 b23c 91fe 4c3d
000003b0: 130d b73e 2832 d1bb 3451 1fbb 53bc 383d
000003c0: 3845 91bd 8fdc aa3d 6263 733c 6a9b 223d
000003d0: 625c 33bd 7680 45bd 0999 543c 4773 8abc
000003e0: 7b8b f4bc 14a9 fb3d 2091 faba a963 9b3c
000003f0: 1785 7c3d 794c efbd 98e5 b7bb 0c26 633d

fc1.bias f4 [480]
-0.03480215 0.06420075 0.15443604 0.14417674 -0.25966176 0.1697675 0.14826822 -0.1675751
-0.23617673 0.08177741 0.10920797 0.12621813 0.10616992 -0.04359425 0.10237077 -0.08925572
-0.03846358 -0.12418418 -0.1694486 -0.30366412 -0.084853575 -0.060630303 -0.23378567 -0.10866633
-0.1367607 0.15561573 -0.14425017 -0.11737513 0.06819474 0.024500947 -0.022466267 0.0029111202
0.11744767 0.106186025 -0.20864046 0.060025003 0.21400784 0.1449803 0.04670576 0.13978013
-0.14698333 -0.09949207 -0.15627821 -0.20692867 -0.1294014 -0.013176384 -0.10452275 -0.11910364
-0.18149629 -0.09143485 -0.044386305 -0.16672166 0.0642368 -0.12241868 -0.01224307 -0.042812075
-0.1750639 0.08824998 -0.16125204 0.052314334 -0.04429513 -0.03846714 0.03890003 -0.04027624
-0.0069493363 -0.055552546 -0.12735036 -0.073581465 -0.06734807 0.0410214 -0.050268535 -0.056210563
-0.23057483 0.0017797407 -0.07932429 -0.041657213 -0.12238595 -0.11225543 -0.10309397 -0.14329687
-0.19696255 0.1310944 0.11572244 -0.19123697 -0.06067581 -0.04368666 -0.060421214 -0.09010837
-0.12413564 0.096551545 -0.05212337 -0.13725878 -0.22117372 0.14521676 -0.11791325 -0.07278151
0.1350952 0.0021932959 -0.20351003 -0.14408007 0.012612646 -0.10144254 0.0430779 -0.0339398
0.07210515 -0.18748604 -0.26570916 -0.08290906 0.08857137 -0.22378868 -0.13889006 0.032817557
0.08907666 -0.12532476 0.18552703 -0.100025624 0.030895691 -0.08017364 0.01340142 -0.22580284
0.05084828 -0.12253219 0.0013006978 0.06445015 0.057475828 -0.2501047 -0.19987042 0.20612991
-0.035392012 0.005306678 -0.08658641 -0.15725204 -0.1741843 -0.14417243 0.09473328 -0.111335345
0.03657808 -0.207648 0.09273902 0.053474024 -0.06452881 -0.18172964 0.044331886 -0.12535037
-0.1716975 -0.12093135 0.16552816 0.14677247 0.018197624 -0.08234306 0.13412738 -0.10230493
-0.101859555 -0.20764118 0.101928025 0.08687572 0.1249409 0.16680108 0.010376893 -0.0032659308
-0.19269271 -0.16683656 -0.1534291 -0.10566984 0.005587916 -0.28675652 0.08130302 -0.13036504
-0.07261776 0.020496035 -0.19024496 0.030412192 -0.11906801 -0.14084585 0.057589885 0.18400484
-0.03538514 -0.18830985 0.045801673 0.21698335 0.071551435 0.034815487 -0.034339108 0.01556735
-0.22114646 -0.15079986 0.05590385 -0.13351884 -0.018891715 -0.038694203 -0.1807153 -0.16042583
0.14997527 0.08301954 0.102704495 -0.100699656 0.0714033 0.1431638 -0.20883523 0.14544174
0.046359994 -0.16480725 -0.23483993 -0.16604277 0.10691074 0.11430634 0.16808835 0.16678381
-0.07228567 -0.19244026 -0.17487639 0.1077301 -0.1462888 0.12288807 -0.21878733 -0.15441611
0.076520406 0.19465403 0.16195136 0.07834248 -0.11135624 0.14057313 0.105815716 0.08044801
-0.10152569 -0.15956475 0.09106656 0.09206025 -0.11136075 -0.02719183 -0.19244476 -0.261079
0.10601733 0.18508576 -0.13227983 0.06530869 0.09099171 0.035109784 -0.08797409 -0.13514122
0.12374572 -0.05597382 0.1544709 0.1931231 -0.1522693 0.14710324 -0.16734833 0.01881042
-0.08596729 0.08625858 0.0894542 -0.068040185 -0.16373318 -0.06749726 0.081558086 -0.02494209
00000000: b38c 0ebd af7b 833d 7b24 1e3e 11a3 133e
00000010: 63f2 84be 88d7 2d3e a0d3 173e cf98 2bbe
00000020: 50d8 71be ea7a a73d 6ea8 df3d 533f 013e
00000030: 9d6f d93d e28f 32bd c4a7 d13d b4cb b6bd
00000040: fd8b 1dbd 4654 febd ef83 2dbe dd79 9bbe
00000050: b6c7 adbd 7b57 78bd 8365 6fbe 748c debd
00000060: ff0a 0cbe bb59 1f3e 51b6 13be 5f62 f0bd
00000070: afa9 8b3d 36b6 c83c 2d0b b8bc 7ec8 3e3b
00000080: 6788 f03d 0f78 d93d d8a5 55be c7dc 753d
00000090: df24 5b3e b775 143e 8a4e 3f3d 8622 0f3e
000000a0: cc82 16be 80c2 cbbd 6507 20be 1ce5 53be
000000b0: cd81 04be c3e1 57bc 0610 d6bd 9cec f3bd
000000c0: 2ada 39be 3242 bbbd 6ace 35bd 15b9 2abe
000000d0: 958e 833d a5b6 fabd 2897 48bc b75b 2fbd
000000e0: f343 33be 68bc b43d 411f 25be 8e47 563d
000000f0: cf6e 35bd b88f 1dbd a355 1f3d b3f8 24bd
00000100: 42b7 e3bb 118b 63bd 2268 02be e1b1 96bd
00000110: c9ed 89bd 0e06 283d 61e6 4dbd 0c3d 66bd
00000120: cf1b 6cbe 3046 e93a c674 a2bd c1a0 2abd
00000130: 7ca5 fabd 2de6 e5bd ee22 d3bd 6abc 12be
00000140: 8db0 49be 9c3d 063e e3ff ec3d a0d3 43be
00000150: 3387 78bd c8f0 32bd 3c7c 77bd bd8a b8bd
00000160: d43a febd d1bc c53d 517f 55bd 918d 0cbe
00000170: 5d7b 62be b4b3 143e 817c f1bd 790e 95bd
00000180: 6556 0a3e 66bd 0f3b ef64 50be ba89 13be
00000190: 46a5 4e3c 1bc1 cfbd 7472 303d 7604 0bbd
000001a0: ddab 933d 57fc 3fbe 080b 88be 3acc a9bd
000001b0: e864 b53d dc28 65be 3239 0ebe b46b 063d
000001c0: d36d b63d 2255 00be ccfa 3d3e 3cda ccbd
000001d0: f618 fd3c 1432 a4bd a191 5b3c dc38 67be
000001e0: 4946 503d 28f2 fabd 2d7c aa3a 71fe 833d
000001f0: c66b 6b3d b90d 80be d5aa 4cbe b813 533e
00000200: 37f7 10bd a4e3 ad3b 3754 b1bd ae06 21be
00000210: 5e5d 32be f0a1 13be 8603 c23d c903 e4bd
00000220: e6d2 153d ada1 54be f5ed bd3d 9407 5b3d
00000230: ae27 84bd 5617 3abe 5a95 353d d95b 00be
00000240: 78d1 2fbe dbaa f7bd 3780 293e 864b 163e
00000250: 2f13 953c 7aa3 a8bd b058 093e 3f85 d1bd
00000260: be9b d0bd e49f 54be a4bf d03d e6eb b13d
00000270: 04e1 ff3d e7cd 2a3e d803 2a3c 3a09 56bb
00000280: 3d51 45be 34d7 2abe 851c 1dbe 6e69 d8bd
00000290: d61a b73b c0d1 92be 3382 a63d 6a7e 05be
000002a0: 9fb8 94bd 4de7 a73c 93cf 42be fd22 f93c
000002b0: eed9 f3bd e539 10be 5fe3 6b3d c46b 3c3e
000002c0: 02f0 10bd 4cd4 40be 899a 3b3d e230 5e3e
000002d0: 8f89 923d af9a 0e3d 2aa7 0cbd 330e 7f3c
000002e0: 3874 62be 476b 1abe 6ffb 643d 2ab9 08be
000002f0: ccc2 9abc d07d 1ebd 6e0d 39be ab46 24be
00000300: 1e93 193e 2606 aa3d bc56 d23d 9f3b cebd
00000310: e53b 923d 8899 123e e7d8 55be aeee 143e
00000320: fae3 3d3d 3bc3 28be e179 70be 1e07 2abe
00000330: 05f4 da3d 7119 ea3d 5a1f 2c3e 60c9 2a3e
00000340: 820a 94bd 0f0f 45be cc12 33be 99a1 dc3d
00000350: bbcc 15be beac fb3d c909 60be 421f 1ebe
00000360: bbb6 9c3d 6353 473e 94d6 253e 0672 a03d
00000370: be0e e4bd 67f2 0f3e e9b5 d83d edc1 a43d
00000380: b3ec cfbd f164 23be 1b81 ba3d 168a bc3d
00000390: 1b11 e4bd 67c1 debc 3d10 45be 26ac 85be
000003a0: 9d1f d93d 1f87 3d3e 5d74 07be 90c0 853d
000003b0: dd59 ba3d 47cf 0f3d c22b b4bd 7662 0abe
000003c0: 656e fd3d ce44 65bd 9f2d 1e3e 10c2 453e
000003d0: 7cec 1bbe 3ba2 163e 5c5d 2bbe 4f18 9a3c
000003e0: 9e0f b0bd 57a8 b03d c333 b73d a758 8bbd
000003f0: aca9 27be 013c 8abd ed07 a73d 5b53 ccbc

fc2.weight f4 [360, 480]
-0.0351896 0.08123905 0.07444807 0.066039845 0.010366289 -0.097854555 -0.07193217 0.027662368
0.006708236 0.15663444 0.034104507 0.04980418 -0.07003947 -0.014186528 -0.062872894 0.08589512
0.06876415 -0.035197616 -0.0063093673 -0.029416574 -0.2637697 -0.042016245 -0.04141912 -0.029661875
-0.10714083 0.02070389 0.051298693 -0.15577362 -0.053317454 -0.1307677 -0.077530324 -0.1953362
-0.03365927 -0.07271189 -0.10214008 0.045454867 0.02076188 -0.20871593 -0.13454095 0.07418469
0.02371919 -0.061846428 -0.06481801 -0.09489761 -0.05902238 -0.034358792 -0.13267775 -0.06754622
-0.019350527 -0.07580441 -0.045372114 0.050573353 0.0119698625 0.059595585 0.021723727 -0.056558665
-0.008033668 0.05660924 -0.018004542 -0.17909437 -0.052720033 0.00046539557 0.05764332 -0.058461368
-0.047767255 0.007999766 -0.047123674 -0.039131016 -0.02545481 0.0718089 -0.03819572 -0.044342034
-0.06220268 0.06883993 -0.06016357 -0.009520712 -0.008690422 -0.09000223 -0.061653305 0.010456249
-0.03019284 0.0051757596 0.003702711 0.0075479713 -0.016778085 -0.069063336 0.033074316 -0.02086709
-0.14383489 0.024904897 -0.097013414 0.026903544 -0.10397039 0.042376712 -0.018424403 -0.03520768
0.030129638 -0.018119808 0.02816428 0.033012513 0.053165767 0.030486695 -0.07089469 0.024801023
0.034418095 -0.01631669 -0.08862852 -0.015587339 -0.0660112 -0.024520982 -0.05557706 -0.026620556
0.031481475 -0.035025872 -0.050978597 0.021419175 -0.012007808 -0.104622796 0.0703478 -0.035395376
-0.06039486 -0.15939136 0.020799426 0.005823781 -0.10095417 -0.04437945 -0.008451232 -0.074627645
0.008942712 0.03774903 -0.06807373 0.014311904 -0.07612893 -0.025780058 0.01605026 -0.16223246
0.018758645 -0.116755456 -0.116483495 -0.038124073 -0.046682853 -0.00991787 -0.040089693 0.05947291
0.001436013 -0.059375305 -0.022160769 -0.10759768 0.04467458 -0.12644854 0.024744058 0.10100773
0.040878884 0.00097654236 -0.105348885 0.030784385 -0.038155608 0.043266617 0.06651179 -0.12599032
-0.00031569196 -0.058774482 -0.11472631 0.09046104 0.13301216 -0.113296054 0.015924037 0.033905316
-0.058593027 0.074244946 0.028266331 -0.011846873 -0.001306276 -0.0043625827 -0.1459179 -0.015623219
0.07271111 -0.10774263 -0.05381119 -0.061852254 -0.004402419 -0.1863513 0.10364826 -0.04355842
0.006082541 -0.0246727 0.02930488 0.04215955 -0.17180394 -0.08422785 -0.07817188 -0.03318763
0.024671648 0.030530185 -0.033166915 0.019690255 0.06009063 -0.07063248 0.07269738 -0.0375086
-0.07400338 0.009580726 0.07857062 -0.016483847 0.06761486 0.05737477 -0.008331393 0.020509426
0.020707872 0.08138525 0.011459475 -0.03372828 -0.008102492 -0.11423851 -0.10417513 0.04980967
0.008730282 -0.03773459 -0.0055915075 0.09828173 0.028295474 0.09491385 -0.097269006 -0.065691136
0.008691379 0.081556804 0.034816343 -0.16148655 0.010411829 -0.09495186 0.027800232 -0.17063856
0.015463247 -0.031911988 -0.078141004 -0.06651588 0.0017278739 0.031049764 -0.13310055 0.061652903
-0.074079715 -0.09903947 -0.12089581 -0.009219433 -0.0021141309 0.053989686 -0.06400392 -0.057572212
-0.046676926 -0.109089054 -0.038573425 0.020262191 -0.007275084 -0.090739325 0.062853016 -0.07221176
00000000: f822 10bd a960 a63d 3b78 983d e63f 873d
00000010: 5ed7 293c f867 c8bd 2c51 93bd 319c e23c
00000020: c3d0 db3b c764 203e 2bb1 0b3d 78ff 4b3d
00000030: db70 8fbd 9c6e 68bc 81c3 80bd c8e9 af3d
00000040: 38d4 8c3d 602b 10bd cfbe cebb 07fb f0bc
00000050: d20c 87be 3a19 2cbd 18a7 29bd 76fd f2bc
00000060: a76c dbbd 349b a93c 941e 523d 1f83 1fbe
00000070: 6763 5abd f8e7 05be 38c8 9ebd 3606 48be
00000080: 4dde 09bd f9e9 94bd d12e d1bd e22e 3a3d
00000090: d114 aa3c a1b9 55be 1ac5 09be 25ee 973d
000000a0: bf4e c23c ae52 7dbd 4ebf 84bd ae59 c2bd
000000b0: 73c1 71bd cebb 0cbd addc 07be ac55 8abd
000000c0: ff84 9ebc 583f 9bbd 1cd8 39bd 0126 4f3d
000000d0: 3e1d 443c 801a 743d f5f5 b13c 0faa 67bd
000000e0: a59f 03bc 17df 673d 437e 93bc 8464 37be
000000f0: f6f0 57bd 5600 f439 671b 6c3d 3075 6fbd
00000100: 99a7 43bd 7311 033c c104 41bd d847 20bd
00000110: 9b86 d0bc 8b10 933d 1e73 1cbd fe9f 35bd
00000120: 3dc8 7ebd f3fb 8c3d 136e 76bd c3fc 1bbc
00000130: 4662 0ebc 1753 b8bd 2d88 7cbd b050 2b3c
00000140: fa56 f7bc 6b99 a93b 2fa9 723b f954 f73b
00000150: 3272 89bc 1471 8dbd ef78 073d 76f1 aabc
00000160: 7449 13be 5b05 cc3c f8ae c6bd d264 dc3c
00000170: 6eee d4bd 3493 2d3d c6ee 96bc ee35 10bd
00000180: 6ed2 f63c fe6f 94bc c7b8 e63c 2138 073d
00000190: 59c4 593d 3cbf f93c 3c31 91bd 842b cb3c
000001a0: fdf9 0c3d 94aa 85bc df82 b5bd 0a62 7fbc
000001b0: e130 87bd 3ae0 c8bc c5a4 63bd 5a13 dabc
000001c0: b8f2 003d 4a77 0fbd efce 50bd 4477 af3c
000001d0: 66bc 44bc 7a44 d6bd 8212 903d befa 10bd
000001e0: 9a60 77bd 7d37 23be 8f63 aa3c 6ad5 be3b
000001f0: 0fc1 cebd 3ac7 35bd 0977 0abc 61d6 98bd
00000200: 7484 123c ba9e 1a3d 3d6a 8bbd 7a7c 6a3c
00000210: 7ce9 9bbd b330 d3bc d67b 833c 4420 26be
00000220: bbab 993c 7c1d efbd e68e eebd fd27 1cbd
00000230: 8536 3fbd 907e 22bc 1735 24bd de99 733d
00000240: 9a38 bc3a 8533 73bd 808a b5bc 2c5c dcbd
00000250: b1fc 363d ba7b 01be 0db4 ca3c 24dd ce3d
00000260: 9e70 273d a6fe 7f3a 28c1 d7bd 892f fc3c
00000270: 0e49 1cbd 5638 313d 5537 883d 9b03 01be
00000280: 7583 a5b9 83bd 70bd a1f5 eabd a343 b93d
00000290: 5734 083e c307 e8bd 2073 823c 4de0 0a3d
000002a0: 3eff 6fbd bc0d 983d cb8e e73c 6319 42bc
000002b0: 5937 abba fff3 8ebb 816b 15be 88f8 7fbc
000002c0: 90e9 943d 2ba8 dcbd 1f69 5cbd ca58 7dbd
000002d0: 2b42 90bb e0d2 3ebe 8a45 d43d 506a 32bd
000002e0: 0d50 c73b 671e cabc ca10 f03c 7eaf 2c3d
000002f0: 5fed 2fbe a77f acbd 9418 a0bd c1ef 07bd
00000300: 321c ca3c 701a fa3c 08da 07bd 754d a13c
00000310: 9821 763d c3a7 90bd 5de2 943d 9ea2 19bd
00000320: 168f 97bd 7af8 1c3c a2e9 a03d 2209 87bc
00000330: a979 8a3d cf01 6b3d 6580 08bc 6203 a83c
00000340: 8ea3 a93c 4fad a63d 86c0 3b3c aa26 0abd
00000350: 51c0 04bc e1f5 e9bd c559 d5bd 3905 4c3d
00000360: 7509 0f3c 968f 1abd f738 b7bb ef47 c93d
00000370: e9cb e73c 3162 c23d f934 c7bd 1389 86bd
00000380: 4966 0e3c 4107 a73d 959b 0e3d bb5c 25be
00000390: 6096 2a3c 1f76 c2bd 50bd e33c e0bb 2ebe
000003a0: 8f59 7d3c 25b6 02bd 6408 a0bd 7a39 88bd
000003b0: d479 e23a 135c fe3c 834b 08be c187 7c3d
000003c0: 1bb7 97bd 35d5 cabd 3998 f7bd 1b0d 17bc
000003d0: 3b8d 0abb 4a24 5d3d 7d14 83bd d7d0 6bbd
000003e0: 4e30 3fbd 156a dfbd 2bff 1dbd e5fc a53c
000003f0: d463 eebb 8ad5 b9bd 15b9 803d c2e3 93bd

fc2.bias f4 [360]
0.06275637 0.018212711 -0.042253748 0.057549875 0.007037123 0.09923308 0.021501733 0.11213969
-0.08059223 -0.064982295 0.09953121 0.0732706 -0.037260626 -0.060958166 0.059540063 -0.033458143
0.0901408 -0.02282582 0.011351607 0.10893296 -0.09562614 0.033183504 -0.050045125 0.080472544
-0.026131544 -0.087558836 0.04578123 0.08159861 -0.04021882 -0.021009274 0.21120107 -0.031315327
0.09229679 -0.12134138 -0.09305659 -0.019816136 -0.018818708 -0.013632271 0.15721801 0.011467203
0.094865814 0.009993301 0.029993992 -0.048890572 0.13907863 0.1296206 -0.09759415 0.021678444
-0.00024770875 0.053852245 0.044209316 -0.071106315 -0.009618613 -0.16725259 0.19036493 0.06453933
0.20989631 -0.006335373 0.08724591 -0.018566659 -0.04852434 0.20422596 0.07540419 -0.09161786
0.018083416 0.06993672 0.0419281 -0.09997423 0.10001448 0.02362848 0.049047966 0.09312896
0.0752012 0.045395583 0.0020579305 0.17446892 -0.061493784 -0.03708479 -0.060856946 0.16176638
0.015753506 0.003719021 0.124975406 -0.044317134 0.14159226 0.11450594 0.009993626 0.0012616849
0.09486686 0.027558573 0.102053255 0.050555207 0.12885027 0.233121 -0.02741833 0.17743795
0.082378834 0.04965542 -0.0042206715 0.039573688 0.0146214785 0.026993696 0.055742644 -0.048429213
0.0028029499 0.13266788 0.07207333 0.049093526 0.09598043 -0.32038447 -0.05432792 -0.079781145
0.1180035 0.03627722 0.0048609916 0.06401183 -0.029165741 0.1381564 -0.2086221 0.036394928
0.17761019 -0.026263107 0.12887783 -0.0077306265 0.12066564 0.057610963 0.12716515 0.020229883
0.18183117 0.1958932 0.041565254 0.17227894 -0.033692937 -0.054843213 -0.039121546 0.1866179
0.092616715 -0.042252377 -0.001016939 0.032122552 -0.015803088 -0.08963635 0.2435786 -0.013415396
-0.03550313 0.0705972 -0.07680613 -0.0077666445 0.014182541 0.082430415 -0.0035999282 -0.015394226
0.009144437 -0.07778503 0.017589051 0.07069723 0.0039336546 -0.034433596 -0.06382034 -0.020213638
0.017225754 -0.09152017 0.00712317 -0.099652216 -0.06986825 -0.06981137 0.02878594 0.029580623
0.13217087 0.010722117 0.051740002 -0.030898206 0.034296386 0.054497954 0.046811376 -0.09376441
0.03951737 0.17141098 -0.1328696 0.13084753 0.06694495 -0.028281355 -0.015463866 0.047042813
0.012402015 -0.0633816 0.0499781 -0.04308767 0.015052493 0.07275011 -0.016199268 0.043086443
-0.0022435833 0.18937992 0.119919606 -0.06281549 -0.11551017 -0.07945098 0.039617766 0.17854972
0.15278275 0.09246981 0.078125596 0.09185431 0.105269864 -0.015513613 0.15517469 -0.021548478
0.03712495 0.02110861 0.06842108 -0.029776633 -0.02438066 -0.27708945 -0.027425004 -0.0063570794
0.12321021 -0.06646864 -0.062132318 -0.0591729 -0.08595826 -0.03799874 -0.020041898 0.022165287
0.031070007 0.07480118 0.1727187 -0.022425955 0.01066772 -0.11744903 0.16537611 0.19872007
0.0045861015 -0.079227455 -0.011173499 0.1268053 0.1471554 0.061709106 0.16110578 0.054209456
0.026112258 -0.043921243 -0.1658098 0.07400011 -0.070915274 0.024230659 -0.021339715 0.029407881
0.15417817 0.17099607 -0.0016851757 0.10701406 0.010685393 0.13617177 -0.045599934 0.05640383
00000000: 6986 803d d332 953c 4412 2dbd 6bb9 6b3d
00000010: ab97 e63b b73a cb3d 6724 b03c 7ea9 e53d
00000020: 8a0d a5bd 7015 85bd 05d7 cb3d e50e 963d
00000030: 999e 18bd 45af 79bd 48e0 733d 680b 09bd
00000040: bd9b b83d 37fd babc 17fc 393c 3e18 df3d
00000050: a3d7 c3bd 6deb 073d 1efc 4cbd cace a43d
00000060: d211 d6bc 0c52 b3bd 1985 3b3d 2c1d a73d
00000070: 7dbc 24bd a41b acbc 1845 583e 8044 00bd
00000080: 1906 bd3d d481 f8bd 7494 bebd 7355 a2bc
00000090: b129 9abc e459 5fbc c2fd 203e efe0 3b3c
000000a0: 0249 c23d f1ba 233c f6b5 f53c 7b41 48bd
000000b0: a16a 0e3e 43bb 043e 71df c7bd fe96 b13c
000000c0: e8de 81b9 2c94 5c3d d414 353d 30a0 91bd
000000d0: 6397 1dbc 4344 2bbe 06ef 423e 322d 843d
000000e0: 0fef 563e f698 cfbb fcad b23d 1b19 98bc
000000f0: 75c1 46bd 9c20 513e 836d 9a3d 25a2 bbbd
00000100: ac23 943c fc3a 8f3d cdbc 2b3d 4abf ccbd
00000110: 64d4 cc3d 8490 c13c 85e6 483d 65ba be3d
00000120: 1603 9a3d b8f0 393d 58de 063b fba7 323e
00000130: e8e0 7bbd 39e6 17bd 2245 79bd 16a6 253e
00000140: 7f0d 813c d2ba 733b 1bf3 ff3d e285 35bd
00000150: 90fd 103e 1782 ea3d 4ebc 233c 1f5f a53a
00000160: 8e49 c23d 84c2 e13c 4c01 d13d fa12 4f3d
00000170: 53f1 033e 45b7 6e3e 689c e0bc 4bb2 353e
00000180: 3cb6 a83d 7b63 4b3d 8f4d 8abb 0518 223d
00000190: ed8e 6f3c e221 dd3c 6652 643d b65d 46bd
000001a0: b2b1 373b 17da 073e 2f9b 933d 4b16 493d
000001b0: 6391 c43d 6f09 a4be f486 5ebd 4c64 a3bd
000001c0: d2ab f13d 6c97 143d f448 9f3b a218 833d
000001d0: feec eebc df78 0d3e 08a1 55be d912 153d
000001e0: 72df 353e ba25 d7bc 8df8 033e 3251 fdbb
000001f0: 8c1f f73d 79f9 6b3d 9537 023e 24b9 a53c
00000200: f331 3a3e 3a98 483e 5440 2a3d e469 303e
00000210: 9b01 0abd 47a3 60bd ea3d 20bd c318 3f3e
00000220: d5ad bd3d d410 2dbd cf4a 85ba f092 033d
00000230: 7a75 81bc 4393 b7bd ab6c 793e 40cc 5bbc
00000240: bb6b 11bd 4495 903d 884c 9dbd 567f febb
00000250: e35d 683c 47d1 a83d c6ec 6bbb 1038 7cbc
00000260: 8cd2 153c c24d 9fbd ea16 903c b6c9 903d
00000270: e3e5 803b 3e0a 0dbd 3db4 82bd 1297 a5bc
00000280: 061d 8d3c ed6e bbbd 7b69 e93b 7616 ccbd
00000290: 1617 8fbd 43f9 8ebd 7ed0 eb3c 1053 f23c
000002a0: cd57 073e d1ab 2f3c 53ed 533d 3c1e fdbc
000002b0: 5e7a 0c3d 3f39 5f3d 49bd 3f3d 8e07 c0bd
000002c0: f7dc 213d 5c86 2f3e f80e 08be e5fc 053e
000002d0: 6f1a 893d 4dae e7bc 285c 7dbc f7af 403d
000002e0: d231 4b3c 36ce 81bd d6b5 4c3d b27c 30bd
000002f0: bb9e 763c 02fe 943d 54b4 84bc 697b 303d
00000300: 1509 13bb cfec 413e 6998 f53d 68a5 80bd
00000310: 9990 ecbd 32b7 a2bd 3d46 223d bdd5 363e
00000320: 1573 1c3e d060 bd3d 5000 a03d 1d1e bc3d
00000330: ba97 d73d cf2c 7ebc 1de6 1e3e 6f86 b0bc
00000340: 5510 183d f7eb ac3c 5a20 8c3d 20ee f3bc
00000350: f3b9 c7bc abde 8dbe 67aa e0bc 0c4f d0bb
00000360: a255 fc3d b620 88bd 757e 7ebd 485f 72bd
00000370: e20a b0bd 91a4 1bbd e82e a4bc fa93 b53c
00000380: 8786 fe3c 5c31 993d 2cdd 303e a3b6 b7bc
00000390: a9c7 2e3c 1e89 f0bd 5b58 293e 467d 4b3e
000003a0: 0247 963b 0142 a2bd 0d11 37bc 40d9 013e
000003b0: e8af 163e b0c2 7c3d eaf8 243e bc0a 5e3d
000003c0: 60e9 d53c c3e6 33bd 0bca 29be 5f8d 973d
000003d0: 073c 91bd 607f c63c a0d0 aebc cce8 f03c
000003e0: e2e0 1d3e 9819 2f3e 1de1 dcba 302a db3d
000003f0: c911 2f3c 9d70 0b3e ffc6 3abd b407 673d

fc3.weight f4 [2, 360]
0.17736036 0.2367476 -0.18248801 0.25997546 -0.16230837 0.13415013 -0.06861517 0.009402078
0.03011072 -0.0033072873 0.22138175 -0.07747262 0.31229883 -0.20059165 0.28359342 0.0034180062
-0.07053317 -0.09588445 0.056562003 0.0043777185 -0.14412293 0.36476552 -0.14614102 0.02569652
-0.088573344 -0.16117568 0.1988507 -0.030189894 0.017278548 0.0032627431 0.0051494073 -0.11245882
-0.004143265 -0.07051998 -0.1408077 -0.067553386 -0.051431205 0.1470335 -0.01698326 0.17957291
0.09599521 0.23130572 0.18127963 -0.021369297 0.100227445 -0.009696825 -0.008763209 0.23729205
-0.05469822 0.052683525 0.047685094 0.009026099 0.12074042 -0.06732965 -0.018018063 0.114160486
-0.017000444 0.32667103 -0.0848486 0.053161364 0.00086441915 -0.020371988 0.0076629673 -0.0007242011
-0.03362658 0.11263401 0.16715743 0.0011714626 -0.031721238 -0.10333849 0.14714721 0.3036475
-0.008174294 0.33021444 0.15518428 -0.04162515 0.017963398 0.0030098977 0.20375675 0.022074992
0.10485239 0.16032818 -0.0638226 0.0019398724 -0.018497154 -0.0044791363 0.3002476 -0.0708307
-0.012831385 0.17325886 -0.007940056 0.122672915 -0.016121976 -0.004120254 0.028083328 -0.008940417
0.09397103 0.10938566 0.27112588 0.05916232 -0.07786492 -0.095618784 -0.118950546 -0.14109911
-0.10960749 0.0124280825 0.12075929 0.2430035 -0.011675533 -0.1713133 0.014676117 -0.035473745
-0.016551796 0.24319293 -0.082970425 -0.06547208 -0.2521163 -0.0017754962 -0.026443549 0.29282042
-0.012611849 -0.0612832 -0.024621213 0.003631449 -0.07206805 0.06465438 -0.006797694 -0.044955414
0.0011398768 -0.0007169227 0.05853181 -0.007628939 0.0099564865 -0.053228565 -0.038229205 0.00029842617
-0.00943609 0.16824786 0.12051249 -0.06883846 -0.14221367 0.043315306 -0.0062196557 0.1237527
-0.12118181 -0.04357902 -0.002068167 0.13075857 0.044766143 -0.08856599 -0.2297965 -0.17390922
-0.09199004 0.0024321822 0.3881594 -0.07466763 -0.074099526 -0.17504339 0.0026864468 -0.074066766
0.1792245 -0.009951446 0.1500762 -0.0014501604 -0.003853136 -0.0044786627 0.2245629 0.390321
-0.007868753 0.1147794 0.22535019 0.038723197 0.07120986 0.12248021 -0.05678535 -0.014035455
0.20937236 -0.02001353 0.003667005 0.0030058133 -0.061285295 -0.17398492 -0.043295886 0.3463717
-0.076336294 -0.0008134527 0.22133319 -0.1429082 0.13998738 -0.07727032 0.019109605 0.15104032
0.110666245 -0.025072042 -0.054655854 -0.0014551869 0.011616306 0.020362537 0.33129647 -0.005498454
-0.013354661 -0.051907886 0.11440702 0.1624865 -0.008339089 -0.088663 -0.048833385 -0.14019951
0.14735776 0.02065055 0.085558064 0.20558411 -0.22627845 -0.12503606 0.105884805 -0.1396948
0.011181356 -0.16127117 -0.008978825 -0.22943151 -0.010445884 -0.11683521 -0.18250132 -0.09237094
0.20116891 -0.054021083 -0.010149881 -0.001560799 -0.04004973 -0.050824605 -0.011738639 0.0074197385
-0.084880106 0.00092745316 0.030972907 -0.042859595 -0.027070304 0.18399134 -0.0047796913 0.16041389
-0.06420433 -0.22456394 0.047264904 -0.048336737 -0.2047341 0.2121301 -0.058386855 -0.048739355
-0.008055711 0.010488463 0.055494506 -0.006328306 0.15989168 0.06823916 -0.06161014 -0.0018552606
00000000: f49d 353e f66d 723e 23de 3abe 811b 853e
00000010: 2a34 26be a75e 093e 1c86 8cbd 2c0b 1a3c
00000020: c2aa f63c 13bf 58bb e6b1 623e f7a9 9ebd
00000030: a2e5 9f3e e667 4dbe 2833 913e a100 603b
00000040: b273 90bd 115f c4bd 8fad 673d f772 8f3b
00000050: f694 13be 8cc2 ba3e fea5 15be 8281 d23c
00000060: f165 b5bd 3d0b 25be 859f 4b3e cc50 f7bc
00000070: be8b 8d3c bfd3 553b 5cbc a83b cf50 e6bd
00000080: 3ac4 87bb c76c 90bd e52f 10be 6e59 8abd
00000090: 87a9 52bd f38f 163e 7a20 8bbc f6e1 373e
000000a0: 2399 c43d 68db 6c3e 5ea1 393e aa0e afbc
000000b0: 0c44 cd3d 6fdf 1ebc 9093 0fbc b0fc 723e
000000c0: 3e0b 60bd aeca 573d 7251 433d 34e2 133c
000000d0: c146 f73d 21e4 89bd 9e9a 93bc f9cc e93d
000000e0: 8444 8bbc 6d41 a73e 1ac5 adbd bbbf 593d
000000f0: 309a 623a 28e3 a6bc a119 fb3b 50d8 3dba
00000100: 06bc 09bd a9ac e63d 512b 2b3e c38b 993a
00000110: 21ee 01bd 21a3 d3bd c2ad 163e af77 9b3e
00000120: 79ed 05bc de11 a93e a1e8 1e3e 227f 2abd
00000130: fa27 933c b441 453b 9ca5 503e 9dd6 b43c
00000140: dabc d63d 122d 243e 6cb5 82bd 5143 fe3a
00000150: 5887 97bc b8c5 92bb 0eba 993e b00f 91bd
00000160: bb3a 52bc c56a 313e 0217 02bc f03b fb3d
00000170: 3c12 84bc 3203 87bb 020f e63c d47a 12bc
00000180: e273 c03d 9705 e03d 03d1 8a3e 3054 723d
00000190: a577 9fbd c8d3 c3bd 589c f3bd 497c 10be
000001a0: e479 e0bd 289f 4b3c a650 f73d e9d5 783e
000001b0: bc4a 3fbc c16c 2fbe 1974 703c eb4c 11bd
000001c0: a297 87bc 9107 793e 66ec a9bd 3a16 86bd
000001d0: 6315 81be c4b7 e8ba 24a0 d8bc 8fec 953e
000001e0: eea1 4ebc 1804 7bbd 6db2 c9bc 9bfd 6d3b
000001f0: 6a98 93bd 8469 843d 31bf debb 2b23 38bd
00000200: eb67 953a deef 3bba 0dbf 6f3d 2efc f9bb
00000210: 8820 233c 3206 5abd 3a96 1cbd 1576 9c39
00000220: d499 1abc 2b49 2c3e 41cf f63d 2efb 8cbd
00000230: 76a0 11be 646b 313d 41ce cbbb 0e72 fd3d
00000240: 2b2e f8bd ea7f 32bd 168a 07bb 93e5 053e
00000250: b45c 373d 1662 b5bd c64f 6bbe 4215 32be
00000260: 4665 bcbd 3f65 1f3b d4bc c63e 58eb 98bd
00000270: 7ec1 97bd 933e 33be 190f 303b 51b0 97bd
00000280: a186 373e 640b 23bc 93ad 193e 4f13 beba
00000290: e584 7cbb bfc1 92bb d1f3 653e 27d8 c73e
000002a0: f1eb 00bc 7611 eb3d 33c2 663e 379c 1e3d
000002b0: 7ad6 913d e8d6 fa3d c197 68bd f7f4 65bc
000002c0: b565 563e 6af3 a3bc 2352 703b 2efd 443b
000002d0: 4a06 7bbd 1a29 32be 0757 31bd a257 b13e
000002e0: 3456 9cbd e33d 55ba 2ba5 623e 8756 12be
000002f0: da58 0f3e e73f 9ebd bf8b 9c3c 50aa 1a3e
00000300: fca4 e23d e263 cdbc d1de 5fbd f8bb beba
00000310: 5252 3e3c 56cf a63c b19f a93e 602c b4bb
00000320: 82cd 5abc 5d9d 54bd 3a4e ea3d dc62 263e
00000330: ada0 08bc f294 b5bd 8405 48bd 7690 0fbe
00000340: f4e4 163e 582b a93c 1139 af3d a484 523e
00000350: 8ab5 67be 7409 00be 22da d83d 270c 0fbe
00000360: 0232 373c 4524 25be ec1b 13bc 18f0 6abe
00000370: 3725 2bbc 4c47 efbd a0e1 3abe fa2c bdbd
00000380: 39ff 4d3e 3645 5dbd b04b 26bc b993 ccba
00000390: 300b 24bd 762d 50bd 6c53 40bc 4721 f33b
000003a0: 9fd5 adbd 5420 733a e5ba fd3c 8b8d 2fbd
000003b0: 8bc2 ddbc 3a68 3c3e f59e 9cbb 8a43 243e
000003c0: 8f7d 83bd 17f4 65be d898 413d befc 45bd
000003d0: d1a5 51be a238 593e 0e27 6fbd eba2 47bd
000003e0: 1afc 03bc cdd7 2b3c 354e 633d ae5d cfbb
000003f0: a5ba 233e f9c0 8b3d ea5a 7cbd 372c f3ba

fc3.bias f4 [2]
0.08095698 0.15459646
00000000: c6cc a53d 894e 1e3e
