checkpoint_actor0.pth (torch, 525855 bytes, 6 tensors)

fc1.weight f4 [400, 24]
00000000: b1a8 653d f0f6 98bd c366 97bc d618 093d
00000010: 15ff a43c 547f 9fbb ddf4 a03c 4a1b 8d3d
00000020: 307a 8f3d f3da d2bd f7f7 82bc 546b c93c
00000030: d7cb 3a3d 7b4c 783c a0aa 9cba 3325 a13d
00000040: 0a67 353d 6fcd 58bd a1d1 823c 8785 773d
00000050: 8fe3 adbb d394 3bbd 595a 1ebd 1522 813c
00000060: ded0 613c 2911 1bbe 5599 1ebd fa48 8ebd
00000070: 4865 09bd dd8b bc3c 6553 f43c 8223 1a3c
00000080: 0e91 bb3d 2966 cbbd bc1b f5bb db74 2dbb
00000090: 1b0e 033d 3aca c73c bd5b 5f3c 0f34 253d
000000a0: d149 893d c773 f1bd 52ba 36bc 4e43 2f3c
000000b0: 1d40 92bd a2c6 d33d 7121 e93b e346 4f3d
000000c0: a779 133d 46ab 94bd 56ac 7abc 03b9 5d3d
000000d0: a301 773c e6f3 9e3b c570 283c 6d58 0c3d
000000e0: cb47 a13d d2ad 95bd 691c 853c 3485 783d
000000f0: d049 cebc d821 2ebd 3f8e 84bc 65f0 fb3c
00000100: 6de8 ae3d 5de2 45bd bb00 18bc 41ea 58bd
00000110: eaf0 a1bd e380 c83d 0cb6 843c 5ce2 5bbd
00000120: b4c9 713c f090 0b3d 307d aabc 434a 17bd
00000130: f6c3 79bd a536 eabc 82c5 09bb d34f 58bd
00000140: a06c 263c 9470 de3b 1562 8d3c 224a d43c
00000150: 97ef 9e3d acfd 13bd 0f06 adbc 0f80 933d
00000160: 9a38 1abd 176a a0bb b178 a2bc 9348 003e
00000170: 1691 9a3d 08d2 b13c 4f7f 24bc d172 bd3d
00000180: 4c52 f33c 44c3 afbd df56 c4bc 8173 093d
00000190: 46ec 423d a101 313d 4e17 353d eab9 9a3d
000001a0: fe55 b93c 3572 51bd f9e0 143a 6b48 773d
000001b0: 2c33 eabb dcc4 3d3c 4d01 883b f984 743d
000001c0: 0b40 bc3d 34ed b6bd 2cda 2e3b efa5 e73c
000001d0: c9cf 17bd 603d 913b 3f62 32bd 86c6 a63d
000001e0: 46b8 ca3d bd97 c53d 65e9 65bc 4693 89bd
000001f0: 2713 88bc a1ff cabd f34c 8ebc b30d 18bd
00000200: 4153 4ebb 0ba2 4e3d f826 27bc bc73 d0bc
00000210: 2867 39bd 2d3c 99bd 766a 0cbd be67 71bd
00000220: b568 a93d d730 0a3e c7c0 35bd 9ce7 90ba
00000230: 0ef8 99bc 12df 65bd a32d 263d 5bcb 27bb
00000240: c6ec 9c3d 653a 1dbd 99e3 a43c aae0 10bd
00000250: 3673 5e3d d1ac 81bd d9e6 90bd 80f5 71bc
00000260: cddd 253d 93d8 8bbd 1a3f 3abc 840e 4ebd
00000270: 88f5 113d 8d88 e53c 1545 1b3d 7246 5dbb
00000280: 2074 6d3c 104d f7bd 64c8 30bc d1ad d0bb
00000290: 3847 a9bd 360b 523d 085f 2fbd 206c 29bb
000002a0: 6801 133d 1b41 02bd 8950 21bd a7fe 4f3d
000002b0: 2fab 13bb 5f45 9cbd 798f f63b 2acb dbbc
000002c0: 58ff df3d 6367 d0bd cf59 cfba ea25 d9bb
000002d0: 4b06 8abc 65d5 52bb 42cf 8b3c 85be f23c
000002e0: deb8 1c3d 3496 04be 115c c7bc 9ab8 2b3d
000002f0: b1da 2ebd b656 093e ed2d 11bc d823 7e3c
00000300: 2ee9 1b3d 200a 1abe bd50 c03c 35dc f4bd
00000310: 6f36 723d b9e9 c0bc 2243 5bbd 83a9 dfbd
00000320: fa50 023d 0530 a3bd 30f4 c43b 7f41 083d
00000330: 9df8 863d be97 04be e9c2 183d 720d f2bc
00000340: 937a 333c 9ab9 b4bd 0575 a23c 9879 533d
00000350: 0b61 273d 1a5d cbbd 8769 dbbc 26b4 bc3d
00000360: 79c2 543d 6d8d 6abd b3ce 6bbb ac20 ab3b
00000370: 7ea4 ffbc 1df6 6d3d 290e b5bb d495 b93b
00000380: 428b 723c bf4a c0bd 414a 4b3c 4b84 93bc
00000390: dcc6 e83c 4cbd 033e 558c 73bc d2cd 9fbd
000003a0: 62b0 f33c 63a7 24bd cd48 eb3b 300d d63c
000003b0: d188 4f3d dc8a 033e 92d4 9ebc e2a9 a93c
000003c0: 92da 66bd 9bc1 ad3d a7be 193b 5389 123c
000003d0: d0f8 a6bd 2be7 86bd e582 9639 7a52 59bd
000003e0: e7c3 f9bc 5231 c43d 29a5 313b 6b81 3bbc
000003f0: 4ec1 813d 02f0 7bbd a405 b0ba 07b0 e93c
0.05606908 -0.074689746 -0.018481618 0.03347095 0.020141164 -0.0048674736 0.01964801 0.068899706
0.07005727 -0.102956675 -0.01598738 0.02458731 0.045604553 0.015154953 -0.0011952706 0.07868423
0.04428772 -0.05293029 0.0159691 0.060430076 -0.005306668 -0.045796227 -0.03866038 0.015763322
0.013782708 -0.15143265 -0.038720448 -0.06947513 -0.033543855 0.02301591 0.029824922 0.00940788
0.09158526 -0.09931595 -0.007480113 -0.0026467356 0.031995874 0.024388421 0.013632712 0.04033285
0.067035325 -0.11789661 -0.011152821 0.010697199 -0.07141135 0.103406206 0.007114582 0.050604712
0.03600469 -0.0725923 -0.015299877 0.05413152 0.015076074 0.0048508523 0.010280793 0.034264017
0.078750215 -0.07308544 0.016248899 0.060673907 -0.02518168 -0.042512745 -0.01618111 0.030754277
0.085404254 -0.04831158 -0.009277518 -0.052957777 -0.07907279 0.09790208 0.016200088 -0.05368267
0.014757562 0.03407377 -0.020811647 -0.036936056 -0.0609779 -0.02859051 -0.0021022265 -0.0528105
0.010157734 0.0067883227 0.017258683 0.025914256 0.07760542 -0.036130592 -0.021121053 0.072021596
-0.037651636 -0.0048954594 -0.01983294 0.12527685 0.07547204 0.021706596 -0.010040118 0.09250415
0.029702328 -0.08582166 -0.023967205 0.03355742 0.04758861 0.043214444 0.04421168 0.075549915
0.022624012 -0.051134307 0.00056792755 0.060371798 -0.0071472134 0.011582579 0.0041505457 0.059697125
0.09191903 -0.08931962 0.0026680334 0.028277365 -0.037063394 0.0044323653 -0.043550726 0.08143334
0.098984286 0.096480824 -0.014032696 -0.06717543 -0.016610695 -0.099120386 -0.017370677 -0.03712244
-0.0031482729 0.050447505 -0.010202162 -0.025445811 -0.045264393 -0.07482181 -0.034281217 -0.058936827
0.082719244 0.13495193 -0.0443733 -0.0011055353 -0.01879504 -0.05612094 0.040570866 -0.0025603387
0.076623484 -0.038385767 0.020128058 -0.035370506 0.054309092 -0.0633179 -0.07075281 -0.014768004
0.04049473 -0.06828418 -0.011367584 -0.050306812 0.035634547 0.028019214 0.03790768 -0.0033763913
0.014493018 -0.120752454 -0.010789964 -0.006368377 -0.08265537 0.051280223 -0.04281524 -0.00258518
0.035890013 -0.03180037 -0.039383445 0.050779965 -0.0022532453 -0.07630419 0.0075244275 -0.026830275
0.10937375 -0.101759695 -0.0015819612 -0.006626834 -0.016848704 -0.003217065 0.017066602 0.029631862
0.03826224 -0.12947923 -0.024335893 0.041924097 -0.04268903 0.13411984 -0.008861047 0.0155114755
0.038064174 -0.15042925 0.023475999 -0.11956064 0.059133943 -0.023548948 -0.05353082 -0.10921004
0.031815507 -0.079681434 0.0060105547 0.033265587 0.06590388 -0.1294851 0.037295256 -0.029547427
0.010954517 -0.08824463 0.01983119 0.051629633 0.04086403 -0.09929867 -0.026783718 0.09214048
0.051943276 -0.05726378 -0.0035981357 0.0052224007 -0.031206366 0.05809604 -0.0055253697 0.005663613
0.014803709 -0.09389257 0.01240784 -0.018007418 0.028415136 0.1286518 -0.014865001 -0.07802929
0.029747192 -0.040198695 0.0071803094 0.026129335 0.050667588 0.1284594 -0.01938847 0.02071089
-0.05636079 0.08484193 0.0023459585 0.008943873 -0.08152926 -0.065870605 0.00028707754 -0.05305717
-0.030488921 0.095797196 0.00271065 -0.01144443 0.06335698 -0.061508186 -0.0013429415 0.02852632

fc1.bias f4 [400]
00000000: e81c 9dbd 16c8 a33d f303 e9bd d088 c23d
00000010: c3da b9bd 170f babd 1c6d 973d e057 0f3e
00000020: a409 9fbd 4200 583d 5d4c 993d 7424 d1bc
00000030: fa53 323e 12a9 293e c79b 9dbd bcc8 463e
00000040: 9eca c73c 9f38 12be d6eb fcbd 6fc9 233e
00000050: 4737 c03c ed2f 023e 4d39 fe3d e5a3 86be
00000060: 9126 9e3d 389b 35bd 39f3 483d b259 2abe
00000070: 8d1d b73d 1d34 a9bd afc5 a63d 2af2 8d3d
00000080: f2d4 26be 06d3 f23c ac8f 21be 3160 603b
00000090: f1c4 32be 7f4a 90bd 3731 54bd 1919 7abc
000000a0: ea90 6b3c 3e55 32be 4348 fe3d dc58 3cbe
000000b0: aa3f 2ebe cac8 be3d 1a13 94bd 5453 f03d
000000c0: cc2e f3bd d799 4dbd cef5 fd3c aaf0 57be
000000d0: 0883 cabd b0c3 59be 2093 54bc 1620 2d3e
000000e0: 50d9 97bd 4294 0c3e 0be6 fc3d be8e 5cbd
000000f0: 5ac2 b53d a8b8 58be c55a d43c e783 e63d
00000100: 8666 17be 5490 16be b49f 25be da2d da3c
00000110: 423c 803d 1e49 ae3d 12b8 8b3d 389b de3d
00000120: 9be1 af3d 2e1b 58be 2da5 ffbd fa0f 2dbe
00000130: b1c0 f33d 3008 853d 5647 2bbc 6003 433e
00000140: 4652 123e a5f7 10bd 6829 e23d 346d 2cbe
00000150: ada1 a7bd 779d 48be cae2 63be eda2 64be
00000160: 7206 55be e844 b8bd 3daf 27bd a33d 193e
00000170: afe1 21be 35a7 05be 6ec6 1ebe c983 983c
00000180: c3f3 b53d cc43 29bd 526c dd3d cafb 793d
00000190: c9de 50be e89a 81bd 096c d03d bbfa 64be
000001a0: ac72 b5bd 2280 973c 823f 753e ee66 283d
000001b0: 7a2a d93c 0460 833d 432d 1e3e eb7d 5bbe
000001c0: 6412 aabb 13e6 a7bd cef3 713d 9461 8dbd
000001d0: 5d80 f53d 8faa e43c 17e6 c63d 3e27 f13d
000001e0: 37fd 3ebe 0e4f 653d b591 15be e708 85bd
000001f0: b84f 01be 06e1 f73d 8f33 1e3e 2418 0ebe
00000200: 3818 54be 1d58 083e 0182 fbbd e80b e6bd
00000210: 4b13 d1bd e1ad 82be 8a11 84bc 5593 44be
00000220: dfdd 57be e2fa 54bd 686c 19be e0a6 4ebe
00000230: 659d 003b 0d0d 1ebe 7670 26be b71b 71be
00000240: e706 5fbe d628 a6bd 66cd cc3d f56e 41ba
00000250: 2265 cfbd 25db aabc 2bdd 2d3e 6bf2 1d3e
00000260: 1206 4ebe 46ed 20be 6ede 1bbd 2073 a8bd
00000270: 15b0 b9bc f6c6 343d dce4 7b3d 01fb 05bd
00000280: 0339 49be 71cb 31ba 5194 003c 4f0d 3b3d
00000290: 11f3 b3bc 0b6b 54be 49eb c83d f25b f8bd
000002a0: c0a2 20be 121e 00be 0e1c 043d 6db7 74bc
000002b0: dab2 58bd cf99 0fbd ea9a 213e 6a46 47be
000002c0: 104a f3bd 7219 513c e0ef bb3d 4363 493e
000002d0: 40f1 833d cd5d be3b 9028 d53c 3021 473d
000002e0: 1502 b5bd 1c13 92bd 117f e43d fd91 ea3d
000002f0: 2ede cd3d a87c 04be ee3b a839 d8ff abbb
00000300: 9d1c 023e 67eb 28be b87f 2cbe 0333 28be
00000310: 22cd 073e fec4 223d be84 373e a3e0 833d
00000320: 1911 58be 9019 1e3d 269f a7bc ac92 bc3d
00000330: e5d9 69bd 9b6a b93d 1dfb d4bd c6d2 f03d
00000340: f517 f63d a0c6 2ebe 7a6c 8bbd ec71 17be
00000350: 3865 3ebb 43e7 fcbd f499 043d 2ddb 4f3d
00000360: 931e da3d 9ff0 4dbe 0fd0 303d 41c6 1ebe
00000370: 2f5d 36be 67ea 26be 0850 153e d324 f63d
00000380: 06e7 4f3d c77a e43d 85fb f43d 3fac 18bd
00000390: c54a da3d 0859 283d 3936 4cbe b863 0b3d
000003a0: c817 a4bc d39b a63d 411b 99bb 59b2 62bd
000003b0: be7e a8bd 6ae7 31be 2bd9 63be ffae c5bb
000003c0: 8d4e 2bbd 4bb4 8e3a 648c 4cbd dae7 dcbd
000003d0: af28 463e e4ad e93c 983a 8fbc a75e 853d
000003e0: 8413 1b3e 516e 0cbe c938 343e 42a1 753c
000003f0: b6c1 083e d8a4 903d 128f 223b 6d47 0d3e
-0.07671529 0.07997148 -0.113777064 0.09498751 -0.090749286 -0.090849094 0.07393858 0.13998365
-0.07765511 0.05273462 0.07485268 -0.025530078 0.17414847 0.16568401 -0.07695728 0.19412512
0.024388608 -0.14279412 -0.1234967 0.1599481 0.023463858 0.12713595 0.12413273 -0.26296917
0.077222 -0.04433748 0.04906008 -0.16635779 0.08941183 -0.08261893 0.08143174 0.06930955
-0.1629217 0.02964164 -0.15777463 0.0034237022 -0.1745794 -0.07045459 -0.051804747 -0.015264773
0.014377812 -0.1741533 0.124161266 -0.18393272 -0.17016473 0.09315641 -0.07230206 0.117346436
-0.1187416 -0.05019554 0.031000998 -0.210879 -0.098882735 -0.21266055 -0.01297453 0.16906771
-0.07414496 0.13728431 0.12348565 -0.053847067 0.0887496 -0.21164191 0.025922189 0.11255627
-0.14785203 -0.14703494 -0.16174203 0.026633192 0.06261493 0.0851004 0.06822218 0.108694494
0.08587953 -0.21104118 -0.12482677 -0.16900626 0.11901987 0.06495702 -0.0104540195 0.19044256
0.14289197 -0.035392422 0.11043054 -0.16838533 -0.08185134 -0.19591318 -0.22254482 -0.22327776
-0.2080324 -0.08997518 -0.040938605 0.14964919 -0.15808748 -0.13052066 -0.15505382 0.018617528
0.088843845 -0.04132442 0.10811676 0.06103114 -0.20397486 -0.06328374 0.10176856 -0.22361271
-0.088597625 0.018493716 0.23950008 0.041113786 0.026509512 0.06414798 0.15446953 -0.21434753
-0.0051901806 -0.0819818 0.0590704 -0.06903377 0.11987374 0.02791336 0.09711855 0.11775063
-0.18651281 0.055983596 -0.14606364 -0.064958386 -0.12628067 0.12103467 0.15449356 -0.13876396
-0.20712364 0.13314863 -0.12280656 -0.1123274 -0.10208758 -0.25523284 -0.016121645 -0.19196828
-0.21080731 -0.051997073 -0.1498276 -0.20180845 0.0019625064 -0.15434666 -0.16253838 -0.23545729
-0.21779977 -0.081132576 0.10000114 -0.00073788996 -0.101267114 -0.02085645 0.169789 0.15424506
-0.20119503 -0.15715513 -0.038053922 -0.08225083 -0.02266697 0.044135056 0.061497554 -0.03271008
-0.19650654 -0.00067823293 0.007847861 0.04566699 -0.021966489 -0.20743959 0.09810502 -0.12126912
-0.15687084 -0.12511471 0.032253318 -0.01493631 -0.05290494 -0.035058793 0.15781751 -0.19460455
-0.11879361 0.012762414 0.09176612 0.19666772 0.06442499 0.005809522 0.026020318 0.048615634
-0.08838288 -0.07132551 0.111570485 0.11453626 0.10052143 -0.12938178 0.00032088108 -0.005249005
0.12706228 -0.16496049 -0.16845596 -0.1642571 0.13261846 0.039738648 0.17921731 0.064393304
-0.21100272 0.038598597 -0.02046163 0.09207663 -0.057092566 0.090535365 -0.103994586 0.11758952
0.12016288 -0.17067957 -0.068078 -0.14789551 -0.002905203 -0.12348797 0.032373384 0.05074613
0.10650363 -0.20111321 0.04316717 -0.15505315 -0.17808984 -0.16300355 0.14581311 0.120187424
0.05075743 0.111562304 0.11962036 -0.03727364 0.106587924 0.04110053 -0.1994256 0.034030646
-0.020030871 0.0813519 -0.0046724384 -0.055345867 -0.08227299 -0.17373434 -0.22250812 -0.006032824
-0.04182296 0.0010887472 -0.049938574 -0.1078641 0.19351457 0.0285253 -0.017483994 0.06512194
0.15144163 -0.13713957 0.17599787 0.01499206 0.13355145 0.070626915 0.0024804515 0.13796778

fc2.weight f4 [300, 400]
00000000: 7c5b 783b ea56 013d 05a0 833d aa45 e43c
00000010: 224d 853d d28f 5cbd be2c ecbc 9c0c 933d
00000020: 1634 b33b 70a9 363d bde6 7f3d 1d04 923c
00000030: 32a1 88bd 9d2f 193d 7dda 9dbb aef3 b8bd
00000040: b98f 23bd 72a3 d63c 4901 a8bc fb7e c8bc
00000050: 6b47 8bbd 16ee 00bd 1982 803b 8056 933d
00000060: 86ca c2bc e06d 24bc 901e e2bc 7584 94bc
00000070: 83d2 88bd 9859 b3bc 65b1 123d cdb0 16bc
00000080: f2bf 113d 3f46 2bbd cd62 213c 7092 5c3d
00000090: aa09 313b 9e96 013d 0d69 ca3c f7a4 8f3b
000000a0: c7fd 96bd 5611 a93c d6db 0a3d b9c5 e2bb
000000b0: 7266 04bd 65cf 34bd db67 043d cb7a a5bc
000000c0: dcf2 1e3c aa67 c53c e1cf 89bc 154d 233c
000000d0: f890 233d 37d4 e63a ec70 18bd bbe0 39bd
000000e0: f48c 6d3c bf49 acbd 1cd4 d2bc 043b 34bd
000000f0: 8262 aabc 72ef 2e3c a2c8 723d 56fc 9d3b
00000100: 995c 9f3d be68 83bd 2644 6a3c 80fc 843d
00000110: a4e6 c03c 7579 48bd d653 333c 1743 b63c
00000120: 5483 1dbd f5f4 313d 0617 833d 1998 19bd
00000130: 00a5 f3bc a765 593d b364 2a3d d29d 15bd
00000140: 6100 56bd 6e5e 043d db95 a03c 5a22 adbd
00000150: bc06 5f3d e654 213d 5d64 913d 2b7d 503c
00000160: f9ae 28bb 71e3 4fbd 220e c83b 36b8 bdbc
00000170: de85 e83c cae9 04bd d098 db3b 4b35 3a3d
00000180: adad d33c 6e79 ecbc b18c 193c d706 0bbc
00000190: ff00 83bb 0655 a33c 2753 4dbd 4f5e 2fbd
000001a0: cc1e 40bd b032 33bc fc6a 7fbb 0207 40bd
000001b0: c3e7 773d 5b78 2cbd f545 2b3d 6335 8ebc
000001c0: 9396 f7bd d08e 20bd acc3 283d 83ca 483d
000001d0: a2fa ea3c 6de0 4aba 563f 14bd cc13 5bbd
000001e0: 74e5 8f3c 0904 87bd de99 8ebd 1e46 163c
000001f0: a011 6cbc f6dc 403d 6c26 c9bc ed70 ef3c
00000200: f967 17bd 4f2c 51bd 16bd 52bd 3506 9dbd
00000210: 91f8 4dbd 175c d33c 6015 72bd 3c0f 60bd
00000220: 64d0 703d 6f08 80bc 6660 97bd 50d4 cb3c
00000230: fea4 5bbd ff1c 74bd d159 023d 97be 983d
00000240: acab 093d ddc6 283d 3b8b 9a3d 9047 303c
00000250: 58e1 02bd f1ad 83bc f880 33bd 7118 7fbd
00000260: b62b 153c 1194 59bb 625a 823c 992b 90bd
00000270: 100e 583b b8e1 16bd a181 a93b 55f3 493c
00000280: fbbf 87bc 1e31 8dbd 2dd4 36bc 50b7 80bd
00000290: 0c0f 9d3d f957 6e3c b9c2 6b3c 6c3c 31bc
000002a0: 07ef 063b 558e 62bd 4011 56bc da0d 9c3c
000002b0: bd53 f7bb 348d 563c 9274 aa3d 83c2 0d3d
000002c0: dab3 8b3c f7c7 afbd 71c4 fa3b 388b be3b
000002d0: e19f 86bc 17ff 7bbd 3276 823d 0f73 9aba
000002e0: 7930 4b3c 0d43 e23c 7eef a5bc 001f a93d
000002f0: 612a 9abb 1fb0 693d f79a b7bb f692 5f3c
00000300: 233c a33d 0db0 a5bd 0011 09bb c05f 3f3d
00000310: 0cf4 7a3d d021 2cbd 4f68 50bd 9ecb 6f3d
00000320: b3b3 c23d b359 493c 2ce1 87bc 5e9d dd3c
00000330: 222f b3bc 4cac a03d f6db 883c 6ec4 0b3d
00000340: dd5d 763d 15f6 413d 5b1f 63bd 9d1b 353d
00000350: 80d5 15bd a294 abbc 1a82 4abb 4f09 12bd
00000360: cdfe 543d 3294 8f3d f99e 88bb 0a18 78bd
00000370: 4416 2ebd 5b8c 863c c551 08bd 4049 543d
00000380: c71a 313d 9e72 373d 9b0d 81bd b904 10bd
00000390: 2542 033e a5f5 8bbd f28c a73d dbe4 80bc
000003a0: c1fe 8f3d 9923 41bc d3ea 0ebd 7966 e4bc
000003b0: ae29 9a3b 2a71 a03c 1380 3b3d 660f 213c
000003c0: a887 d8bc 5e3f 853d 7eb7 2f3d 308c a1bc
000003d0: 840a 553d 3978 b0bc e92c e5bc 6a3d 8a3d
000003e0: 2fbb dcbc e818 da3b f45d 89bc b92e c93b
000003f0: 8f40 b03d e814 47bd 384d f63b 49bb 38bd
0.0037896326 0.03157703 0.06427006 0.02786525 0.065088525 -0.053848095 -0.028829928 0.071801394
0.0054688556 0.044595182 0.06247591 0.017824227 -0.066713706 0.037398923 -0.0048173056 -0.09030853
-0.039931986 0.026200984 -0.020508425 -0.024474612 -0.06800731 -0.031477056 0.003921759 0.07194233
-0.023778211 -0.010035962 -0.027602464 -0.018129567 -0.06680777 -0.021893308 0.035813708 -0.009197426
0.035583444 -0.04181504 0.009850216 0.05385059 0.0027013817 0.03163778 0.024708295 0.004383679
-0.07372623 0.02063815 0.03390106 -0.006920543 -0.032324262 -0.0441431 0.032325607 -0.020200154
0.009701457 0.024097282 -0.016822757 0.009967108 0.039933175 0.0017610852 -0.037217066 -0.045380335
0.014498938 -0.084125035 -0.025735907 -0.044001594 -0.020798925 0.010677205 0.05927337 0.0048213406
0.077813335 -0.06416462 0.014298474 0.06493473 0.023547478 -0.048943955 0.010945281 0.022248788
-0.038455322 0.0434465 0.06400876 -0.037498567 -0.029741764 0.05307546 0.04159994 -0.036527462
-0.052246455 0.032316618 0.019602707 -0.08453818 0.05444978 0.039387606 0.07099221 0.012725155
-0.0025739057 -0.050754014 0.0061052004 -0.023159128 0.028384145 -0.03244952 0.0067015663 0.04546098
0.025839651 -0.028866496 0.009371922 -0.008485517 -0.0039979215 0.019938003 -0.05012813 -0.04281455
-0.04690437 -0.010937378 -0.003897368 -0.046881683 0.06052376 -0.042106967 0.041814763 -0.017359441
-0.12089267 -0.039198697 0.041202232 0.049021255 0.028683964 -0.00077391305 -0.036193214 -0.053485677
0.017565466 -0.065925665 -0.069629416 0.009171991 -0.014408499 0.047085725 -0.024554454 0.029228652
-0.03696439 -0.051067647 -0.051449858 -0.076671995 -0.05028588 0.025800748 -0.059102416 -0.05470203
0.058792487 -0.015629021 -0.073914334 0.024881512 -0.053624146 -0.059597965 0.031823937 0.07458227
0.033610985 0.041205276 0.07546087 0.010759249 -0.031953186 -0.016074153 -0.043824166 -0.06227917
0.00910466 -0.0033199827 0.015912239 -0.070395656 0.0032967366 -0.036836356 0.0051729237 0.012326081
-0.016571036 -0.06894134 -0.011158985 -0.06284964 0.076688856 0.0145473415 0.014389687 -0.010817628
0.0020589249 -0.05531152 -0.013065636 0.019049574 -0.007547824 0.013095189 0.08323015 0.03460933
0.017053533 -0.08583062 0.007652812 0.005814936 -0.016433658 -0.06152257 0.063702 -0.0011783558
0.0124016935 0.027619863 -0.0202558 0.08257866 -0.004704759 0.057052728 -0.00560319 0.013645878
0.079704545 -0.0809022 -0.0020914674 0.046722174 0.061267897 -0.042024434 -0.050880726 0.058543794
0.09506931 0.012289452 -0.016586863 0.027052578 -0.02187306 0.07845363 0.016706448 0.034122877
0.06014811 0.047353823 -0.055449825 0.044215787 -0.036580563 -0.020944897 -0.00309003 -0.03565341
0.05200081 0.07010688 -0.0041693416 -0.0605698 -0.042501703 0.016424349 -0.033281107 0.05182767
0.043238427 0.04478704 -0.06301423 -0.035160754 0.12818201 -0.06833962 0.0818118 -0.015734127
0.07031012 -0.011788272 -0.034891915 -0.027880894 0.0047046756 0.01958521 0.045776438 0.009830331
-0.026431873 0.06506227 0.0428996 -0.019720167 0.05201198 -0.021541702 -0.027975516 0.06749995
-0.026944725 0.006655801 -0.016768433 0.006139603 0.086060636 -0.048603922 0.0075165294 -0.045100484

fc2.bias f4 [300]
00000000: d187 83bc c972 af3d 39d2 27ba 13da ca3c
00000010: d7ed 413b fc2a 11bd a82b a3bd 0583 903c
00000020: 0bf1 abbc c87b 5e3d fe9e a63c d08e cd3c
00000030: abf5 ab3c 9e38 cfbd 2e38 3f3d 8601 693d
00000040: bab0 503c b863 853d 92d7 abbc c943 4d3c
00000050: a381 723c d784 d5bc cc9e d13d da57 2e3d
00000060: d431 ff3b aa30 07bd 88fe 833a cbb3 70bb
00000070: 69f3 aaba bf9e 033d 1254 393d e430 0e3c
00000080: a8ba dbbc 891e 233d 48d8 ac3a 4d41 1e3d
00000090: e608 4c3d 9281 ac3c a1bc b4bc 7951 193d
000000a0: d865 99bd 5be3 703d 7349 0d3d 1b67 873d
000000b0: be16 04bd c5c7 7f3b b85d 8e3c efdc 9c3c
000000c0: e30e 483d ae9c b63c 75f8 fc3c 3b1a 86bd
000000d0: 567e 7a3d 0d36 8abc 14ed bb3a 9884 09bd
000000e0: a35f 91bc 7508 ccbb a445 233d ea89 123d
000000f0: acc9 b83d d26e 14bc b954 383c 2360 f13b
00000100: abca 96bc 614e 723d 68d9 99bc 3082 7c3d
00000110: 61a6 49bd a627 0a3c 9512 613d 1b01 0abd
00000120: 7529 e13c 20af 5a3d 07a9 bcbd 2f0d 18bc
00000130: 150f 0cbd 2a47 a53c d599 03be 5e66 403b
00000140: 72e0 dfbc aee3 133a 0565 0c3d df7b 33bc
00000150: 449d 73bd d764 083d 0d06 a9bd 0d6e 223d
00000160: fbc6 153c 2d0e 12bc e902 2d3c 1fb0 dd3a
00000170: 564b f9bb 2a64 5a3d 1fb0 a5bc 282a 773c
00000180: 1d7c 743c ef8a 5c3c 81aa 473d ecc4 bb3c
00000190: a5b0 0c3c bfc4 54bc f643 cf3c 430c 8a3d
000001a0: 3303 843d d7f2 0d3d 6a0a 413d ed8b 1fbc
000001b0: 472a ad3c cfb7 edbb e702 333b a290 993c
000001c0: a514 5b3d 92cd 14bd b178 213c 6df2 93bc
000001d0: 8f03 493d abbd f03c 8d2e 47bd 2ebd 463d
000001e0: 3f6d 3fbd 85d9 9b3d e947 283d ccf9 673d
000001f0: 2d87 423d a862 4dbd 20c9 20bd c537 813d
00000200: d9a5 183c 675f 383d 740c 1c3d d521 ecbc
00000210: bf8a e9bc 50fc 2e3d dbc8 803d 9692 72bc
00000220: 7029 a73d 3108 873d 8d00 1f3d d1ac fa3c
00000230: 18bf 343c c1fd 91bc da01 d83c b81f 3e3d
00000240: 9c68 d83c bb7f efbc 9e9e 8e3c 0944 4b3b
00000250: b59e 4a3c 86ef f73c d7f3 553d c655 533c
00000260: a113 f9bd 7a2f bf3c d75a 083c d467 3b3d
00000270: 7538 523d 2fcc 973d a70e 97bc f27e c13c
00000280: e2cc 443d ccef 753d 5213 68bd 8104 eb3c
00000290: a41a 253d f840 ad3c 32b5 fd3a 6cd4 823d
000002a0: 0d7d 86bd df87 dc3a b3db 3e3d d79e d73c
000002b0: 8e42 2bbb 77ba da3c 8778 4abc 50e8 5839
000002c0: 8aa6 a73b 6176 93bc a88d 683d 2d67 f93c
000002d0: c678 c03c 6f81 8f3c 8ebf 903d f6c9 1c3d
000002e0: d2ca daba d790 9b3c f0db e83c e44c 913d
000002f0: ef98 613d b09a bbbc 8437 41bd fdc1 3a3d
00000300: 7730 903c 52d6 1ebb ca79 ec3b 7e9d 113a
00000310: 682c f53b ccbf 633c ddd0 d53c ae0a 0c3d
00000320: a9f9 e9bc 4bd0 08bd 596c 9f3c 4d5f ba3d
00000330: cbba b83d 7eb9 19bd 13aa 5cbc a9c9 013d
00000340: 5043 a03d e6d9 e43d 94cd 0a3d 7f6f 24bd
00000350: 5028 16bc 0f2a 583d 7b8f b43c db82 a43c
00000360: 214c 913d bec6 213d ebc9 4ebd 91d5 81bc
00000370: d0eb 9c3d a6dd 3b3c cb4b 833c fa00 cabc
00000380: 4e23 7d3d ac63 f2bb eefc 893d d457 153c
00000390: e366 983b 574c b53d a5ab bbbd fcb1 d73d
000003a0: 1691 8c3d b003 21ba 9c4e cabd 5e11 863d
000003b0: 97b2 8bbc e146 33bc c9b3 0d3d fad4 b9bb
000003c0: e874 0ebc f89c b03b 5321 c03b 24da 9b3c
000003d0: 913b 26bd 3ccd d73b b708 a13b 3537 143d
000003e0: 1896 933d 3345 f2bc 9a21 3e3d 9bb9 f0ba
000003f0: ce81 b13c 1598 07bd f54a 8c3c 9e9a 5f3c
-0.016055973 0.085668154 -0.000640187 0.024762189 0.0029591226 -0.035441384 -0.07967311 0.0176406
-0.020988962 0.054317266 0.020339485 0.025092512 0.020991167 -0.10118221 0.046684437 0.05688622
0.012737447 0.065131605 -0.020976815 0.012528368 0.014801416 -0.02606432 0.10235366 0.04256425
0.0077879224 -0.033005394 0.0010070363 -0.0036728259 -0.0013042513 0.032133814 0.04524619 0.008678649
-0.026822403 0.039824042 0.0013187015 0.038636494 0.049813174 0.021057878 -0.022062602 0.037431214
-0.07490128 0.058810573 0.034493875 0.06611463 -0.03224825 0.0039028984 0.017378673 0.019148318
0.048842322 0.022291508 0.030880192 -0.06547972 0.06115564 -0.016871477 0.0014337623 -0.033573717
-0.017745798 -0.006226594 0.039861336 0.035776056 0.09022841 -0.009059625 0.011250668 0.0073661967
-0.018407186 0.05915678 -0.018780425 0.061647594 -0.049230937 0.0084323045 0.05494936 -0.03369246
0.027485589 0.05338967 -0.09211927 -0.009280487 -0.03419407 0.020175535 -0.12851651 0.002935789
-0.027328704 0.0005641532 0.034276027 -0.010954826 -0.059476152 0.033299293 -0.08253107 0.039655734
0.009141679 -0.008914513 0.010559776 0.001691345 -0.0076078577 0.05331818 -0.020225583 0.015085734
0.014922169 0.013460859 0.04874659 0.022921048 0.008587037 -0.012986361 0.025300961 0.0674062
0.06445923 0.03465542 0.047129072 -0.009737951 0.021138323 -0.0072545777 0.0027314962 0.018745724
0.053486485 -0.03632886 0.009855435 -0.018059934 0.04907566 0.029387316 -0.04862838 0.04852026
-0.046735045 0.07609848 0.041084204 0.05663471 0.047492195 -0.050142914 -0.039254308 0.06309465
0.009316885 0.045012858 0.038097814 -0.028824726 -0.028508542 0.042721093 0.0628831 -0.014805457
0.081622005 0.06593359 0.038818885 0.030599983 0.011031888 -0.017821195 0.02636807 0.046416968
0.02641707 -0.029235711 0.017409619 0.0031015894 0.01236694 0.03026558 0.052234497 0.012898868
-0.12161947 0.023338068 0.008322439 0.045753315 0.051323373 0.07411992 -0.018439604 0.023620103
0.048046954 0.06004314 -0.05665905 0.028688671 0.04030861 0.021149144 0.0019356369 0.063881725
-0.0656682 0.0016825161 0.04659624 0.026320858 -0.00261322 0.026700241 -0.0123578375 0.00020685908
0.0051162886 -0.018000783 0.05677572 0.030444706 0.02349509 0.017517773 0.07067786 0.038278542
-0.0016692525 0.018989963 0.028425187 0.07094744 0.05507749 -0.02290091 -0.047172084 0.045595158
0.017601235 -0.0024236632 0.007216667 0.0005554779 0.0074821003 0.013900708 0.02610057 0.034189872
-0.02856143 -0.03340177 0.019460844 0.091002084 0.09020003 -0.037530415 -0.013468283 0.03168646
0.07825339 0.11174373 0.03388746 -0.040145393 -0.009164885 0.052774485 0.022041073 0.020081928
0.070945986 0.039496176 -0.050485533 -0.015848907 0.07662165 0.011466419 0.016027352 -0.024658669
0.061801247 -0.0073971357 0.06737696 0.009115178 0.004650937 0.08852451 -0.09163598 0.10531995
0.068636104 -0.0006142212 -0.09878275 0.06546281 -0.017052932 -0.010942192 0.034595285 -0.0056711407
-0.008694865 0.005389806 0.0058633476 0.019024916 -0.04058415 0.006585745 0.004914369 0.036185462
0.072063625 -0.029574012 0.046418764 -0.0018365862 0.021668341 -0.03310402 0.017125586 0.013647703

fc3.weight f4 [2, 300]
00000000: 76dc 4cbd 3359 86bd 3e3f a2bd 486f 483d
00000010: 487d cfbd 16c1 61bd c3ec b63c 9b9f 01bd
00000020: b42b 193d 2da3 b63d 9c8c 9a3c b0e0 183e
00000030: 08fe ddbd ea43 9c3d 0b5f 663d 47a4 0ebe
00000040: df24 cf3d 18af 03be dc4a b4bd 19eb 03be
00000050: 8814 a5bd eeac 9fbd 7401 f13d 6d3a 79bd
00000060: 2b66 7cbd 0367 943c 7793 31bd 4139 923d
00000070: 1a72 fbbd dcd2 e03d ae23 013d 66d6 f6bd
00000080: 161d ffbd 2f2f 0b3e b7c7 4ebd 618f 4abd
00000090: 8cbf eb3d 5c67 e43d 271a 0ebd 3012 22bd
000000a0: 9eec 8ebd 2475 4e3d 8ce8 bb3c 2907 2bbd
000000b0: 3693 a2bd e591 c0bd dddf 7c3d cca8 aabd
000000c0: 523f 873c b69c 643d 82e6 ae3d 2a8d 55bd
000000d0: 08f5 a13d 5230 d13d d62c 14bd 5411 78bd
000000e0: 1e3a 00be 70c1 113d fa33 0ebd 06af dfbd
000000f0: 4cf3 9f3d d713 ffbc 8600 1ebd af5c 9f3d
00000100: b86b 20bd afe5 88bd 0304 a3bd 80b3 a53d
00000110: cbd7 6ebd 85cb 2ebd a04c 22be 0421 46bd
00000120: 12fc 00be 42aa f0bd 9f4b 3f3d 9c69 8dbd
00000130: 8b50 bcbd 2688 0fbd b7b6 943d ca35 5e3d
00000140: 1a05 a43d 5b8b a4bd b9d7 053e 475e 08be
00000150: e416 7e3d 2314 fd3c 3dc7 693d 9489 dabd
00000160: 38f9 b5bd d4de 84bd 731c 5d3d df0a 4ebd
00000170: 86ad d1bd 2c23 21bd d4cd bc3d 3953 59bd
00000180: 7a10 03bd 74d5 b1bd b766 e73d 0574 bfbd
00000190: 8355 ddbc 2803 c03b e827 62bd effa b0bd
000001a0: 05e8 01be 9d3c d4bc 7b3a d83d 8127 54bd
000001b0: 6d09 093d 4938 2bbd bab1 0dbe 677b 4fbd
000001c0: 9de9 14be 2ea6 843d 0009 d0bd 8316 bbbd
000001d0: 8a7d 81bd 14a7 dfbd 0fb3 cf3c 8b78 283d
000001e0: b085 f1bc 026a efbd 72a2 fa3d 8475 b83d
000001f0: 93ef ac3d eb41 593c a7ca 903d 3694 abbd
00000200: c31d 393d 51d7 8e3d b800 9c3d 66bd 883d
00000210: 1e35 cfbc 39ae cdbc 81ee f03d 50a4 ebbd
00000220: be4e 023e 6320 9c3d ece9 edbd 53a6 2a3d
00000230: 8621 bcbd 9237 093d 0f71 e6bd 9723 8f3d
00000240: a3e0 9bbd 7df6 b83c dc05 73bc ab07 bfbb
00000250: 5c27 013d b49c 333d e9a9 babd adf0 613c
00000260: f0f7 ae3c a3d5 19bd 5c70 d83d cf34 5f3d
00000270: edce e6bd e5e6 95bd 499e aebd 86f2 f2bd
00000280: 61f0 34bd 5d35 20be 5005 59bc 1ba0 62bd
00000290: 5917 debd 3101 38bc 42b2 b53d 37cc a63d
000002a0: 6a8a 8fbd bdfb d03c b32a 73bd a34c f8bd
000002b0: d56e 893d 75a3 073e 36db babd fd8b 613d
000002c0: 4ede d3bd 6d90 45bd d5ff 873d 02b1 403d
000002d0: 3678 bdbd b1fa e53c fb76 e1bd 9bb1 e9bd
000002e0: 283e 39bd 502a d53c 5fb1 b6bc 9f6d 52bd
000002f0: e5f3 d0bd 7121 713d 775a 1dbd 8f9e d2bd
00000300: 2166 8e3c d08b 17bd 74a6 b33d a239 be3c
00000310: 6d7b 12be 3524 553d 82a6 e7bd 763f d8bd
00000320: e222 74bd 09f8 0b3d 0f57 a63c acb7 dfbd
00000330: 0c7b eb3d 0c92 943d 04ca a5bd 4c7a 19bd
00000340: 52d2 bdbd 9634 debd 81a3 8f3d 2134 96bd
00000350: 6e13 f9bd 9102 07be dfe1 8d3c 6db0 1abe
00000360: 69e1 aebd 5569 bbbd df73 843d d9b4 c1bd
00000370: a8c3 b3bd 7bef 34bd 432d fabd 6c19 c33c
00000380: 2f7b 7c3d f60a 103d 7111 a9bd 457c b33d
00000390: 412f 083d 517f 65bd 01c4 c73d d65e 003e
000003a0: 264b 763d 67a0 fb3c ab35 3b3c 145e 853d
000003b0: ac57 ba3d a9cb 61bd 91fc ea3c 3173 f6bd
000003c0: 63ac e3bd 480c 973d d904 0dbe a7c5 f83d
000003d0: ee30 96bd ea86 323d 6e44 503d 209a a23d
000003e0: 9b94 423d 663a 093d 0293 e2bd 1ddc 7cbd
000003f0: 922a ab3c 5dd9 fbbd a217 8b3c 6ff3 cabd
-0.050014935 -0.06559982 -0.07922219 0.04893425 -0.101313174 -0.05511578 0.022329694 -0.031646352
0.037395194 0.08917842 0.018865876 0.14929461 -0.10839468 0.07630141 0.056242984 -0.13929854
0.101144545 -0.12859762 -0.08803341 -0.12882651 -0.08060557 -0.077966556 0.11767855 -0.060846735
-0.061620872 0.018115526 -0.043353524 0.071398266 -0.122776225 0.10977718 0.031528167 -0.12052612
-0.124567196 0.13592218 -0.05048343 -0.049453143 0.11511144 0.11152527 -0.03469291 -0.039568126
-0.06978725 0.050404683 0.022938035 -0.041754875 -0.079382345 -0.09402827 0.06173693 -0.08332977
0.016509686 0.055813514 0.085400596 -0.052136578 0.07908064 0.102142945 -0.03617557 -0.0605634
-0.1252217 0.035584867 -0.034717537 -0.10922055 0.07810077 -0.03113739 -0.038574718 0.0778135
-0.03916523 -0.06684434 -0.079597495 0.080908775 -0.058311265 -0.04267456 -0.15849543 -0.04837133
-0.12596157 -0.11751224 0.046702977 -0.06904909 -0.0919505 -0.03504195 0.072614126 0.054250516
0.080087855 -0.080343924 0.13070573 -0.13317214 0.06203355 0.030893391 0.057074774 -0.10670772
-0.08885425 -0.064878136 0.05398221 -0.050303336 -0.10238175 -0.039340183 0.09218946 -0.053057883
-0.031998135 -0.08683291 0.11298888 -0.09348301 -0.027018314 0.0058597513 -0.05521384 -0.08641612
-0.12686165 -0.025907809 0.10558029 -0.051795486 0.033456255 -0.041801725 -0.13837329 -0.050654795
-0.14542241 0.06477009 -0.101579666 -0.09135153 -0.06322773 -0.109205395 0.025353936 0.041130584
-0.029482692 -0.11690141 0.12238015 0.09006789 0.08444133 0.013260345 0.07069903 -0.08377878
0.0451944 0.06974662 0.076173246 0.0667675 -0.025293883 -0.02510749 0.11764241 -0.115059495
0.1272535 0.07623365 -0.11616883 0.041662525 -0.091860816 0.03350026 -0.11252033 0.0698921
-0.076112054 0.022578472 -0.01483294 -0.0058297715 0.031531677 0.043850616 -0.09114439 0.013790292
0.02135846 -0.037557255 0.10568306 0.05449372 -0.11269937 -0.0731943 -0.08526284 -0.11862664
-0.044174556 -0.15645356 -0.0132458955 -0.05532847 -0.10844297 -0.011230753 0.088718906 0.0814442
-0.07008822 0.025510663 -0.059366893 -0.12123992 0.06710593 0.13245948 -0.091238424 0.055065144
-0.10345136 -0.04823344 0.06640593 0.047043808 -0.09251444 0.02807364 -0.11009022 -0.11410829
-0.045225292 0.026021153 -0.022301374 -0.051374074 -0.10202769 0.058869783 -0.038416352 -0.10284149
0.017382683 -0.03699857 0.08771983 0.02322084 -0.14304896 0.052036483 -0.11311056 -0.10558979
-0.05960358 0.03417209 0.020305185 -0.109237045 0.11498079 0.07254419 -0.08095172 -0.037470147
-0.09268631 -0.10849874 0.07013608 -0.073341615 -0.12161909 -0.13184573 0.017319618 -0.15106364
-0.08539087 -0.0915095 0.06467413 -0.09458322 -0.08777553 -0.0441737 -0.12215664 0.023815833
0.061640915 0.035166703 -0.0825528 0.08763937 0.03324819 -0.05602962 0.09754182 0.12536177
0.06013026 0.030716134 0.01142637 0.065120846 0.09098753 -0.055125866 0.028684886 -0.1203369
-0.111168645 0.07375389 -0.1377138 0.12147074 -0.07333551 0.043585695 0.05084651 0.07939553
0.047505002 0.03350296 -0.11063196 -0.061733354 0.020894323 -0.12297318 0.016979042 -0.099097125

fc3.bias f4 [2]
00000000: 7d28 3fbc 1549 023f
-0.011667368 0.50892764
