checkpoint_critic1.pth (torch, 747231 bytes, 5 tensors)

fc1.weight f4 [480, 24]
000000 8d 39 0f 3c bd fb 00 3e b0 e2 5e bc b6 14 22 bc
       0.0087417485 0.1259603 -0.013603851 -0.009892633
000010 9b 44 07 bd 67 8b 60 3c eb b2 ad 3c ac e7 b7 3c
       -0.03302441 0.013705111 0.021203479 0.022449337
000020 ce 32 ad 3c 7b cd f5 3d 15 c4 39 bc 06 44 99 bc
       0.02114239 0.12002083 -0.0113382535 -0.018709194
000030 63 4a b4 3c b2 18 b4 bb 91 e3 0d 3b 9a 47 fb 3c
       0.022008127 -0.005496108 0.0021650533 0.03067379
000040 6b 52 47 bb 03 11 21 3e a9 7c a4 3c a8 f0 17 3c
       -0.0030414115 0.15729146 0.020078974 0.0092736855
000050 64 5f 7a 3c 79 27 25 be ed 0b f4 bc 5f 07 01 bd
       0.015281532 -0.16128339 -0.029790843 -0.03150117
000060 ef 58 7e bd 10 31 8f bd 7b ac 26 bd cd 80 ab bc
       -0.062096532 -0.0699178 -0.040691834 -0.02093544
000070 11 14 ac bd 72 17 6c bd bb 42 b3 3c 41 33 51 3d
       -0.08402265 -0.057639547 0.021882406 0.05107427
000080 e5 df 30 3d 59 7a b5 3c 01 9a 29 3c 79 7b c4 bb
       0.043182272 0.022153066 0.010351659 -0.0059961644
000090 c0 d5 2e 3d da f0 ea 3c 54 af f2 3c 20 25 08 3d
       0.042684317 0.0286793 0.029624619 0.03323853
0000a0 45 37 d4 3d af 5b 29 3d 31 9b 86 bc da d8 e4 bc
       0.10362104 0.041347202 -0.016431423 -0.027935434
0000b0 69 25 a4 3d 05 5d b5 3d f1 1a 80 39 98 2d 0b 3c
       0.08014948 0.08855633 0.00024434135 0.008494757
0000c0 aa 0d 05 3d ae 84 ab 3c 66 d6 4c bc 13 7e 3d 3c
       0.032483734 0.02093729 -0.012502288 0.011565703
0000d0 0d 79 26 bd 85 15 7f bd e4 c2 31 3c bd 4e d7 bb
       -0.040642787 -0.062276382 0.010849688 -0.0065706656
0000e0 c7 0a 69 3d c0 3d 8b 3c 6a 69 a0 3c fd c1 86 3c
       0.056895044 0.016997218 0.019581515 0.016449923
0000f0 8f 1a 9c bc 13 e2 fa bd f9 37 24 bc 0a fa 31 bc
       -0.019055633 -0.122501515 -0.010023111 -0.010862837
000100 d1 90 59 3d 78 f1 a0 3d c0 cb 9f bc ba b6 4d bc
       0.053116623 0.078585565 -0.019506335 -0.012555772
000110 7e be ec 3b c4 63 57 bd 6d df 75 3b 84 8e 58 bc
       0.007224857 -0.05258538 0.0037517205 -0.013217572
000120 47 ab d1 bc af eb be 3d 9e 88 4c bc 76 4f d5 ba
       -0.025594367 0.09322297 -0.012483744 -0.0016274292
000130 a0 df 98 bd e1 c2 3c 3d f6 93 96 3b d6 0a 84 bc
       -0.07464528 0.04608429 0.004595275 -0.016118448
000140 ee e8 fb bc 5d 72 ab 3d b5 00 99 3c e7 41 53 bc
       -0.030750718 0.083714224 0.018677095 -0.01289413
000150 4e 9c 66 3d 1d 5c 71 bd 85 02 86 bc 5b 2b ef 3c
       0.056301408 -0.058925737 -0.016358623 0.029195478
000160 43 51 2d bd f0 9e b6 3d 83 17 07 bc 8f a0 8f 3d
       -0.042313825 0.08917034 -0.008245352 0.07013046
000170 d2 2a b9 3d fb df 2e be e8 ff 35 3a 18 b7 24 3d
       0.090413705 -0.1707763 0.0006942735 0.040213674
000180 08 b3 11 bc b1 6b e7 3d 8a 27 0f bd a0 c8 34 bc
       -0.008892782 0.112998374 -0.034949817 -0.011034161
000190 26 68 7b 3d 47 88 46 3d 56 8c df 3c b2 a2 df 3c
       0.06137862 0.048469808 0.027288597 0.027299259
0001a0 9b 2a a4 bc e9 dd 2c 3e c4 44 14 ba 92 db 78 3d
       -0.020039847 0.16881527 -0.0005655999 0.060756274
0001b0 a6 17 16 bc f5 5e 78 bd b5 43 31 3b 81 55 76 3d
       -0.009160912 -0.060637433 0.0027048413 0.060140137
0001c0 99 46 3e 3d 2c 81 17 3e 6c 5f d7 3c ed 16 ab bc
       0.046454046 0.14795369 0.026290618 -0.020884955
0001d0 9b 2e 93 bd c6 96 b0 bd a6 42 82 bc cb 6d e2 3c
       -0.07186624 -0.08622508 -0.015900921 0.027640244
0001e0 bf 6e 56 3d c5 4d c0 bd 02 06 88 bb 80 8a 02 bd
       0.05235171 -0.09389833 -0.004151107 -0.031870365
0001f0 c2 5e 84 3d 40 29 88 bc 70 e0 eb bb a1 5b 91 bb
       0.06463386 -0.016621232 -0.007198386 -0.004435972
000200 08 95 bb bc f2 b4 e4 bd fc 1a 06 3a b8 8a d5 bc
       -0.022898212 -0.11167325 0.00051157153 -0.026067123
000210 1f 7d dd bc 34 48 4e bb f2 e0 af bc e1 ff 67 bd
       -0.027037201 -0.0031476142 -0.021469567 -0.05664051
000220 27 1a 2e 3d b6 fd 6a bd 7d 09 1b bd 5f 7f a4 bd
       0.04250541 -0.057370864 -0.037850846 -0.080321066
000230 df 22 da bd 6f 95 fb 3c 4f 94 22 3d 91 37 a7 bd
       -0.106511824 0.030710904 0.03969222 -0.08164895
000240 19 b2 ce 3c db 64 3c 3c 8c 15 34 3d b0 13 f4 bb
       0.025231408 0.011498655 0.04396586 -0.007448636
000250 d0 e0 d5 3d 1f 0e 40 bd 1e bb 1f bd 8f 17 3a 3c
       0.1044327 -0.046888467 -0.03899681 0.011358156
000260 f0 29 c7 bb dd 83 9f bc 17 aa a1 bc ad 93 ef bc
       -0.0060779974 -0.019472057 -0.019734425 -0.029245222
000270 6a 51 32 3d e0 0b e6 3c 71 d3 ce 3c bc c5 5e 3c
       0.043534674 0.028081834 0.025247307 0.013596948
000280 cd 0c ce bc 45 4b 61 bd a3 fd 3a 3c 45 d9 35 bc
       -0.025152588 -0.055003423 0.011413011 -0.011099164
000290 cc b3 23 be 26 a1 8e 3d d2 fe 91 bc 78 87 fa bb
       -0.15986556 0.069643304 -0.017821703 -0.0076455437
0002a0 9f de 5f bc 06 ef 1a 3e 52 40 f3 bc 52 26 b6 3c
       -0.013663917 0.15130243 -0.029693756 0.02223507
0002b0 22 6a 5a 3d 35 42 0d be df 14 57 3c 90 1f 47 bd
       0.053323872 -0.13794787 0.013127535 -0.048614085
0002c0 ab e6 66 3d 19 a8 ad 3d 76 3f 42 bc bc 90 ff bb
       0.056372326 0.08479328 -0.011855951 -0.007799236
0002d0 73 60 f8 3c 48 85 e3 bd 6b 54 a9 3b 98 43 cf 3c
       0.030319428 -0.11109406 0.005167534 0.025300786
0002e0 76 00 07 3d 33 7f b4 3d 32 cf 4e bc 5d 7b 36 3b
       0.032959424 0.08813324 -0.012622641 0.0027844526
0002f0 a1 3a 9b 3c dd d9 40 bd 90 18 c5 3a a7 b4 ae bc
       0.018948855 -0.04708277 0.0015037227 -0.021326376
000300 ea 74 a2 bc 5e 79 3b bd 00 92 23 3d 0e ad ee bc
       -0.01983114 -0.04577004 0.03993416 -0.029135253
000310 34 ee e0 3d 01 cc a8 3c d5 bc f8 bc d6 44 a1 bc
       0.10982934 0.02060509 -0.03036348 -0.019686144
000320 7b 49 cc bc 50 e1 3a 3d e2 fe 50 bc 69 40 7b 3c
       -0.024937382 0.04562503 -0.012756081 0.015335181
000330 03 d8 2c 3d c6 5d 85 bd 7b 75 81 3c 5f 0e 2c bd
       0.042198192 -0.065120265 0.01580309 -0.042005893
000340 9e b2 a0 bb 6d 66 87 3d 22 ae b1 3c 2c a2 b0 bc
       -0.0049041053 0.06611333 0.021689478 -0.021561705
000350 53 af dd bd e4 b2 e4 bc 8a ea aa bc 26 a0 7c 3c
       -0.10824456 -0.027917333 -0.02086379 0.015419042
000360 bd 1e 75 3d c2 6e a8 3c 1c 70 c9 bc 4a 21 16 bd
       0.059843767 0.020560626 -0.02458959 -0.03665284
000370 33 f5 ab 3d 33 3d ff bc 6a d9 d7 bc ee 7a 14 bd
       0.083963774 -0.031157112 -0.026348788 -0.036250047
000380 fa a9 ae 3c 59 65 36 bc 9f c8 2f 3c b5 60 67 bb
       0.021321286 -0.011132562 0.010728984 -0.0035305445
000390 35 cd 48 3d f9 ca 52 3d 57 1e 68 bc a8 e3 6e bd
       0.049023826 0.0514631 -0.01416739 -0.05832258
0003a0 8f e1 69 3d 7a f1 85 3c 64 1c a0 3c f3 5f b6 bc
       0.057099875 0.016350497 0.019544788 -0.022262549
0003b0 f9 59 d2 bb 83 17 c4 3c a4 4c 9a bb 87 e5 de bc
       -0.006419417 0.023936993 -0.0047088433 -0.027209057
0003c0 ab d6 d7 bc 06 54 e6 3d b2 2c e8 ba c4 66 ad 3a
       -0.026347479 0.11246495 -0.0017713516 0.0013229479
0003d0 92 88 91 bc 6d f6 95 3c 75 42 6f bb f9 68 62 bd
       -0.017765317 0.018305982 -0.0036508117 -0.05527589
0003e0 cb 6a de 3b b7 44 f4 3d 02 ac 97 bb 51 66 f6 bb
       0.006787633 0.11927169 -0.004628659 -0.0075195213
0003f0 fa e4 fa 3c 5b 56 01 3c b1 75 08 bc 0f 4f ed 3c
       0.030626763 0.007894124 -0.008328841 0.028968362

fc1.bias f4 [480]
000000 72 ec 6c 3e c0 0b 26 be 86 6d c7 3d 01 ce 17 3e
       0.23137072 -0.1621542 0.09737687 0.14824678
000010 81 52 db bd 48 72 42 3d e2 dc 31 be 8a 01 1e be
       -0.10709096 0.04747227 -0.17369416 -0.15430275
000020 76 44 16 b8 bf 32 2d bd 2a ae d8 3d ba 18 0d 3d
       -3.5826546e-05 -0.042284723 0.10580094 0.03444741
000030 8f e0 fb 3c 86 78 80 3e 99 96 be 3d f1 97 1a be
       0.030746726 0.25091952 0.09306068 -0.15097024
000040 30 21 14 be 92 e6 1a 3e 9b 64 07 3e af cb ef bd
       -0.14465785 0.15127018 0.13221972 -0.117087714
000050 63 56 f5 3d 17 ee 32 be 90 2f 93 3d f8 c1 f1 bd
       0.119793676 -0.17473637 0.07186806 -0.11804575
000060 5f 3a bf bd c5 ba 19 be 44 8f d8 bc ca 2e d8 bd
       -0.09337305 -0.15012653 -0.026435502 -0.10555799
000070 57 d0 54 3d 97 f1 85 bc 5e bb 0a be d7 58 15 be
       0.0519565 -0.01635055 -0.13548037 -0.14584671
000080 dd ec 04 be 47 67 0e 3e c1 18 f9 3d 09 c2 1a be
       -0.12980981 0.13906585 0.121629246 -0.15113081
000090 bb 50 36 bd 35 f9 57 3e ce 30 e2 bd 17 2e 32 bd
       -0.044510584 0.21091159 -0.11044465 -0.043500986
0000a0 12 8b 3d be 03 5a 00 bd 60 c1 61 be 2d 81 51 be
       -0.18510082 -0.031335842 -0.22046423 -0.20459433
0000b0 fa be 99 3d 3a d3 4e be 31 d6 03 bc cd d6 8d 3c
       0.07507129 -0.20197764 -0.008046673 0.017314339
0000c0 2e e6 18 3e 5f 4f 97 3b 99 d2 55 be d2 67 67 3d
       0.14931557 0.004617616 -0.20881118 0.056495495
0000d0 0a ae 6a bd 12 f8 e2 bc 16 b6 78 3d f5 9b 70 3d
       -0.057294883 -0.02770618 0.060720526 0.058742482
0000e0 8a 1f 5b be 43 93 b1 bd eb 76 fa 3c d3 e9 68 3d
       -0.2139875 -0.08670666 0.030574283 0.056863617
0000f0 36 e3 1e be 84 70 ea bd b6 3c 2e be 70 1d 85 be
       -0.15516362 -0.11447242 -0.17015347 -0.25999022
000100 af 00 3e bd c7 ea eb bd 99 a0 02 be d6 c5 a4 3c
       -0.04638737 -0.115193896 -0.12756576 0.020113867
000110 25 88 39 3e 65 af 4c 3c ef 0f bf bd 00 de 81 be
       0.18118341 0.012492989 -0.09329211 -0.25364685
000120 3f 69 52 3d 3c f9 a4 bc 25 2b 08 be 80 f8 4c 3e
       0.0513699 -0.020138375 -0.13297708 0.2001667
000130 0c a7 35 be 1e ba 0a 3e 58 d9 d6 bd 28 a5 25 3e
       -0.17739505 0.1354756 -0.10490674 0.16176283
000140 cc a2 50 bd be 1f 81 3d 2c 60 34 3e 25 56 94 be
       -0.050936505 0.063048825 0.17614812 -0.28971973
000150 fe 09 4a be ec ed 87 bc 16 32 53 3e 7c c4 ad bc
       -0.19730374 -0.016592942 0.20624575 -0.021211855
000160 7f 95 20 3e 6a 04 30 be 12 55 1c 3e 09 05 5f be
       0.15682028 -0.17189184 0.15266827 -0.21779265
000170 97 be d2 bd b3 bd 97 3d d2 34 2a 3e 72 37 31 be
       -0.102902584 0.07409229 0.16621712 -0.17306307
000180 c2 c2 b7 bd 65 95 dd bd 9d dd 1c be a8 12 32 3e
       -0.08972694 -0.1081951 -0.15318914 0.1738993
000190 91 9a f4 3d c7 30 d4 bd 92 3c 22 3d 91 92 e2 bd
       0.11943544 -0.10360866 0.039608546 -0.110631116
0001a0 6f 75 13 be c6 76 0b bd aa 7e 41 be 6d 6e fd 3d
       -0.14400266 -0.034048818 -0.18895975 0.12374578
0001b0 78 95 38 bd 0f 9f 71 be 94 de 7d 3d cf db 01 3d
       -0.04506442 -0.23595832 0.061979845 0.031703766
0001c0 9e 5c 77 be 64 e4 1d 3e 30 e8 b7 bd 94 c3 76 be
       -0.24156424 0.15419155 -0.08979833 -0.24098045
0001d0 e1 34 fa bd d4 8a 61 be 58 02 86 3d a4 f6 97 3c
       -0.12217117 -0.22025615 0.06543416 0.018550225
0001e0 27 e6 48 be b8 dc 67 be 0d de 5c be df ee 19 be
       -0.19619046 -0.22642791 -0.2156908 -0.15032528
0001f0 44 cb 40 be 20 a2 18 be 4e 02 8b bb ac 9b c9 3d
       -0.1882754 -0.14905596 -0.004242218 0.09844145
000200 93 8f 39 be b2 5b f9 bd b0 d0 29 3c b7 15 13 be
       -0.18121175 -0.121756926 0.010364696 -0.14363752
000210 0f b0 27 3e 6f 0b e5 3d 22 01 b8 bd d3 45 71 be
       0.16375755 0.111838214 -0.08984591 -0.23561792
000220 38 1c 97 3e 62 8e 6a 3d f6 09 e9 bd a2 d5 60 3d
       0.29513717 0.057264693 -0.11378853 0.054891236
000230 4a 41 72 be 96 dd 29 be c1 65 db bd 32 13 31 3e
       -0.23657718 -0.16588435 -0.107127674 0.17292479
000240 41 c0 6c bd 34 28 fd 3c 3c 67 37 3e c6 85 20 3e
       -0.057800535 0.03090296 0.17910475 0.1567603
000250 d0 6b 59 3e b9 ff 60 be 70 f4 bf 3d c4 38 2e be
       0.21232533 -0.2197255 0.09372795 -0.17013842
000260 bb d8 e6 3c 10 4f 89 3d 06 39 df bd 52 c9 04 3e
       0.028179517 0.06704533 -0.10899548 0.12967423
000270 04 1a ac 3d 67 31 ee 3d bc 2c a4 bd c9 75 c6 bd
       0.084033996 0.116305165 -0.08016345 -0.096904345
000280 9c 66 e0 bc 87 38 51 be 99 2c 81 be ca 8f 66 bc
       -0.027392678 -0.2043172 -0.25229338 -0.014072368
000290 36 b2 ad 3d 21 d7 de 3d 31 d8 69 3d dd e7 21 3e
       0.08481257 0.10880876 0.05709094 0.15811105
0002a0 d6 d2 bb 3d 5d 41 34 be 9e ac cd bd 74 ea 13 3e
       0.09171073 -0.17603059 -0.1004269 0.14444906
0002b0 67 ae 07 be 7d 05 98 be e3 4f 0e bd 3e 6c 62 bc
       -0.13250123 -0.29691687 -0.034744155 -0.013819752
0002c0 66 a5 e7 bd 91 7a 72 be b5 c8 6a 3e c9 7a ff bd
       -0.11310844 -0.23679568 0.22928126 -0.12474591
0002d0 79 c1 c9 3d 0c f3 20 be 84 d2 16 bd a4 18 8b bd
       0.09851355 -0.15717715 -0.036821857 -0.06791809
0002e0 fb dc 06 bd f5 94 74 3e 96 96 fb bd 8d f3 65 be
       -0.032925587 0.23884948 -0.12284581 -0.22456188
0002f0 2a 13 f5 3c 25 6c 85 bd cf 5d 94 3d de 6f 20 be
       0.029916365 -0.065147676 0.07244455 -0.15667674
000300 9e 26 81 be f7 cf 53 bd 97 79 49 be f2 58 92 be
       -0.25224775 -0.051712003 -0.19675289 -0.28583485
000310 34 6a 2d 3e 20 38 ce bd b5 02 71 bd af d3 a5 bc
       0.16935045 -0.10069299 -0.058840472 -0.02024254
000320 2b ad 77 be 42 ec 4d 3e 8d f3 be 3c fa a9 5d bd
       -0.24187152 0.20109656 0.023309493 -0.05411718
000330 94 0f ba bc 32 ad ee 3c af 5f 0d 3e 7d 33 12 be
       -0.022712506 0.02913532 0.13806032 -0.14277454
000340 b6 b1 55 bc 2e 92 83 be 88 64 dd 3d ef f8 a6 3c
       -0.013042858 -0.25697464 0.108101904 0.020382373
000350 87 99 f9 bc 38 d0 f3 bd 3a 7b 27 ba 07 6b f4 bd
       -0.030468715 -0.11904949 -0.00063889066 -0.11934476
000360 31 92 10 3e ee 90 ff bd cf fe 97 3d 16 d2 39 be
       0.14118268 -0.12478815 0.07421648 -0.18146548
000370 f9 4a 2e 3e 04 19 36 bd 1c 4f 04 be d2 1a 14 3e
       0.17020787 -0.04445745 -0.12920803 0.14463356
000380 81 a7 36 be 76 5b 1c be 29 87 75 be a7 5f 46 3d
       -0.17837335 -0.15269265 -0.23977341 0.048431065
000390 89 03 57 be 8a cb 9b bc 81 f7 1d be ba 2b 63 be
       -0.20997442 -0.019017953 -0.15426446 -0.22184649
0003a0 2b ca 81 be 20 5f 1d 3e 00 9d 63 be 60 8d 21 3d
       -0.25349554 0.15368319 -0.2222786 0.039441466
0003b0 f0 1d 13 3d 20 bb 8e bc 3c b0 2c be 8e a1 74 be
       0.035917222 -0.017423213 -0.16864103 -0.23889753
0003c0 68 b2 68 be 61 26 97 3d fb 31 75 3d 91 e4 86 3d
       -0.22724307 0.07380367 0.05986212 0.06586564
0003d0 a6 3e 8d 3c fa bf 5b be 37 c0 76 3d 38 d6 0e 3d
       0.017241787 -0.21459952 0.060241904 0.034872264
0003e0 fe b7 05 be 36 9e b8 3d f6 e8 ed bc c8 0a 81 3e
       -0.13058469 0.09014551 -0.029041748 0.25203538
0003f0 16 fa b2 bd 45 ba 86 be c5 ef 35 3d cf 3e 4c bd
       -0.08739106 -0.26313987 0.044418115 -0.049864586

fc2.weight f4 [360, 482]
000000 f1 bd 0a bc 21 bc 01 3c a2 85 0a 3c 90 3a a2 3d
       -0.008468137 0.007918389 0.008454712 0.07921326
000010 d5 ae 1a bd 32 7a ad 3a 91 d1 35 3d 9a 85 db ba
       -0.03776439 0.001323527 0.04438931 -0.001674819
000020 e0 1a 9b bc bb 9c 14 3d 12 80 ab 3b 8d 59 f3 bb
       -0.018933713 0.036282282 0.005233773 -0.007426447
000030 7b 2a aa 3c 15 13 37 3d f6 67 62 bd 0e ce 29 3b
       0.02077221 0.044695932 -0.055274926 0.0025910172
000040 e2 29 f0 3c 19 a9 d3 3c 52 ee 45 3d fe 4b 58 bc
       0.029316846 0.025837468 0.048322983 -0.013201712
000050 4f 1d d0 bd 89 7f 12 3c 90 c6 e6 3d 2e 24 e8 bb
       -0.1016184 0.00894154 0.112683415 -0.007084391
000060 25 44 9b bd 7e 26 a5 bd a2 f9 5b 3d b1 83 c9 bd
       -0.07581357 -0.080639824 0.053704865 -0.09839571
000070 11 58 63 bc b1 2f 15 bc 25 f8 9f 3b 56 39 80 3d
       -0.013875977 -0.009105609 0.004881876 0.06260936
000080 b3 26 61 bd 41 2a ea 3c 2c 0e 49 bd b3 a5 55 3d
       -0.054968547 0.028584601 -0.04908578 0.052159976
000090 49 eb 83 bd 99 78 fe 3c 8e eb 8d bc 58 0f 09 3d
       -0.064413615 0.031063365 -0.017324235 0.0334619
0000a0 c7 a0 1b 3d c2 9e b9 bc 82 09 c3 3c c3 d1 2f 3d
       0.037995126 -0.02265871 0.023808245 0.042924654
0000b0 c6 1b 9b bb bc b0 ac 3c bf 2c f5 bc e5 8e db bc
       -0.0047335355 0.021080367 -0.029928563 -0.026801536
0000c0 08 54 d8 3c 84 a4 39 3d 0e d3 ac bd cd 93 bf 3c
       0.026407257 0.04532291 -0.08438693 0.023385907
0000d0 3e 1f d2 3b df fe 50 bd 00 29 3f 3c 50 8d 7a 3d
       0.0064124158 -0.051024314 0.01166749 0.061169922
0000e0 0c f8 6d 3c ba 1e 80 3d be 37 a2 bc c5 3c 50 bb
       0.014524471 0.062558606 -0.01980197 -0.0031774503
0000f0 e9 eb 83 3d 4e 31 27 be 99 9e 87 3b ed ba b1 bb
       0.06441481 -0.16327402 0.0041387794 -0.0054238946
000100 41 21 77 bd 7a e6 41 bd 88 6f 9b bd a3 5b 9a 3c
       -0.060334448 -0.04733894 -0.07589632 0.018842524
000110 d4 d1 eb bc 0b a5 60 3c c9 b0 6a 3c bc 38 e9 3c
       -0.028786577 0.013711224 0.014324375 0.028469436
000120 0a 20 2a bd 9c f6 da 3d d1 28 60 3d d6 de d7 3c
       -0.04153446 0.10691568 0.054726426 0.026351374
000130 c8 86 01 bd 14 c6 0d 3d d6 94 47 be b3 de ce 3c
       -0.031622678 0.03461273 -0.1949037 0.025252676
000140 d5 4e 78 bc 78 b4 0a 3b fd f9 20 3d 0b b4 73 3d
       -0.015155514 0.0021164697 0.039300907 0.059497874
000150 20 dd 2e bc 70 e7 c3 bb 3f 20 1a 3d 66 b8 37 3d
       -0.0106728375 -0.0059785172 0.03762841 0.04485359
000160 e6 84 d6 bc 46 74 49 bd 7f 5d d3 bd 34 68 6a 3d
       -0.026186418 -0.049183153 -0.10320567 0.057228282
000170 7f 20 60 3d 6c 95 c3 3b fb 7f cc 3c 13 07 c9 bd
       0.05471849 0.00596874 0.02496337 -0.098158024
000180 9f e5 9a 3d 09 7e f0 bc d8 de fc 3b 21 e4 2c bd
       0.07563328 -0.029356973 0.0077169947 -0.04220975
000190 03 27 a2 3c 0a e9 1f 3d 7d de bd bc 81 18 1f 3d
       0.019793993 0.039040603 -0.02317738 0.038841728
0001a0 e8 de 01 3d 63 67 83 3c 4e 76 f2 3b 84 bc 97 bc
       0.03170672 0.01604051 0.007399357 -0.018522508
0001b0 82 75 83 bc b6 fe b8 bc 28 80 bd 3c 94 24 f3 3c
       -0.016047243 -0.022582393 0.023132399 0.029680528
0001c0 1a ad 50 bd de a1 c7 39 ed 0d 42 bb 35 db 2a bd
       -0.050946333 0.00038076838 -0.0029610351 -0.04171296
0001d0 2d 00 c0 bc 9c 5b 39 bd c8 72 72 3d 9d bd 6b 3d
       -0.023437584 -0.04525338 0.059191495 0.057553876
0001e0 8f b4 37 bc 71 ae 44 bd b9 55 7f 3d 6a 66 bb 3c
       -0.011212482 -0.048017923 0.06233761 0.022875983
0001f0 6a 2c f2 bc fc a3 a9 3b eb aa 1f 3c 0b 4d c3 bc
       -0.029562194 0.005177019 0.00974534 -0.023840448
000200 d7 aa 0a bd cd 9c 25 3d 07 89 d5 bc 09 08 f6 3c
       -0.03385433 0.04043274 -0.026066316 0.030033128
000210 87 4e 9c bc c3 06 ce 3c 57 f2 32 3d d3 d6 55 bd
       -0.019080414 0.025149709 0.043688145 -0.052206825
000220 ac 4f 28 3d b2 93 05 bd 63 44 08 3d 6f 07 37 bb
       0.041091606 -0.032611556 0.033268344 -0.0027928015
000230 30 05 97 bc ae 74 32 bd 06 6f 00 bd b2 03 04 3d
       -0.01843509 -0.043568306 -0.03135588 0.032230087
000240 9b 30 e8 3c b5 71 42 bd a8 39 ea bc 5c 36 b3 bc
       0.02834349 -0.04747172 -0.028591946 -0.021876507
000250 3d 70 ba 3d 42 25 8a bd 26 6c b1 bc 88 bd 52 bd
       0.09103439 -0.067453876 -0.021658015 -0.051450282
000260 e8 c0 34 bd 1d 46 41 bd b3 78 7c bd 06 34 1d 3c
       -0.044129282 -0.047186006 -0.061638545 0.009594923
000270 a0 36 57 3d d0 da b7 3d c9 86 65 3d df 00 9e bc
       0.05254233 0.08977282 0.056036744 -0.019287525
000280 26 31 57 bd f4 18 9b 3d 4d fa cc bc f2 8e 5e bd
       -0.052537106 0.07573119 -0.025021696 -0.054335542
000290 d8 68 ca 3c 0b ba 14 3c b2 71 95 3a e3 8c 83 ba
       0.024708197 0.009077559 0.0011401682 -0.0010036494
0002a0 08 2d 57 bd 34 22 5c bc 3a 35 ac bc 0f 18 03 3d
       -0.05253318 -0.013435889 -0.021021474 0.032005366
0002b0 f0 f8 41 3c 15 f4 ba 3c d4 b9 a0 bd 28 fa 4a bb
       0.0118391365 0.022821466 -0.07847944 -0.0030971859
0002c0 94 8b 1c 3d 0c 36 01 be 2f 3b 42 3d f1 51 27 bd
       0.03821905 -0.12618273 0.047419723 -0.04084963
0002d0 a0 a5 89 3c 7d 3a 60 bc 99 95 e2 ba e5 61 16 3d
       0.016802609 -0.01368582 -0.0017287015 0.036714453
0002e0 42 0d ca bc 23 43 9e 3c 8e 05 22 3d 23 5a 68 bd
       -0.024664525 0.019319123 0.03955608 -0.056726586
0002f0 1b 7b 77 bc 6f 3b aa 3c ba 09 01 3c 1d 2e eb bc
       -0.015105034 0.020780293 0.007875854 -0.028708512
000300 ef 09 5f 3d c9 ec bd 3c 69 c4 df bc 6e 4c 2d bc
       0.054452833 0.023184197 -0.027315335 -0.010577304
000310 3d 12 55 3d 82 fd 30 bd dd cd 3e bd 7d 25 a5 bb
       0.052019347 -0.043210514 -0.046583045 -0.0050398693
000320 34 f1 a7 bd da 9f 8b bc 32 26 21 3d e3 c2 aa bd
       -0.08200303 -0.017043997 0.039343067 -0.08337953
000330 ad 73 1d 3c bb 72 4a 3d cc c3 4c bd b1 4d c2 bd
       0.009610099 0.04942582 -0.049991414 -0.09487475
000340 85 02 29 3d 6d d7 9b 3c 5a c4 b1 3c 2a 02 09 3c
       0.04126217 0.019023621 0.021700073 0.008362332
000350 35 28 9a bd fc 1d 07 bd de 3c 4b 3d 51 a2 de 3c
       -0.075272 -0.03298758 0.049618594 0.027177008
000360 1d 48 06 ba c3 54 37 3d 15 9f 72 bc dd b9 f3 3c
       -0.000512244 0.04475857 -0.014808436 0.029751712
000370 ab 46 3c 3d af 85 b5 3c d5 d1 75 3c c3 c8 d0 3a
       0.04596583 0.022158472 0.015003641 0.0015928972
000380 89 7c cf 3c 4b e3 97 3d ef f0 df 3c 4e 49 45 3d
       0.025327938 0.074163996 0.027336566 0.048165612
000390 0e 45 97 bd 0f b1 32 bd e7 83 d0 3c 23 b4 c0 bc
       -0.07386218 -0.043625887 0.025453521 -0.023523396
0003a0 74 8b 4b 3d fc 18 56 3d e7 52 5e 3a 6b 08 7c bd
       0.04969354 0.05226992 0.00084809813 -0.061531466
0003b0 bd 31 57 ba 37 53 42 bd f2 3c f5 3c 4a df 27 3d
       -0.00082090107 -0.04744264 0.029936288 0.04098443
0003c0 bf 3c 20 bc 0b 29 53 bd 90 86 0e 3d d9 99 b4 3c
       -0.009780108 -0.051552814 0.034796298 0.022046017
0003d0 db 02 4c 3d b7 8d fc 39 32 f7 8f bc 0b 44 ee bd
       0.04980741 0.0004817077 -0.017573927 -0.11634072
0003e0 20 29 f3 3a 04 3d ca bb 2f 83 ba bc c1 dd 49 3d
       0.0018551685 -0.0061718244 -0.022767631 0.049283747
0003f0 2e b8 6b 3c fa f0 3e be 19 45 37 3d e3 9f 01 3c
       0.014387174 -0.18646613 0.04474363 0.007911655

fc2.bias f4 [360]
000000 84 da 55 3d ad d4 38 3c 4b b8 1f 3d 4b 9b 83 3c
       0.052210346 0.011281175 0.038994115 0.01606526
000010 98 3c ff bc 53 1c c7 3c d5 95 c2 3d 13 b8 d3 bc
       -0.031156823 0.024305498 0.095012344 -0.02584461
000020 d5 23 01 3d f5 a8 ba 3d 0b 45 b3 bc f9 b6 33 bd
       0.031528313 0.09114257 -0.021883508 -0.04387567
000030 e8 c1 43 3c f2 17 cb 3c 56 63 48 bb ce 68 a0 3c
       0.011948086 0.024791691 -0.0030576787 0.019581225
000040 92 d2 d4 3d e1 ca 6c 3c c1 6e 4f 3c 55 58 5d 3c
       0.103917256 0.014452667 0.012660683 0.0135098295
000050 bc e1 d5 bb cb 7f f2 bd ee 7a 4a 3d b3 d0 76 3c
       -0.006527154 -0.11840781 0.04943364 0.015064406
000060 16 b6 3e bd 31 37 ed bb 83 25 84 bc 8f b8 d9 bb
       -0.04656037 -0.0072392453 -0.016131168 -0.0066443156
000070 ed c9 d6 3c 7d 69 3c bd 2c b3 0b 3c 24 a4 cd 3c
       0.026219333 -0.04599904 0.008526605 0.025102682
000080 5a 56 33 bd 9d 0f 65 3d 40 aa a6 3c e1 47 8d 3d
       -0.043783523 0.055923093 0.020344853 0.068984754
000090 3f 62 1e ba e0 29 54 bd 19 e6 49 3c cd 2c e5 3c
       -0.00060418615 -0.051797748 0.012322926 0.027975464
0000a0 0c a7 63 3c d2 4b ad 3b 6f 26 88 3c d7 9f ea 3b
       0.013894808 0.0052885795 0.016619889 0.0071601677
0000b0 08 b3 8f bc d8 8f 05 bd 74 66 6b 3d e1 ca 74 3d
       -0.017541423 -0.032607883 0.057470754 0.059763793
0000c0 a5 56 9c 3a 50 d9 ae 3b d3 c5 75 3d 62 21 e1 3c
       0.0011927678 0.0053359643 0.060003113 0.027481738
0000d0 53 4b 94 bc 15 5c 67 bd 74 49 26 bd 22 1c ae bc
       -0.018102324 -0.0564843 -0.040597394 -0.02125365
0000e0 3e 89 fa bc ac 86 48 3c 76 da af 3d 86 4b 19 ba
       -0.03058302 0.0122391395 0.0858659 -0.00058477407
0000f0 27 19 75 bd a4 b0 b5 3d f8 18 89 bd 69 1e 6c 3d
       -0.05983844 0.08871582 -0.066942155 0.05764619
000100 b1 28 00 bd de 4f 4f 3d 00 7f c9 3d af 2d 34 bd
       -0.031288806 0.050613277 0.098386765 -0.04398888
000110 87 9f 11 3c 78 29 5e bd 1b be 62 3c 7a 31 31 3d
       0.008888132 -0.054238766 0.01383927 0.043260075
000120 cb ab 76 bd bc f6 b2 3c bc d5 bb 3c b2 02 96 bc
       -0.06022243 0.021846168 0.022929065 -0.018311832
000130 64 7a 16 bd a0 1a 2d 3d 15 54 22 3d a0 ae a1 bc
       -0.036737815 0.04226172 0.039630968 -0.019736588
000140 71 59 04 bd 27 6e 05 3c e9 b4 d9 3c 67 72 42 3d
       -0.03231186 0.008143938 0.026575522 0.047472384
000150 00 36 15 3d ac 25 55 bd d6 08 72 3c 74 31 f3 ba
       0.03642845 -0.05203788 0.014772614 -0.0018554167
000160 e1 25 21 3d ac 8b da bb f0 c8 d6 bb b8 e8 69 bc
       0.039342765 -0.006669482 -0.0065547153 -0.014276676
000170 57 63 96 3d 04 fb da bd 1b 49 22 bb 17 bb 3d 3d
       0.07343166 -0.10692409 -0.0024762813 0.046321
000180 6a bc 4f bd d4 21 15 bd b4 10 96 3c d6 db 5f bc
       -0.050716795 -0.036409214 0.018318512 -0.013663253
000190 ad 05 93 3d 7c e5 d8 bc 25 e2 18 3d b4 25 40 bd
       0.07178817 -0.026476614 0.037325043 -0.046910957
0001a0 b7 fd 2e bd a2 88 9e 3d 90 8f 7e 3d 0a 0f 2b bd
       -0.04272243 0.077409044 0.06214863 -0.04176239
0001b0 90 9d 46 3d ce 2d 51 3d 99 1a 89 3d 03 a0 b6 ba
       0.048490107 0.051069073 0.06694526 -0.0013933185
0001c0 20 09 e0 3c 3d af 23 3d 16 26 13 3d 13 21 3d 3c
       0.027348101 0.039962042 0.035924993 0.01154353
0001d0 9c 79 1e bd a9 41 e8 3d 33 01 84 bd bb 40 93 3c
       -0.038690194 0.11340649 -0.06445541 0.017975202
0001e0 a8 71 4f bd c4 4e fa 3b 17 8c 54 3d ef b8 f0 3b
       -0.0506455 0.007638784 0.051891413 0.0073462646
0001f0 6d da 98 bc 62 fa 37 3d dd 99 07 3c af 2e 7f bd
       -0.018658841 0.044916518 0.00827643 -0.06230038
000200 ef c9 50 3c df bb 1c 3a b0 9e 4b 3d 31 72 8a 3c
       0.012743457 0.00059789227 0.049711883 0.016900154
000210 68 d9 8b 3b fd 3e 66 3d e5 81 34 bc fc d5 a2 3d
       0.00426786 0.056212414 -0.011017297 0.079509705
000220 af 63 b9 3d 13 8a f4 3c fe 27 aa 3c 16 e1 95 bc
       0.09052216 0.029850995 0.020771023 -0.018295806
000230 57 6c b9 bd 4c 65 cd 3d b9 67 18 bd e7 0c dc bc
       -0.09053867 0.100290865 -0.037208293 -0.026861621
000240 b9 f5 f3 bc 14 98 5a 3d 6c c6 e4 ba eb ef 76 bd
       -0.029780256 0.05336769 -0.0017454154 -0.060287397
000250 f6 e8 36 bd e8 64 83 3d a1 7e 49 bc 60 6e 47 3d
       -0.044655763 0.06415731 -0.012298257 0.048689246
000260 fe 5f 14 bb ac b0 c4 3d 7a 3e e2 3c d8 77 3c 3d
       -0.0022640224 0.0960401 0.027617682 0.04601273
000270 58 70 c3 bb 88 84 9b 3c cf 07 bd bc dd 46 96 3d
       -0.00596432 0.018984094 -0.023075012 0.07337735
000280 99 a5 08 3d 32 6d c0 bc b2 16 ff bc ae f7 16 bd
       0.03336105 -0.023489568 -0.031138752 -0.0368573
000290 ae ff 5a bd ae 0e 30 bc 3d 7a 44 3d 8c 96 c1 bd
       -0.05346649 -0.010745687 0.047968138 -0.09452543
0002a0 15 20 ca bd d7 9c f6 3c 45 7e ba bc 14 72 e0 bb
       -0.098694004 0.030104084 -0.022765288 -0.0068495367
0002b0 14 21 e2 3d ec cd ec 3c 47 90 68 bc f0 e7 6e 3d
       0.110414654 0.028906785 -0.014194555 0.05832666
0002c0 74 ff b1 3c 15 ca cb 3c 2b 60 c4 3c ee 41 89 bb
       0.021728255 0.024876634 0.023971638 -0.0041887676
0002d0 ea 0a f6 3c a9 7e 8c bc d2 7a 16 be cb 8d 89 3d
       0.030034501 -0.01715024 -0.1469529 0.06716498
0002e0 e5 a7 7b 3d 80 23 09 3d eb f6 a4 3d 95 f5 0d 3d
       0.061439414 0.03348112 0.08054908 0.034658033
0002f0 ff 2d 67 3b f0 bd 29 bd f7 98 ba 3c ac 13 78 3c
       0.0035275219 -0.041440904 0.022778017 0.015141409
000300 8d c3 c6 bd 2f fd c0 3c 63 08 1c 3d dc 18 63 3d
       -0.09705267 0.023558227 0.038093936 0.05544363
000310 bb e9 fa bc b4 b1 ba 3c f8 3a 47 bc 90 08 8e bd
       -0.03062903 0.022789814 -0.012160055 -0.06935227
000320 25 e5 5b 3d 50 48 21 3d 17 12 1a 3d a2 3b 8f 3d
       0.053685326 0.039375603 0.037614908 0.06993796
000330 8f 65 2e bc 0d 16 c3 bc ba 53 df 3c d3 67 90 3d
       -0.010644331 -0.023814226 0.027261604 0.07051053
000340 98 e6 3c 3d 5a 06 4d 3d da b5 8b bd ec d0 f3 3c
       0.04611835 0.050054885 -0.06821795 0.029762708
000350 a3 d4 07 bd 0d a1 ed bc 54 82 64 3d e6 76 b1 3d
       -0.03316177 -0.029007459 0.055788353 0.08665256
000360 c4 9a 0f 3d 76 a4 b5 3b 75 25 29 bd 7f 33 83 bc
       0.035059705 0.005543287 -0.041295487 -0.016015766
000370 20 f0 88 3d d0 6e 91 bc 83 08 52 3d f0 5f b6 3b
       0.06686425 -0.017753035 0.05127765 0.005565636
000380 8e e3 d3 3c 6d ed 5a 3d f8 66 21 bd 9d a5 75 3b
       0.025865342 0.053449083 -0.03940484 0.0037482746
000390 5c 0d 9c 3d d4 ee 70 3d 02 92 fd 3a 83 b1 7e 3d
       0.076197356 0.058821514 0.0019345882 0.062181007
0003a0 50 2c 37 3c 17 d4 d5 3c 51 6a 17 bc a2 60 1a 3d
       0.0111799985 0.026102109 -0.009241656 0.037689812
0003b0 96 1c 36 bd 82 3a 29 bd 8e 4e ab bc 1b f9 86 bd
       -0.044460855 -0.041315563 -0.020911481 -0.06590482
0003c0 53 ca ae 3c 02 b1 1b bd fe ba 86 bd 12 f4 7b bb
       0.02133671 -0.038010605 -0.06578635 -0.0038445038
0003d0 8d ea 82 ba 07 5f 17 3a 9b ec 89 bd 54 bf 6c bd
       -0.0009988114 0.0005774353 -0.06734582 -0.057799652
0003e0 e6 af 87 3d 76 5e 04 bd d6 d4 b6 3d c7 b1 00 3c
       0.06625347 -0.032316647 0.08927314 0.007854885
0003f0 34 5c c7 3c 47 1d 82 bc b7 a7 16 bd 3c 1d 66 bd
       0.024335958 -0.015883101 -0.03678104 -0.056180224

fc3.weight f4 [1, 360]
000000 d5 ef 84 bb 65 07 d8 bc 76 29 2a 3b 17 99 39 bd
       -0.0040569105 -0.026370713 0.0025964654 -0.045312013
000010 48 a5 15 bc 9f 02 9c bb dd d2 73 3b 51 27 b8 bb
       -0.009133644 -0.0047610546 0.0037204542 -0.0056199213
000020 a3 64 54 3b 15 96 2c 3b 90 7a 02 3d 65 20 42 bc
       0.0032408617 0.0026334573 0.031855166 -0.011848544
000030 9a 47 1c bb 66 77 7f bc 8e 16 77 bc db 58 4a 3c
       -0.0023846389 -0.015592432 -0.015081061 0.012350286
000040 97 37 6f 3b 40 4f d3 3b 04 8c 6b 3c 1d 43 11 bc
       0.003650164 0.0064486563 0.014376644 -0.008866099
000050 3a 5a d4 bb 83 87 ac bb 52 aa c3 3b 02 ad ad bb
       -0.0064804824 -0.0052651777 0.0059712315 -0.005300165
000060 41 70 0a be 56 5a c3 bb 10 c0 7c bd b6 bc bc bc
       -0.13519384 -0.0059616966 -0.061706603 -0.023039203
000070 2e c8 91 3b cb c5 7b bc b8 ac ce 3b 07 15 54 bc
       0.004448912 -0.015366982 0.006307211 -0.012944466
000080 65 b5 07 3a 43 8a 28 3b 14 6d 8c 3b cc 30 8e 3b
       0.0005176871 0.0025717176 0.004285464 0.004339313
000090 ef eb 0c bd 20 f6 53 bb 97 64 d5 3b 1d a4 eb 3b
       -0.03440469 -0.0032342747 0.0065122354 0.0071911947
0000a0 38 a9 c2 3b 4e 48 84 bd 61 1f be bc 7c 44 34 bd
       0.0059405826 -0.064591035 -0.023208322 -0.044010624
0000b0 14 70 d3 bd c2 7a e4 b9 d7 2b 95 bb 1c ea 4d 3b
       -0.103241116 -0.0004357901 -0.0045523453 0.0031420058
0000c0 b4 7f c6 bc 05 f9 f4 3b 52 14 a3 3b 0b 21 71 bb
       -0.024230815 0.0074759745 0.0049767876 -0.0036793377
0000d0 05 08 bf bb 78 a7 de ba 83 bd 7a bd 7f d1 b1 bc
       -0.0058298134 -0.0016987165 -0.06121589 -0.02170634
0000e0 96 a4 ae 3b 32 36 2d bd 1c 3b 28 3b ff 97 15 3b
       0.0053296788 -0.042288013 0.0025669998 0.0022826192
0000f0 0e 3c a8 bc 83 bf 77 3b e0 9b af bb 99 89 8c 3b
       -0.020536449 0.003780336 -0.005359158 0.004288864
000100 64 32 ea bd 9d ba 86 bb 3d 5b 3f 3b 69 8b c4 bb
       -0.114353925 -0.0041116015 0.002919867 -0.0059980643
000110 78 1b 10 39 7e 0f c0 3b c9 93 3d bc 98 86 3e 3b
       0.00013743143 0.005861222 -0.011570879 0.0029071923
000120 d2 f2 4a bc 21 d1 95 3b c6 7c 09 bc ae 00 0e bc
       -0.012386994 0.0045720492 -0.008391565 -0.008667154
000130 42 ae ff bb 28 bf 29 3b 95 97 6a bd 12 38 62 bb
       -0.0078027556 0.0025901292 -0.057273466 -0.0034518284
000140 3a 8f 82 bb a9 2a 9c bb 32 0c 23 3d 35 7a 03 bc
       -0.003984359 -0.0047658277 0.039806552 -0.008024742
000150 58 b7 aa 3c b4 85 dd 3a ac af 64 3b 9b d7 3c bc
       0.020839378 0.0016900809 0.0034894748 -0.011526014
000160 ee e6 00 3d 41 5e 7c bc 4b e1 26 bd 90 6b 67 3d
       0.03147023 -0.015403331 -0.0407422 0.056499064
000170 57 02 b6 3c 1b 2e a7 bc c5 ea 0c bc ab c1 7b bd
       0.022217913 -0.020407727 -0.008600895 -0.061463993
000180 7e 51 1f bd 88 75 b2 bb 5e 2c ad bc 35 93 3f bc
       -0.038896076 -0.0054461397 -0.02113932 -0.011692812
000190 3f c3 44 3b 6b a3 c4 bb 32 04 2b 3b 44 2d b8 3a
       0.0030023602 -0.0060009263 0.002609503 0.0014051576
0001a0 c2 cc a4 bb 2e 98 47 3b c3 73 11 3b 10 78 9f bb
       -0.005029292 0.0030455696 0.0022194244 -0.0048666075
0001b0 74 ef 9d bb 7e 78 1e bd e9 59 79 bb 8d 64 4b 3c
       -0.004819805 -0.03868913 -0.0038047975 0.01241411
0001c0 cf 07 bb bb 0e 60 06 3c 0f ef 1e 3c 90 d2 98 bd
       -0.005707718 0.008201612 0.009700551 -0.074620366
0001d0 28 d5 75 bc a4 90 46 3b 0e 5a 66 bc ec 2e cb 3b
       -0.015004434 0.0030298615 -0.014059557 0.006200662
0001e0 91 8a cc bb 44 d6 c5 bb 81 c8 82 3b 8c 8b 73 bb
       -0.0062421043 -0.0060375053 0.003991187 -0.0037162034
0001f0 3f d4 41 bb 28 e1 ce bc 98 d4 56 3c 2f bf 19 bc
       -0.0029575971 -0.025253847 0.01311221 -0.009383961
000200 4b 31 bb 3c c5 56 18 3c 68 84 93 3b 09 af 26 bb
       0.022850653 0.009298031 0.004501868 -0.002543392
000210 01 16 c9 bb 3a ea 08 3b d7 d2 2c bd c5 ea fb 3a
       -0.0061366563 0.0020891563 -0.04219326 0.0019219747
000220 9f c4 6c 3b e1 c4 b8 bb a0 4d 8e bb e5 a2 8d bb
       0.0036127937 -0.005638704 -0.0043427497 -0.004322397
000230 00 f2 dc bb e5 18 3b 3b 72 1e 62 bd 8d 82 19 bc
       -0.006742716 0.0028548774 -0.055204816 -0.009369505
000240 c5 2d 20 bc 90 61 6a 3b a7 e1 fa 3c c3 4d 9b bb
       -0.009776537 0.0035763718 0.030625178 -0.0047394945
000250 1f 4a f8 bb 63 cd 3e 3c cd 8e 23 3d b4 5d 2f 3c
       -0.0075771953 0.011645648 0.039931107 0.010703493
000260 ab af 69 bc c3 61 3b 3b b8 56 1f 3b 11 83 dd bb
       -0.014263074 0.0028592206 0.0024313163 -0.006760009
000270 c8 c3 64 bb 2f 96 68 bb 33 c4 93 bc 34 94 84 3b
       -0.0034906734 -0.0035489907 -0.018037891 0.0040459875
000280 33 2a c4 bb 08 55 95 bb 4d b3 4c bb 19 67 a9 bb
       -0.005986476 -0.0045572557 -0.0031234801 -0.005169761
000290 e7 f6 94 bb ad 95 70 bc 83 0f 1d 3b ae c1 ce bc
       -0.0045460346 -0.014684123 0.0023965545 -0.025238838
0002a0 ef 1a 16 bd e6 10 49 bb cc 7c 24 3b 84 c7 93 bc
       -0.03664678 -0.0030680238 0.0025098799 -0.018039472
0002b0 04 a9 3f 3b 14 17 84 3b 47 04 32 bd cb a4 61 3b
       0.0029245028 0.0040310714 -0.04346111 0.00344305
0002c0 c2 26 f6 bc 02 0f 68 3c d2 a9 12 bc ac ab 88 bc
       -0.030047778 0.014163734 -0.008951621 -0.016683422
0002d0 6c b7 bf 3b 55 4e 52 3d d3 08 d8 bc c7 32 44 3b
       0.005850723 0.051344234 -0.026371395 0.0029937492
0002e0 e0 d8 61 3b 65 39 54 3c e8 0d 3c 3b 0f 2f 08 bd
       0.0034461543 0.012953137 0.0028694812 -0.033248004
0002f0 d5 48 30 bb bc 0a c7 bb 1e 5b e7 bb 8f 81 1c 3c
       -0.002689888 -0.0060742777 -0.0070604226 0.009552374
000300 59 92 3b bc 1e 16 21 bc cb 79 7a 3b db 20 a7 bb
       -0.011448466 -0.009831933 0.0038219567 -0.005100352
000310 23 83 40 3a 2b c2 b0 3b 05 21 9d bc f4 2b 31 bb
       0.00073437596 0.0053942404 -0.019180784 -0.0027034255
000320 2f d2 61 3b 1c 61 c8 bb 4d 68 c4 bb 44 82 4f 3b
       0.0034457555 -0.006115092 -0.005993879 0.0031663338
000330 97 1c bd bb 99 fb a0 3b b0 de a6 bd 20 0e 9a bb
       -0.0057712304 0.0049128053 -0.08147943 -0.004701391
000340 49 ab a8 bb cb 4e 80 bc 99 5d 49 bd 2a 3a a5 bc
       -0.005147372 -0.015662571 -0.049161527 -0.020169336
000350 a5 ee 46 bb a5 7e 06 bb 30 bf 15 bd d1 0b 73 3b
       -0.0030354646 -0.0020522263 -0.036559284 0.00370859
000360 dd dd f5 bb 6d 16 54 3c 97 f5 79 bc f6 77 7c bb
       -0.007503255 0.0129448 -0.015256307 -0.003852365
000370 57 eb 76 3b 81 df 6c 39 c5 4e 3e 3b e2 65 8c bd
       0.0037676895 0.00022589976 0.002903865 -0.0685537
000380 39 a4 78 bc c6 c5 5f 3b db 21 e0 bc 7f 9b 32 bc
       -0.0151758725 0.0034144982 -0.027359894 -0.010901331
000390 ad 51 2e 3b f6 61 1a 3b 9c c0 d0 3b 96 eb 60 bd
       0.0026598976 0.0023556924 0.006370617 -0.054912172
0003a0 a5 e2 34 39 4d 66 07 bc 40 3d f8 3a 90 85 ad bb
       0.0001725057 -0.0082641365 0.0018939152 -0.005295463
0003b0 f1 34 4e bc 8b 43 9f bb cc 53 1f 3c 61 1e d1 bc
       -0.012585864 -0.0048603467 0.009724569 -0.025527181
0003c0 e3 a7 ce bb 7f ac 70 bb da da 87 bd c0 49 d3 bd
       -0.0063066348 -0.003672391 -0.066335395 -0.10316801
0003d0 56 98 10 bc 1c c9 cc ba 34 5c 43 bc a3 01 62 bb
       -0.008825382 -0.00156239 -0.011923838 -0.003448584
0003e0 98 ff b2 bc 8a 5e 9a 3b 7e 01 22 3b 89 a5 ab bb
       -0.021850392 0.004710977 0.0024720128 -0.005238239
0003f0 ce 9f 64 3b 06 00 1c bb 4f 5d fa bb fc 82 af 3b
       0.003488529 -0.0023803725 -0.007640518 0.0053561907
