checkpoint_actor0.pth (torch_old, 744563 bytes, 6 tensors)

fc1.weight f4 [480, 24]
000000 05 d5 08 bd bd db 64 3d 03 92 8c bc d7 de 00 bb
       -0.033406276 0.05587362 -0.017159468 -0.0019664073
000010 74 77 36 bd c0 8d d2 bd 26 92 90 3c 37 d6 f8 3c
       -0.044547513 -0.10280943 0.017647814 0.030375583
000020 ca 4f dd bc 86 60 5d 3d 7a 29 93 bb 40 8b 67 bc
       -0.027015585 0.05404713 -0.0044910284 -0.014132321
000030 1e 15 c7 3c 96 6e 2f be 83 a7 13 3c ef 62 10 3d
       0.024302062 -0.17132029 0.009012106 0.0352506
000040 92 fa 8e bd db b8 96 3d b2 f4 80 3c ba 41 96 3c
       -0.06981386 0.07359477 0.01574168 0.018341888
000050 3f e7 22 3c 27 1f a4 be 5b ca 0b bd 63 c4 b7 bc
       0.009942829 -0.32055017 -0.034128528 -0.022432512
000060 fe ff 6d bb 78 9d 2a 3d 28 df 1c bd 3e e3 ac bd
       -0.0036315913 0.04165408 -0.038298756 -0.084417805
000070 e8 99 a6 bc 98 ad 7d 3d e1 da c6 3c 8d 48 4b bc
       -0.02033706 0.06193313 0.024274291 -0.012407434
000080 b5 99 b4 3d f3 48 a1 3d 30 12 cd bc c9 dc a6 3b
       0.0881838 0.07875242 -0.025033087 0.0050922376
000090 f7 fe 74 3e 2c dc 39 bd b1 bc bc bb e7 8f 35 3d
       0.23925386 -0.045375988 -0.0057597985 0.04432669
0000a0 51 d2 2a 3e cb b7 1b 3e 2d 24 a5 bc 30 b1 59 3b
       0.16681792 0.1520683 -0.020158852 0.0033217184
0000b0 7f f0 83 3e e8 32 2e be b0 44 64 bb 75 d3 22 3d
       0.2576942 -0.17011607 -0.003483098 0.039752442
0000c0 06 07 7c 3d 73 80 3a 3d 3a 29 2b bc c3 f4 08 3e
       0.061530136 0.045532655 -0.010446841 0.13374619
0000d0 70 b3 26 3e 34 ab 1f be 1a 6f 53 3c f1 c3 ec 3d
       0.16279387 -0.15592653 0.012904907 0.1156081
0000e0 19 a1 90 3d 0a 0b 64 3c 38 c2 83 3c 79 25 20 3d
       0.07061977 0.013918648 0.016083822 0.039098237
0000f0 70 af c4 ba e3 4a 93 bd 89 85 5d bc 32 1b 41 3c
       -0.0015005898 -0.07192018 -0.013520607 0.011786269
000100 a6 18 7a 3d 8b 72 7b 3c c9 bc 9a bc da 08 25 be
       0.061058663 0.015347133 -0.018888848 -0.16116658
000110 41 e5 11 be ff 0f 51 3e ce 29 8f 3b 57 b6 25 be
       -0.1424761 0.20416258 0.004368997 -0.16182838
000120 17 d9 eb bb d1 5a 5a bd 4a 34 b8 bb b6 b1 55 3c
       -0.00719751 -0.053309266 -0.0056214677 0.013042858
000130 9d 6c c6 bd b6 cc 9d bd 5e b8 3b 3c e1 d1 bd ba
       -0.09688685 -0.07705061 0.011457531 -0.0014482104
000140 f1 2f 37 bc 8c 17 ac bd 20 70 e6 3c 10 66 15 3d
       -0.011180864 -0.08402929 0.028129637 0.036474288
000150 84 62 a0 3d db 25 bf bd c8 4d e2 bb 21 e6 a0 3d
       0.0783129 -0.09333392 -0.006906245 0.078563936
000160 e5 e4 37 bd b9 ff f7 bd da d3 03 bd 95 48 6c 3d
       -0.044896025 -0.12109322 -0.03218446 0.057686407
000170 5a 17 31 3e 3b 04 42 bd 78 6c be bc a5 7f e3 3c
       0.17294064 -0.047367316 -0.023245081 0.027770827
000180 9c d3 77 bc de 58 e7 bc 13 e7 ff bc 0c 03 f2 bc
       -0.015126135 -0.028240617 -0.031238114 -0.029542468
000190 e8 e5 5c bd 7c 0b 51 3d fc f3 fd 3c bd 09 10 3c
       -0.053930193 0.051036343 0.03100013 0.008791384
0001a0 26 6e e3 bc ac 4a 42 bd 24 49 80 ba 73 22 85 3b
       -0.027762484 -0.047434494 -0.0009787423 0.0040629446
0001b0 77 12 62 3c 1f eb 97 3d cd 2f 16 3b c3 e5 61 3b
       0.013798348 0.07417893 0.0022916675 0.0034469224
0001c0 f1 1d 05 3d b8 df e4 bd dc c2 40 3c df aa cd bc
       0.032499257 -0.111754835 0.011765208 -0.025105892
0001d0 e3 0c e6 3d f0 2b e1 3d dd 3f f9 bc 81 d9 bf 3c
       0.11232927 0.109947085 -0.03042596 0.023419144
0001e0 4f 2d 88 3d 35 b2 de bd a6 d4 2e bb 7b fa 9a ba
       0.06649267 -0.10873834 -0.0026677041 -0.0011823917
0001f0 2a 09 c8 3d ff 41 ff 3c fb 42 bb bb 80 0f d7 3c
       0.09767373 0.0311594 -0.005714772 0.026252508
000200 11 37 09 bc fc de 15 be 2a 35 33 3c f4 05 87 3c
       -0.008374945 -0.14635843 0.010937968 0.01648233
000210 6c 9e 63 bd 96 47 e6 3d 80 ee 34 bc 43 dd 66 bc
       -0.055571005 0.11244123 -0.011043191 -0.014090839
000220 d6 5a 91 3d 4d dd 81 bd 10 73 21 bd e6 c4 eb bc
       0.07097404 -0.06341038 -0.039416373 -0.028780412
000230 1f 7f 1b be 6e 73 62 3e d0 2a 1c 3d 5f a6 f6 bc
       -0.15185212 0.22114345 0.038126767 -0.030108629
000240 b1 84 8a 3d ec fb e3 bd 38 be f6 3c 66 21 2f bd
       0.0676359 -0.11132035 0.03012 -0.04275646
000250 11 94 07 3e 92 93 57 be 05 72 58 bd ba 32 c4 bc
       0.13240077 -0.21052387 -0.052843112 -0.02394997
000260 6f 66 94 39 33 cf 0f be 98 fb e8 bc a3 84 77 bd
       0.0002830508 -0.14043884 -0.028440282 -0.060429227
000270 b9 e0 20 3d 44 94 17 3c 7d 82 87 3c cc 14 90 bc
       0.039276812 0.009251658 0.016541714 -0.017588042
000280 89 f6 a8 bb 68 82 2f be 36 6f 58 3c 73 25 58 bd
       -0.0051563424 -0.1713959 0.0132101085 -0.05277009
000290 93 e3 04 be a3 93 17 3e 08 46 83 bc 62 00 4a bd
       -0.12977438 0.14802413 -0.016024604 -0.04931677
0002a0 6d 8f a1 bb ca 72 19 3d 42 d1 05 bd b6 57 86 3d
       -0.0049304278 0.037462987 -0.032670267 0.06559698
0002b0 f1 9b b3 bd c2 aa 9b bc 6d 4f 26 3c 57 17 ac bb
       -0.08769978 -0.019002322 0.0101507725 -0.0052518058
0002c0 34 83 a2 3d 28 25 69 3d b7 13 9b bc 06 74 a7 3d
       0.07935181 0.0569202 -0.0189303 0.081764266
0002d0 58 72 47 3d d8 56 67 bb 41 d5 f9 ba 6e 3e eb 3d
       0.04869303 -0.0035299566 -0.0019060747 0.11486517
0002e0 cc 21 16 3d af cb a0 3d 99 82 99 bb 72 78 8b 3d
       0.036653325 0.078513496 -0.004684758 0.068100825
0002f0 7a 47 60 3e 80 7a cb 3d 76 b2 1a 3c ac 2d 34 3d
       0.21902266 0.099354744 0.009441962 0.04398887
000300 a6 91 8c ba 19 79 1c 3d f5 72 77 3c c4 ea b6 3d
       -0.0010724559 0.038201425 0.0151030915 0.08931497
000310 60 22 73 3d af e1 dc bd 0c 14 62 bd bd 44 ca 3d
       0.059358954 -0.10785233 -0.0551949 0.09876392
000320 c4 44 6a bc 07 63 f3 3d 0c 92 17 bc 42 dc 71 3d
       -0.014298622 0.11884122 -0.009251129 0.059047945
000330 03 7c 8c 3d 91 0c f6 bd 57 2b 9e 3c 24 b3 df 3a
       0.06859591 -0.120141156 0.019307775 0.0017066938
000340 90 35 4a bc 59 04 7b 3d 24 32 c6 3c e1 e4 30 be
       -0.012341872 0.061283443 0.02419383 -0.1727481
000350 74 18 e3 3d 57 33 d3 3c 36 67 96 bc 5c 07 0b be
       0.110886484 0.025781317 -0.018359762 -0.13577026
000360 c9 b9 3f 3d 81 ca 91 bc d1 d0 d8 bb 09 a2 05 3d
       0.046808038 -0.017796757 -0.0066166897 0.032625232
000370 e0 32 4f 3d 8e d8 b4 3d ad 3b 09 bc 42 48 07 3d
       0.050585628 0.08830367 -0.008376044 0.033027895
000380 96 08 d2 3c 67 02 68 bd 7c da 7d 3c 77 83 87 3c
       0.02563886 -0.056642916 0.015493985 0.01654218
000390 4d bc 18 3b 53 96 28 3e a4 0d 1a bc 1a ac 1c bd
       0.0023305595 0.16463594 -0.009402666 -0.038250066
0003a0 58 26 68 3d ae 75 48 ba 3d 7c 19 3c 43 d7 28 3d
       0.056677192 -0.000764693 0.009368 0.041220915
0003b0 f4 b1 39 bd 90 7f 4f 3e 2c e3 73 bc a5 94 14 3d
       -0.045335725 0.20263505 -0.014885705 0.03627457
0003c0 af f4 06 bd f7 f2 b4 3d b5 a0 6f 3c 2b f2 08 3d
       -0.032948192 0.08835404 0.014625718 0.033434074
0003d0 b2 34 5f 3d 5a 16 01 3c 1d d5 50 3c 6c c5 bd bc
       0.054493614 0.007878864 0.012746123 -0.023165427
0003e0 f9 f8 0e 3b e6 de d5 3d 64 fc 40 3b 9f a0 8f 3c
       0.002181588 0.10442905 0.0029447312 0.017532645
0003f0 b1 58 67 3e 73 6b a0 bc 03 23 46 ba 90 44 5d 3d
       0.22592427 -0.019582486 -0.0007558318 0.054020464

fc1.bias f4 [480]
000000 e0 f4 be bd ba 88 82 bb 90 9f 47 3e 53 60 93 3d
       -0.0932405 -0.003983584 0.19494462 0.07196107
000010 b6 42 57 be 89 67 83 be f1 70 93 3c d7 f3 85 bb
       -0.21021542 -0.2566493 0.01799819 -0.004087906
000020 a5 9f 60 be 19 d4 4b bd dd 41 fd bd c2 37 b0 bd
       -0.219359 -0.04976282 -0.12366078 -0.08604385
000030 2b 9e 1a 3e 92 0e 42 3e 40 0b 43 be 8f 04 03 be
       0.15099399 0.1895087 -0.1904726 -0.12794708
000040 ed b6 d4 3d 65 4d 0c be 11 98 3f 3e 0a 5b 3b bd
       0.10386453 -0.13701399 0.18710352 -0.04574112
000050 c0 94 c2 bd f3 b0 a5 3d 1e cc 09 3e c6 7f ed bd
       -0.09501028 0.08090391 0.13456771 -0.115966365
000060 a4 1d c9 bd e3 14 fd 3d 20 f7 8c 3d 61 76 83 bd
       -0.098201066 0.123574995 0.06883073 -0.06419063
000070 85 17 32 be 7e 81 de bb 22 45 27 3e 98 1b 4b 3e
       -0.17391784 -0.006790339 0.16334966 0.19834745
000080 b7 71 7c be f7 26 b6 3d aa a2 85 be 29 ab 3d 3e
       -0.24652754 0.08894151 -0.26100665 0.18522324
000090 5c 22 09 be 73 a9 16 3e b6 60 cf bd f1 27 a8 3d
       -0.13392013 0.14713077 -0.10125868 0.08210743
0000a0 ea 8a 2f 3e fd 73 1f be d3 28 ba 3d 45 cb 4c bd
       0.17142835 -0.1557159 0.09089818 -0.04999854
0000b0 fb 7e bf bc 57 d7 64 be ff 65 ff bd 3b 59 7b 3b
       -0.023375979 -0.2234777 -0.12470626 0.0038352746
0000c0 fa 04 38 3d eb c1 c5 3d 51 76 dd bd db 68 87 3d
       0.04492662 0.096561275 -0.10813583 0.066117965
0000d0 74 a9 51 3e 7e 20 84 be 52 c1 04 3d 35 4a 37 be
       0.20474797 -0.2580604 0.032410927 -0.17899401
0000e0 37 fd e4 3c 2b 46 03 3e 0f bf c1 3d a6 32 7a be
       0.027952773 0.12819736 0.0946027 -0.24433383
0000f0 27 09 ea 3d 9c 49 2d 3e 12 81 9f bd e8 56 3e 3e
       0.11427527 0.16922611 -0.0778829 0.1858784
000100 42 39 40 be 0d 3a 8f bd e5 17 8e bd 5a ed 20 be
       -0.18771842 -0.06993494 -0.06938151 -0.15715542
000110 8f 86 13 be c5 82 b0 3d d1 7b 40 be e5 a9 ad 3d
       -0.14406799 0.08618692 -0.18797232 0.084796704
000120 32 15 01 be a2 73 4f 3e 2d a6 c6 bd bd 3a 49 be
       -0.12605742 0.20258954 -0.09699664 -0.19651313
000130 a2 5c 6b be 3b db da bd 44 9b 33 bd 9d 4b 83 3d
       -0.22984555 -0.10686346 -0.043849245 0.064109065
000140 51 77 fa 3d 29 e7 28 bd 5d 4d 1d 3d 3a 2f 08 bc
       0.12229789 -0.041236077 0.038403857 -0.008312041
000150 ea 04 61 bc d3 bf 82 bd 7b 68 19 3e 9e 95 30 3e
       -0.013734082 -0.06384244 0.14981262 0.17244574
000160 1d 02 66 be b5 49 2a 3e ca f1 12 be 3b 27 e0 3d
       -0.22461744 0.1662968 -0.14350048 0.109449826
000170 4c cd 28 bd 44 5e d6 bd 30 c1 6b 3e bf 85 25 be
       -0.04121141 -0.104671985 0.23022914 -0.16164301
000180 ef 9f c4 3d 21 21 03 bc 63 91 7c 39 fa 9e fc bd
       0.096008174 -0.008003504 0.00024086754 -0.1233501
000190 92 c2 e6 3d 08 ab 2b 3e 0e 32 dc bd fa e2 c2 3d
       0.1126758 0.16764462 -0.10751735 0.095159486
0001a0 61 c1 b7 bd 54 d2 9b bd a1 f9 54 3b 14 5a 47 bd
       -0.08972431 -0.07608476 0.0032497423 -0.04866989
0001b0 40 f1 76 bd 80 e4 e4 bd 89 70 e0 bc 0b d4 f5 bb
       -0.060288668 -0.111763954 -0.027397411 -0.007502084
0001c0 d6 d0 f5 bd 17 00 c0 bd be 42 2f be c0 64 27 be
       -0.12002723 -0.09375017 -0.17115304 -0.16347027
0001d0 59 4e 4c be 60 cf 6a bd 5b 24 0e 3e 51 7e 84 bc
       -0.19951762 -0.057326674 0.13881056 -0.016173514
0001e0 0a 0a 31 be 13 37 8f be 41 85 0d 3e eb 0d a1 3d
       -0.17288986 -0.27971706 0.13820364 0.07863983
0001f0 18 4b 10 be 4c 08 fa 3d c0 5a 9c bd d4 17 38 bd
       -0.14091146 0.12208614 -0.07634497 -0.0449446
000200 a0 7e ca bd 26 2c 07 3e d6 83 25 be f0 f1 da bd
       -0.09887433 0.13200435 -0.16163573 -0.10690677
000210 10 ce 0a be 32 d2 0f be 17 84 39 3d 67 92 49 be
       -0.13555169 -0.14045027 0.045291986 -0.19684754
000220 3e 15 d3 3d f0 1c 52 be 0e 34 3a be 13 55 c5 bd
       0.10306786 -0.20518851 -0.1818392 -0.09635367
000230 12 76 e2 bd b6 2c f9 bd 0c 4e 2a 3d 25 1e 23 3e
       -0.110576764 -0.12166731 0.041578338 0.15929468
000240 dc 82 4d 3a 5a 1a 10 be 55 53 05 be 0e a1 a9 be
       0.0007839629 -0.14072552 -0.1302007 -0.33130687
000250 6f 3e d2 3d e5 c6 6f bb a7 0a f1 bd 98 43 f4 3d
       0.102658145 -0.0036587056 -0.1176961 0.11926955
000260 be 82 22 3b 9d a5 9a bd 3e 7f 31 be 46 79 7a 3d
       0.0024797167 -0.075511195 -0.17333695 0.06115081
000270 99 35 17 3e cf a2 1b 3e c0 c1 2a 3e a3 47 c2 bc
       0.1476654 0.15198825 0.16675472 -0.0237158
000280 0b 86 24 be 92 24 b3 bc 40 c1 23 be 3b 7d d4 bb
       -0.16066758 -0.021868024 -0.15991688 -0.006484655
000290 dc c1 8c 3c 0b 65 3b bd fc cf f4 bd 24 5d d2 bc
       0.017182283 -0.04575066 -0.11953732 -0.025679179
0002a0 97 92 63 be 7c 5d 7e bc f9 4b 71 3d ef 14 9e 3d
       -0.22223888 -0.015525218 0.058910344 0.077188365
0002b0 3e f4 01 3d 8c 26 61 3c e9 eb 27 be 23 8a 5b be
       0.031727068 0.0137421 -0.16398586 -0.21439414
0002c0 0e 31 55 3e 89 2a 24 be 9b 0d 9b 3d db d7 2f be
       0.20819494 -0.16031851 0.075709544 -0.17172186
0002d0 9d fa 3f be a0 5b 60 be 30 09 60 3d 77 49 3f 3e
       -0.18747945 -0.21909952 0.054696262 0.18680368
0002e0 d0 d2 c5 bd 8a b2 c3 bd f3 24 8c 3c 1c 40 0f 3e
       -0.0965935 -0.09555538 0.017107463 0.139893
0002f0 c8 03 30 be 53 56 80 3c ff fe d8 bc 04 27 60 be
       -0.17188942 0.015666163 -0.02648878 -0.21889883
000300 5d 98 a6 3d 6e 3f 8d 3a 61 53 44 be 2b 4e 07 be
       0.0813453 0.001077635 -0.19172432 -0.13213412
000310 6e 5e 4c 3d 6a b5 18 be 62 0d 47 be f9 6f bb bd
       0.049894743 -0.14912954 -0.19438699 -0.091522165
000320 3f b5 eb bd 87 db 35 bd 84 33 03 3e fa 43 29 3c
       -0.11509179 -0.04439881 0.1281262 0.010331148
000330 58 1f 2e 3d 3e 29 d9 3d fe c2 04 be c3 b7 39 3b
       0.04251036 0.106035694 -0.12965009 0.002833829
000340 ee 55 ec 3c 11 5a 07 3e f2 13 a8 bd a3 98 ee 3c
       0.028849568 0.13217951 -0.08206929 0.029125517
000350 8a 5d 49 be 1d a9 6c be ed 52 04 3d 75 da 73 3d
       -0.19664589 -0.23111387 0.032305647 0.05953451
000360 0f 28 c2 bd ed 5d a0 3d 47 ba 2a 3c e4 9f 92 3d
       -0.09480297 0.07830415 0.010420389 0.07159403
000370 0c 84 85 bb ed 47 22 3e 51 40 3f 3e a4 95 fd ba
       -0.004074579 0.1584775 0.18676879 -0.0019346965
000380 99 1a f5 3d 2f fb 9d 3d 56 59 6a bd d2 82 93 bd
       0.11967964 0.07713925 -0.057214104 -0.07202686
000390 37 dd 10 bc 9c 60 03 bd 4d 96 fa 3d fe 2f 05 3d
       -0.008841804 -0.032074556 0.12235699 0.032516472
0003a0 39 9c e2 3d 31 36 30 bd 50 18 50 be b8 4a 98 bd
       0.11064953 -0.04302043 -0.20321774 -0.074361265
0003b0 74 6c 80 3d 14 26 33 be 89 a5 60 3c b6 dd 57 3d
       0.06270686 -0.17494994 0.013711342 0.052701674
0003c0 99 93 69 bc b7 12 5d be e7 3f 1c 3d 13 08 fd 3d
       -0.014256381 -0.2158917 0.03814688 0.12355056
0003d0 82 3a 2d 3e 68 a5 da bd 67 6a 28 be eb 04 aa bd
       0.1691685 -0.1067608 -0.1644684 -0.08301719
0003e0 a4 4b 56 3d 5f 48 55 bd 72 fb 0f be cf a4 93 3d
       0.05231823 -0.05207097 -0.14060763 0.07209169
0003f0 61 16 ab bd 09 21 77 be f8 91 4f 3e c3 bf 3e be
       -0.08353878 -0.24133696 0.20270526 -0.18627839

fc2.weight f4 [360, 480]
000000 a4 ad d8 bd dc 42 49 3b f7 32 40 3e b9 ae 32 3d
       -0.10579994 0.0030710017 0.18769442 0.04362366
000010 6c 2a 3d bc 9d 69 d6 bd 8a 5f 8d 3d e0 ac ad bd
       -0.011545759 -0.10469363 0.06902988 -0.08480239
000020 70 85 f6 bd d4 14 13 bd 81 5b 78 3c b6 59 2b be
       -0.1203717 -0.035908535 0.015158535 -0.16733441
000030 6e a7 75 3c 26 6f df 3b 7f 42 c7 bd 27 2d 13 3c
       0.014993532 0.00681867 -0.0972948 0.008982933
000040 8d 00 09 3d 7f 5d 60 3c bd 2c d5 bd a9 9d db bd
       0.03344779 0.013694166 -0.10408924 -0.10723431
000050 1f 67 10 be b8 70 30 3d e4 2a ae 3c 67 d8 8a 3d
       -0.14101838 0.043076247 0.021260686 0.06779557
000060 98 3c 92 bc 15 e5 ab bd 52 62 f3 3c 55 95 9e 3d
       -0.017851159 -0.08393303 0.029709969 0.077433266
000070 05 bc fc bc 86 6c 97 bb 7f 84 aa bc f0 ba 8e 3d
       -0.030851373 -0.0046210913 -0.020815132 0.06969249
000080 52 93 23 be 65 b5 b0 3c e6 58 02 bd c9 f6 03 3e
       -0.15974167 0.02157087 -0.03182306 0.1288711
000090 cf cc 45 bd df e1 b1 3d 95 69 83 bd 95 7a 74 3d
       -0.048291024 0.086856596 -0.064166225 0.059687216
0000a0 f3 29 9c bb 9b c9 38 bd 36 41 02 3b 54 3e 34 3d
       -0.004765743 -0.04511414 0.0019875295 0.044004753
0000b0 07 7b e8 bc ed 52 d2 bc bc c4 bd bd 1a 77 8f 3b
       -0.028378977 -0.025674308 -0.0926604 0.0043782117
0000c0 36 08 3f bd f6 0e 1d 3d b8 f7 b5 3c 21 da 7f 3d
       -0.04663869 0.038344346 0.022212848 0.062463883
0000d0 96 c3 9e 3c 8b 43 5b 3b bc 36 36 3d 09 4b d6 bd
       0.019380372 0.0033457007 0.044485793 -0.104635306
0000e0 ab d3 09 be e2 47 10 3d 4a a4 70 3a de 7a 17 bd
       -0.13459651 0.035224803 0.00091797544 -0.03698241
0000f0 a0 d8 3b 3d db d4 67 3c e8 d6 9a bd 10 43 4f bd
       0.045860887 0.01414987 -0.07560521 -0.050601065
000100 63 47 db bd 66 18 d2 3c 2f 05 99 bc 01 7c 24 3b
       -0.10706975 0.0256464 -0.01867923 0.0025098326
000110 b7 ef 7d bd c8 fd f7 bd f0 6d 4d bc c2 d2 a5 3d
       -0.061996188 -0.12108952 -0.012538418 0.080968395
000120 ee a6 2a bd 2a 02 60 3d a3 7d 52 bd 66 10 cd 3b
       -0.041663103 0.054689564 -0.051389348 0.0062580584
000130 96 df 6b bd 17 b7 80 bc 63 a7 dc bc 61 91 aa bd
       -0.057586275 -0.015712304 -0.026935285 -0.0832851
000140 2d 60 45 bc 06 42 1f be 7b 39 36 3d 3e 56 8f bd
       -0.012046856 -0.1555253 0.04448841 -0.06998871
000150 16 1f da bb 11 1e 35 be 1a 43 54 3d 4a 1e d8 3d
       -0.0066565378 -0.1768725 0.051821806 0.10552652
000160 bd 7d 67 bd 3b 42 ba 3c e0 7b b1 bd a6 fa 43 3d
       -0.056516398 0.02273666 -0.086662054 0.04784646
000170 48 a6 f0 bc c2 21 4d bd f6 c3 43 3e 61 a6 c6 ba
       -0.029376164 -0.050081022 0.19117722 -0.0015155786
000180 1c 57 12 3d cc 8f 3d bd c4 90 bf 3c e1 49 c3 ba
       0.035727605 -0.046279714 0.02338446 -0.0014899337
000190 88 92 bb 3c e7 ae 1e 3d c0 7d 4f bc a8 c2 42 3d
       0.02289702 0.03874102 -0.0126642585 0.04754892
0001a0 7e fd 36 bd 3d f7 19 bc 33 0a ee 3c a2 6b c1 3c
       -0.044675343 -0.009397325 0.029057598 0.023610894
0001b0 94 95 e4 3c d7 6a c5 bd 20 f6 a7 3d c0 2c 7b ba
       0.027903356 -0.09639519 0.082012415 -0.00095815584
0001c0 f2 88 84 3a 31 25 aa bd 36 b8 8c bc e8 c0 1c 3d
       0.0010111614 -0.08307875 -0.017177682 0.038269907
0001d0 1c 13 08 be 68 26 98 bc d9 52 27 bd bd 28 13 bc
       -0.1328854 -0.018573001 -0.040850494 -0.008981881
0001e0 76 61 7a bd ab 20 1c bd 19 cd 49 3c 7d 69 89 bb
       -0.061128102 -0.038117092 0.0123169655 -0.0041934834
0001f0 50 d6 1f bd cd 22 a2 bb 80 38 7e bc 12 38 e7 bb
       -0.039022744 -0.004947996 -0.0155164 -0.0070562446
000200 c7 99 a7 bd 35 c5 87 bd a7 e4 90 bc 2a 62 bf bc
       -0.081836276 -0.06629411 -0.017687155 -0.023362238
000210 1c 10 13 bd 6a 31 10 be 92 e3 68 bc 1a bd c0 bc
       -0.035904035 -0.1408135 -0.014214413 -0.02352767
000220 d7 ec 40 3d aa fd cf bc 7b 48 8f 3b 27 07 5b bd
       0.047100868 -0.025389511 0.004372654 -0.053473618
000230 41 e3 4c be 0a d2 a8 bd 04 96 0e bd fd e6 13 3e
       -0.20008565 -0.08243187 -0.034811035 0.14443584
000240 51 d1 eb 3b d4 14 0f 3d 4b 1f 17 bd 54 e3 f9 bd
       0.0071965833 0.034931973 -0.036895078 -0.122015625
000250 9c 18 50 bd f5 16 ff 3d 51 22 4e 3b f1 6d 81 bb
       -0.05080472 0.124555506 0.003145356 -0.0039498736
000260 08 12 12 be 55 17 56 bd 47 18 ba bd 2c ce a2 3d
       -0.14264691 -0.052268345 -0.09086662 0.079494804
000270 30 5a 19 3d 67 57 3e 3b 75 fe 0b 3d a3 96 19 be
       0.037439525 0.0029043795 0.034178216 -0.1499887
000280 48 67 e4 bd 75 25 84 bd f3 12 2d bc e6 64 fe 3c
       -0.11152512 -0.06452457 -0.0105636 0.031053971
000290 10 e9 2f bc 8d 3f fb 3c 52 9e 3d bd 87 59 80 bd
       -0.010736719 0.030669952 -0.046293564 -0.06267076
0002a0 51 a8 e0 3b f8 ef 0b bd 04 a2 ad bc b9 83 b6 3d
       0.0068560024 -0.0341644 -0.02119542 0.08911843
0002b0 82 dc 46 3d 09 8d 80 bd 74 9e 1f 3d d9 2b f6 3c
       0.048550136 -0.062769 0.038969472 0.030050205
0002c0 33 a0 85 3d fe fb f9 ba a8 15 31 3d 49 92 03 bc
       0.06524696 -0.0019072292 0.043233544 -0.008030483
0002d0 14 7f 4a 3b bc d9 90 bc b3 aa 74 3c e5 3c 4b 3d
       0.0030898498 -0.017681949 0.014933276 0.04961862
0002e0 5f 4f 07 3b b6 c9 9f bc bc 89 00 bc f1 2c 14 3d
       0.0020646674 -0.019505363 -0.007845338 0.036175672
0002f0 3f 4b b3 3d 5c 20 6d bb 15 2e 41 bd 7d c0 d2 bc
       0.087545864 -0.0036182618 -0.047163088 -0.025726551
000300 e6 a9 2d 3d a3 b5 d0 bc 3b 00 a9 bd d6 21 10 bc
       0.042398356 -0.025477236 -0.08251997 -0.00879713
000310 be 08 9e 3d 8f 16 7f bd b7 70 82 bd 1f bd f2 bc
       0.07716511 -0.062277373 -0.06369155 -0.029631196
000320 a4 67 23 bd c3 59 5a ba 21 c9 93 ba 10 c8 00 bd
       -0.03989376 -0.00083294156 -0.0011275151 -0.031440794
000330 88 d3 74 3d da de 20 3c 7b 53 1d bd ed c0 7c bd
       0.059772044 0.009818757 -0.03840969 -0.061707426
000340 5f ac 86 3c b3 6b 25 bd 16 a8 de 3c 73 3c bf bd
       0.016439615 -0.040385913 0.027179759 -0.09337702
000350 cf 1a 01 be a2 df 54 ba 10 b6 fb 3b 26 b7 df bc
       -0.12607883 -0.0008120482 0.0076816157 -0.027309012
000360 f4 f9 8a bc a4 b0 87 3c 8d 03 fa bd 09 75 85 bc
       -0.01696489 0.016563721 -0.122077085 -0.016291158
000370 f6 ac 0a bd 5e 35 e4 bb 5f 50 27 3d 44 f8 a4 bc
       -0.033856355 -0.0069643697 0.040848132 -0.020137914
000380 cd 0f d6 3b 27 7f bb 3c 58 a0 b7 bd 38 23 78 bd
       0.0065326453 0.02288778 -0.0896613 -0.060580462
000390 fa db 4b 3c 97 f2 e8 bd df ca fe 3d 5f 4e c9 bb
       0.012442583 -0.11374395 0.12441038 -0.0061433758
0003a0 e3 73 4d 3c 8d ba 3b 3d 68 55 1f bd 7c 44 dd ba
       0.012539837 0.045832206 -0.03889981 -0.0016881372
0003b0 4b f7 14 bd 77 6a 80 bd af fa 90 3d 23 dc b0 3c
       -0.03636865 -0.062703066 0.07079064 0.021589344
0003c0 eb 9f 6a bc 5b 27 a8 bd ef 48 1b 3a 0a ba d3 bc
       -0.014320354 -0.082106315 0.0005923649 -0.025845546
0003d0 2d 5c 5c bd 71 45 64 bd 9a 03 b4 bd 67 fd d0 bc
       -0.053798843 -0.055730287 -0.087897494 -0.025511457
0003e0 ee 19 2f 3d fc 01 84 bb 14 81 b2 bc 90 9f c8 3d
       0.042749338 -0.004028557 -0.021790065 0.09796059
0003f0 82 7a 2d bc de 71 89 bd 68 68 c1 bc d1 9e 13 be
       -0.01058829 -0.067111716 -0.023609355 -0.14416052

fc2.bias f4 [360]
000000 c6 e5 93 3d 5c b2 3d 3d db 83 1f 3e bc 01 87 bd
       0.0722156 0.046312675 0.15577643 -0.06592128
000010 69 47 58 bd 6b 3a 9c 3c 3a 80 7e bb 2c 65 c8 3d
       -0.052802477 0.019070825 -0.0038833753 0.09784922
000020 a5 0f 32 3d e9 9d d9 3b 29 63 a6 bd 3e 7e 7c bd
       0.04347195 0.006641139 -0.08124382 -0.06164383
000030 71 aa ff bb 74 67 2a 3d 6e 47 ab bc f7 00 fb 3c
       -0.0078023006 0.041602567 -0.020908084 0.030640109
000040 eb 94 b6 3d ab d2 53 3e cc f9 9c 3c 35 38 34 3e
       0.089151226 0.20685832 0.019162081 0.17599566
000050 f2 17 c5 bd a5 d7 59 bd 3d 4b 31 bd df dd 19 be
       -0.09623708 -0.05318417 -0.043284643 -0.15026043
000060 da b8 bc 38 78 0b 19 bd dc 65 52 bd fe 5e 21 3e
       8.99897e-05 -0.037364453 -0.051366672 0.15758893
000070 a1 d5 3e 3d 8e 44 17 be c0 4b a2 3b 9d 6b 0c be
       0.04659045 -0.14772245 0.0049528778 -0.13712926
000080 01 f3 8a 3d 48 05 27 bd d0 c4 bc 3c 70 d9 7d bd
       0.067846306 -0.04077652 0.023043066 -0.061974943
000090 00 a1 31 3d 26 a7 68 bd 00 f4 e0 bd b1 34 f9 bd
       0.043366432 -0.05680003 -0.10984039 -0.12168253
0000a0 2b db 25 bd 4b aa ad 3d c5 7d ee bd c9 74 ab bb
       -0.040492218 0.084797464 -0.116450824 -0.0052324277
0000b0 41 f1 8e bb 1e ec 82 bd 31 8e 81 bd 28 d9 57 bd
       -0.004362256 -0.06392692 -0.06325949 -0.05269733
0000c0 b1 6e 90 3d b3 e8 a5 3d ad f6 b5 bd 0e ac 43 bb
       0.07052363 0.081010245 -0.0888494 -0.0029857191
0000d0 3f f0 3b 3d c4 78 35 3e 28 42 c4 3d 25 f5 df 3c
       0.045883413 0.1772185 0.09582931 0.027338574
0000e0 f3 bb c5 bb 80 1b 06 3d 9f 8a 40 3e 5f 9f 18 3e
       -0.006034368 0.03274107 0.1880288 0.14904545
0000f0 27 11 62 3d 4a 88 4d bc 2f 6c 81 3d ee a7 98 3d
       0.05519214 -0.012544701 0.063194625 0.07453905
000100 06 4b 21 3e 03 bc 74 3b ae 37 79 3d 18 b0 ec bd
       0.15751275 0.003734351 0.060844116 -0.11557025
000110 44 22 ea 3d 5d bc c0 bd 41 35 44 3d 1f 45 1a 3e
       0.11432317 -0.094109274 0.04790235 0.1506543
000120 b2 95 92 3c ef 7d 9e 3d 1b 42 93 3d 5d ad db 3d
       0.017893646 0.07738864 0.07190343 0.10726426
000130 cf 39 cb bd d2 e4 e0 bd c4 34 4f bc 25 5e 3d 3e
       -0.099231355 -0.10981144 -0.012646858 0.18492945
000140 3c 20 f3 3b 15 2c 92 bd 95 b4 c4 3c cc 15 21 bc
       0.007419614 -0.07137314 0.02401189 -0.009831857
000150 62 de 30 3d a4 3e 81 3d af b6 56 3d 22 e1 28 3e
       0.04318083 0.06310776 0.052420314 0.16492131
000160 53 2d 90 3d 30 db db 3b d0 75 2a 3e e4 e3 49 bc
       0.07039895 0.006709479 0.16646504 -0.0123224
000170 0d b5 40 3d 86 dc eb 3d 0c 28 dc 3b d8 7b 5a 3e
       0.047047663 0.11516671 0.006718641 0.21336305
000180 d6 6b 7c 3d 00 4c b5 bd 8c 01 e6 b9 63 34 1b 3e
       0.061626278 -0.088523865 -0.0004387017 0.15156703
000190 6a aa 1d 3d 8c 8a 61 3d c4 1e b2 bd 07 15 25 3e
       0.038492598 0.05506377 -0.08697274 0.16121303
0001a0 02 01 5f 3e 45 78 3d 3e 73 7b 07 3e 5e 21 ab 3b
       0.21777728 0.1850291 0.13230686 0.0052224835
0001b0 49 16 aa bd 98 c4 16 3d 47 ba 2e 3e 06 ee c2 3d
       -0.08305032 0.03680858 0.17063247 0.095180556
0001c0 93 64 ff 3c 98 d5 1e 3d 81 38 1f 3e 3d b7 5d 3d
       0.031175887 0.038777918 0.15548898 0.054129828
0001d0 3e b7 49 3c 8d af 18 3e 20 9f 06 3d 45 a4 71 3c
       0.012311755 0.14910717 0.032866597 0.014748638
0001e0 07 1a 06 3e c9 f5 8c bc 1d 70 b9 3d 6c 26 e1 3c
       0.13095866 -0.017207043 0.09054587 0.027484141
0001f0 41 89 1b 3d a1 cb e0 3d 14 c0 1f 3d 01 68 a9 bd
       0.037972692 0.10976339 0.03900154 -0.0827179
000200 29 a0 8f 3d 24 52 3b 3e de c9 9a bd 24 38 6b bc
       0.0701297 0.18293053 -0.07558034 -0.014356647
000210 7c 3b 1d be 7a 7f ec bc 8c 20 36 bd 6e 33 6d 3d
       -0.15354723 -0.02886938 -0.044464633 0.057910375
000220 10 d4 90 3d 1d 2c 06 3e 5b 6d ed 3d 3a 1a cd bc
       0.07071698 0.13102765 0.115931235 -0.02503692
000230 57 ab 97 bc 0f b3 90 bd 08 ac 26 be 1d 61 5c bc
       -0.018514318 -0.07065403 -0.16276562 -0.013450888
000240 88 b9 1a 3e 8c 86 d7 3d ac b3 38 bd b5 07 8b 3d
       0.15109837 0.1052371 -0.045093223 0.067885794
000250 f7 27 0a bc ba 12 c6 bc 4e 51 23 bd b3 82 0e be
       -0.00843238 -0.024178851 -0.03987246 -0.13917045
000260 be 25 f4 bc 9b 91 07 3d ad 0f b9 bd 00 a7 51 3c
       -0.029803153 0.033097845 -0.09036193 0.012796164
000270 0f 77 e2 bc 21 e3 bd bd 9f fb b3 3c c6 aa 31 3e
       -0.027644662 -0.09271837 0.021970568 0.17350301
000280 85 15 f1 bd f6 5c 84 ba 3d bf a6 bc ac 77 b8 3b
       -0.11771683 -0.0010098505 -0.020354861 0.0056295004
000290 25 6e 80 bd dc 62 18 3d c6 3d 2c bc 39 b9 1e 3d
       -0.062710084 0.037203655 -0.010512775 0.03875086
0002a0 90 66 a7 3d 75 b8 95 bd ab 42 92 bd d6 f3 34 3e
       0.08173859 -0.07310573 -0.07141622 0.17671141
0002b0 d5 56 9d bc eb f4 a8 3d a2 70 ce bc 85 69 cc 3c
       -0.019206444 0.082498394 -0.025200192 0.02495266
0002c0 63 08 1e be a5 71 0a 3e d1 3b 98 3d 77 25 b8 3d
       -0.15432887 0.13519914 0.07433284 0.08991521
0002d0 d5 57 70 bd 27 f3 8d 3d a3 39 f2 3d 06 1f 83 3d
       -0.058677513 0.06931143 0.118273996 0.064024016
0002e0 69 d9 07 be 7e df 81 3c 4d d1 b9 bc de e6 01 be
       -0.13266529 0.01585364 -0.02268281 -0.12685725
0002f0 a2 72 31 3c ac 48 14 3c 74 f6 70 3d 50 3b 17 3d
       0.010830553 0.009050529 0.058828786 0.0369218
000300 92 19 94 3d dd 59 21 3e da 63 ff 3d f4 c0 f6 3d
       0.0723144 0.15756936 0.12470217 0.12048522
000310 f7 f0 ab 3c f3 8b 1e 3d 07 fa b5 3c 7b 20 f7 3d
       0.020988924 0.038707685 0.022213949 0.12066742
000320 cd 9a 80 bd 7a 6b 26 be 08 88 82 3d b1 09 af 3c
       -0.06279526 -0.16251937 0.06373602 0.021366926
000330 82 a1 2c bd e9 2f cd bc 0b d7 6f 3e 93 f1 a0 bd
       -0.042146213 -0.02504726 0.23421876 -0.078585766
000340 48 d0 20 3d 8e 70 94 bc 5d d3 23 3e 5d 71 96 3c
       0.039261132 -0.018120077 0.15998597 0.018364603
000350 d5 5b a6 3d f4 c3 5e 3d e3 15 d3 3d 16 db 24 bd
       0.08122984 0.054386094 0.10306909 -0.040248
000360 a9 3e 2c bd cc b5 83 3c 85 dd 8a 3d a7 f7 a1 3d
       -0.042051945 0.016077898 0.06780533 0.07908564
000370 03 26 42 3d 10 69 c5 3d 63 bc ee 3c 79 28 b9 bd
       0.047399532 0.0963918 0.029142564 -0.09040923
000380 50 ac 23 3e 2e 33 58 bd 2c de 3d 3e ad 64 c3 bb
       0.15983701 -0.052783184 0.18541783 -0.005962929
000390 47 a4 d0 bd e8 5f 3c bd 5f e1 ed bc 65 a7 3e 3e
       -0.101875834 -0.0459899 -0.02903813 0.18618543
0003a0 40 ec af 3b 35 d5 2c 3d 64 d0 88 3d d3 92 f5 bd
       0.0053687394 0.042195518 0.06680372 -0.11990895
0003b0 7a b1 f7 3d 89 91 16 3c 0d fc 42 3e d9 68 bf 3c
       0.12094398 0.009189972 0.19041462 0.023365425
0003c0 d7 29 e6 3d 9b 6c 1f 3e 67 41 94 bd b6 11 40 3e
       0.11238449 0.15568773 -0.07239037 0.18756756
0003d0 b5 ce c5 3c 76 0e c6 3d 69 57 c9 bc 19 fe e8 38
       0.024146417 0.09670727 -0.024577813 0.000111099514
0003e0 51 11 36 3e 15 87 18 3e 31 48 28 bc b8 ab 88 bd
       0.17780043 0.1489528 -0.010271118 -0.06673378
0003f0 68 8a 8b bd cf f2 73 bd 98 51 f4 3d cc 9a 5a bc
       -0.06813508 -0.059557732 0.11929625 -0.0133425705

fc3.weight f4 [2, 360]
000000 4d d7 c8 bd de 29 a5 3e 3f c0 46 bd ed 8f 2a ba
       -0.0980669 0.32258505 -0.048523184 -0.0006506432
000010 36 06 f7 bc 81 88 7c 3e 09 08 1b be 5c ed 5e 3d
       -0.030154329 0.24661447 -0.15139784 0.054425582
000020 ee a8 2a 3e 56 d2 db bd 86 9d 9b bb 69 c7 e6 bd
       0.16666004 -0.10733478 -0.004749003 -0.11268503
000030 9e c5 85 3e 0d 24 67 bd 81 8e ce bb 93 6f e5 bc
       0.26127332 -0.056430865 -0.006303609 -0.028007304
000040 31 f9 3c bd da 24 0f bc 96 23 a2 bd d2 66 a0 3c
       -0.046136085 -0.008736813 -0.07916944 0.019580279
000050 b6 68 86 be d1 d2 a6 bb a0 d5 6a bd 60 e5 83 bd
       -0.26251763 -0.0050910492 -0.057332635 -0.06440234
000060 c1 47 b3 bd 92 bf aa ba 5a e5 66 3a bf 24 60 3c
       -0.0875392 -0.0013027063 0.000880798 0.013680636
000070 fe 84 34 b9 15 65 be bd a6 97 40 bd a7 f6 a2 be
       -0.00017215681 -0.092966236 -0.047019623 -0.31828806
000080 a0 2e 91 3e 26 97 af 39 bc 40 8c bd 73 dd e3 bd
       0.28355885 0.00033491215 -0.068482846 -0.111262225
000090 c6 07 87 bd 27 73 65 bd c8 5f c6 bc d3 6b d4 3b
       -0.065932795 -0.05601802 -0.024215594 0.00648258
0000a0 ce 06 a9 bd e8 4d 1f bd 82 c1 58 bc f0 43 fb ba
       -0.08253251 -0.038892657 -0.01322973 -0.0019170027
0000b0 85 35 5c bc 93 ad 98 bc be 13 59 ba 2f da 16 bc
       -0.013440494 -0.018637454 -0.0008280835 -0.009207292
0000c0 75 f3 65 bd 92 c3 5a 3c 06 97 d6 3b b0 98 2a bc
       -0.05614038 0.013352292 0.006548765 -0.01041238
0000d0 12 25 57 3e af 7e 07 bd 17 a0 0c bd dc 9d c0 3e
       0.21010235 -0.0330798 -0.03433236 0.37620437
0000e0 ac de 44 bd f2 e7 6e 3e df 8b d6 bc 6c ab be 3d
       -0.04806392 0.23330668 -0.026189743 0.0931004
0000f0 2f 39 45 ba 76 d3 3f bd 24 53 b7 3e 64 9f 10 bd
       -0.00075234746 -0.046832524 0.3580562 -0.035308257
000100 71 9c b9 3b f7 0f 84 3e 1e 08 93 3e 92 cf 46 bc
       0.005664401 0.2579343 0.2871713 -0.01213445
000110 18 47 36 bd 02 14 df bd 14 71 dc 3e 48 f2 22 bd
       -0.044501394 -0.10892488 0.43055022 -0.03978184
000120 bf 6d 91 bc 5d 9c c2 3e 69 c5 bd 3e a4 d8 6d bd
       -0.017752526 0.3800992 0.37064674 -0.058067933
000130 a7 6e 62 3d bc 45 1d be 10 89 03 3e 92 44 9a bc
       0.055281308 -0.15358633 0.12845254 -0.018831525
000140 ab 78 e2 ba 61 35 82 3b 43 0c 98 bd 5a 4a 64 3b
       -0.0017278393 0.0039736484 -0.07424214 0.0034834356
000150 1c 31 a9 3e 85 74 4d 3e c7 63 88 3e bf 6e 24 bb
       0.3304528 0.2006398 0.26638624 -0.0025090424
000160 0c 50 74 bd c6 96 fc bc fa 2e ae bc 58 43 96 ba
       -0.05964665 -0.030833613 -0.021262635 -0.0011464162
000170 14 8e d0 3e d1 66 1e bd 2f e7 59 3e 7c 8b 4f bc
       0.40733397 -0.038672272 0.21279596 -0.012667533
000180 26 cd 35 3e 41 24 17 be 4a d6 ae 3e f2 c9 99 bc
       0.17754039 -0.14759924 0.34147865 -0.018773053
000190 dd 7b 06 bc 79 81 32 bd e8 67 8d bb 6e 58 d4 bc
       -0.008208242 -0.043580506 -0.004315365 -0.025921073
0001a0 a7 fb 28 bc 49 55 9f 3b 80 77 62 3c fa 07 a9 3b
       -0.010313905 0.0048624617 0.013822436 0.0051584216
0001b0 fc 03 6e bc b6 77 d4 3e 16 3c 08 bb 87 75 6d 3e
       -0.014527317 0.41497582 -0.0020787767 0.23189364
0001c0 43 f1 d4 bd 87 c2 3c bc de d1 2d bd 9e 00 3d bd
       -0.103975795 -0.011520988 -0.042436473 -0.046143167
0001d0 6e 07 83 bd d1 01 c6 3c 06 2b 89 3e 02 ef 89 3e
       -0.063979015 0.024170788 0.26790637 0.2694016
0001e0 2c ff b3 3b 02 43 85 bd e6 1c 51 bd 06 be 10 be
       0.0054930653 -0.06506921 -0.05105295 -0.14134988
0001f0 cd 79 c6 3e 1c f1 3c bd 23 4a 18 bd 01 df cb 3d
       0.38764802 -0.046128377 -0.037180077 0.09954644
000200 16 16 16 3b c6 d8 90 bc b0 ba 69 be 7b 3c b9 bd
       0.0022901348 -0.01768149 -0.22825122 -0.09044739
000210 76 b3 2c 3e 9f 83 fe bd 95 9e 95 3c 3f 7a 83 bc
       0.16865334 -0.124274485 0.018264094 -0.016049502
000220 43 86 12 3e 3e 2a aa b9 17 8c 39 bc 3a f5 8e 3d
       0.1430903 -0.000324564 -0.011324904 0.06980367
000230 f3 09 d2 bd 00 1c 03 be 09 27 83 bc 57 e2 3e bd
       -0.10255804 -0.1280365 -0.016009824 -0.046602573
000240 d9 28 7b 3d b6 72 2c bb d8 5a 05 be 7d d3 a0 3e
       0.061318252 -0.002631349 -0.13022935 0.31411353
000250 af ea a9 bd a9 68 95 bd d8 e7 f1 bd cb 0e 66 bc
       -0.082967155 -0.07295353 -0.11811799 -0.014041613
000260 53 8c 85 bd 87 5b 9f bd d9 95 ba bd ea 62 8e 3b
       -0.06520905 -0.07781129 -0.091106124 0.0043452876
000270 14 0e 7a bd b2 1e 6e be 1d c8 ad 3e 9a f8 df 3a
       -0.061048582 -0.23253897 0.33941737 0.0017087639
000280 cd 02 e7 bd b3 ab f5 bb c4 bc 26 bb 7c 35 ce 3b
       -0.11279831 -0.007497275 -0.0025442103 0.006292997
000290 23 fb c6 3c b0 1b 87 bb ca 1c b4 bc c5 c0 15 3e
       0.024289673 -0.0041231737 -0.021986384 0.14624317
0002a0 da 4b d1 3d 12 6d a5 bd a7 70 11 be 0c 58 21 3d
       0.10219546 -0.08077444 -0.1420313 0.03939061
0002b0 ab dc 7c bb d6 fc 6b 3e 61 99 a7 bc ce da f8 3a
       -0.0038583677 0.23045668 -0.020458879 0.0018986107
0002c0 94 11 57 bd a6 73 5a 3c 38 d2 72 3d 15 24 51 3e
       -0.052507 0.013333237 0.05928251 0.2042392
0002d0 ae 4f f4 bd 77 4e 49 bd 53 ba 91 3b 2f b6 f5 3e
       -0.1192926 -0.049147096 0.0044472604 0.47990558
0002e0 75 d2 88 bc 17 54 ef 3b 50 f4 3c bb ac 46 09 bc
       -0.016701916 0.0073037255 -0.0028832145 -0.008378666
0002f0 79 8f 2f bd 43 ca 87 bd 71 05 fe 3d d1 a5 4d 3e
       -0.042861436 -0.06630375 0.124033816 0.20082785
000300 8c 6b c7 3e 29 72 69 bc ce f2 22 3c 02 6a 5d 3d
       0.3894924 -0.014248409 0.009945584 0.054056175
000310 32 87 36 3b 5f eb ab 3d 39 c8 81 3c 1f 49 93 3d
       0.0027851579 0.08394503 0.015842544 0.07191681
000320 9b d7 27 be 2d 8c 70 3e 0e 40 a4 bd 2e 89 cc 3a
       -0.1639084 0.23490973 -0.0802003 0.0015604848
000330 a5 30 e3 ba 54 84 07 be cb d9 bb bc 2b ac 31 be
       -0.0017333223 -0.13234073 -0.022931 -0.17350833
000340 fb 1e 72 bd 35 5e 22 3e a8 03 01 bd 0c 7b 29 3e
       -0.059111577 0.1585625 -0.031497627 0.16550845
000350 76 0d 62 bd 91 57 aa bd aa e1 8b bd e7 9d 51 bd
       -0.05518862 -0.08317483 -0.068301514 -0.051175978
000360 70 e0 a4 bc 8d f0 96 bc 9a 50 b4 3d 08 6b c4 bd
       -0.020126551 -0.01842525 0.08804436 -0.09590727
000370 b6 bb cc 39 41 0a 4f bd 28 fe 56 bd 7d 1f 31 be
       0.00039049768 -0.05054689 -0.052488476 -0.17297168
000380 af 86 23 bd b1 8a f6 bd 76 57 af ba ae 54 ac bb
       -0.039923366 -0.12038172 -0.0013377506 -0.005259118
000390 7e 5a 5b 3d 54 f8 65 bc 08 15 19 bd 37 b9 0e 3b
       0.053553097 -0.014036257 -0.037373573 0.0021777877
0003a0 4e 2a 81 bd f4 b1 00 3e c3 e3 f0 3d 46 64 14 bd
       -0.06306897 0.12567884 0.11762192 -0.03622844
0003b0 92 8c 05 3e 60 62 98 3b 5d fb 86 bb b6 3f bd 3d
       0.13041905 0.004650399 -0.0041193203 0.092406675
0003c0 1f 11 ba 3b 0c f2 52 bc 68 63 78 3d 14 b8 d5 bc
       0.0056783105 -0.012875091 0.060641676 -0.026088752
0003d0 64 eb 1d 3e 45 6a e2 bb 9e 8d eb bd 8f ae 5a 3e
       0.15421826 -0.006909641 -0.11501621 0.21355651
0003e0 8b 96 41 bd df 94 99 b9 49 71 f4 bd 26 38 12 be
       -0.04726271 -0.00029293352 -0.1193567 -0.14279231
0003f0 4f 23 5c 3b 31 d0 71 be 92 0a c8 3c 71 0c 23 bd
       0.0033590381 -0.23614575 0.024419103 -0.039806787

fc3.bias f4 [2]
000000 b5 99 b5 3d f6 d9 27 3e
       0.08867208 0.16391739
