checkpoint_critic0.pth (torch_old, 746011 bytes, 5 tensors)

fc1.weight f4 [480, 24]
0	0x3d091dc3	0.03347565
1	0xbdb30dcf	-0.08742868
2	0xbc91f1d3	-0.017815506
3	0xbc41ec0c	-0.011836063
4	0x3c9b0ce4	0.018927045
5	0x3d1c7c2d	0.03820436
6	0x3c8b3253	0.01699177
7	0x3ca7fb91	0.020505698
8	0x3ca1e172	0.019760821
9	0xbe142a23	-0.14469199
10	0xbb915784	-0.0044354815
11	0xbd062c94	-0.032757357
12	0xba929c27	-0.0011185453
13	0x3cb7b775	0.022426346
14	0x3c1490e8	0.0090677515
15	0x3c88310a	0.016624946
16	0xbceef7ac	-0.029170834
17	0xbdfae599	-0.122508235
18	0x3cc1cdcd	0.023657704
19	0x3c82ffd5	0.01599113
20	0xbdcac342	-0.09900524
21	0xbea15365	-0.31508937
22	0xbcd6ba9a	-0.026212025
23	0xbccb0677	-0.024783356
24	0xbcec4ddf	-0.028845726
25	0x3d45241d	0.048130143
26	0xbd3d28db	-0.04618154
27	0xbd447cec	-0.047970697
28	0xbda0ef0c	-0.078580946
29	0xbd8b8e68	-0.06814271
30	0x3c8648b0	0.016392082
31	0x3cc4ee9a	0.024039555
32	0x3d44e161	0.0480665
33	0x3ddb1bb0	0.1069864
34	0xbb88b50d	-0.0041719736
35	0xbd8dcabc	-0.06923434
36	0x3d590b40	0.052989244
37	0xbdb549cd	-0.08851967
38	0x3c776b4f	0.015101268
39	0xbcf5c187	-0.029999508
40	0x3d6d9cc5	0.058010835
41	0x3dd8e893	0.10591235
42	0xbcb26298	-0.021775529
43	0x3c079349	0.008274862
44	0x3dec37ef	0.11534106
45	0xbd0237c0	-0.03179145
46	0xbba71bb5	-0.0050997385
47	0x3d371be6	0.04470434
48	0xbc314b5f	-0.0108211925
49	0xbd6b8a46	-0.057504915
50	0xbc1002a3	-0.008789691
51	0xbc72531c	-0.014790323
52	0xbd202ea6	-0.039106987
53	0xbd1ffecf	-0.039061364
54	0x3c6e967e	0.014562247
55	0xbd06ddd0	-0.03292638
56	0x3d057bef	0.032588895
57	0xbd71042b	-0.058841866
58	0x3cc4fa90	0.024045259
59	0x3c0a2794	0.008432288
60	0xbc1bec9e	-0.009516863
61	0xbded5575	-0.11588565
62	0xbbb625e1	-0.0055587147
63	0xbc9aab26	-0.018880438
64	0x3d2ccdc8	0.042188436
65	0xbcfaac0f	-0.030599622
66	0xbbb985e8	-0.005661715
67	0xbbffe225	-0.007808941
68	0xbd6872fa	-0.056750275
69	0xbcda0fc5	-0.026618848
70	0x3c902456	0.017595451
71	0xbc0ac8b5	-0.008470704
72	0xbd0a6aa5	-0.03379311
73	0x3d7bf2aa	0.06151072
74	0xbc85ea2e	-0.016347017
75	0x3c5e0c16	0.013552686
76	0xbd050121	-0.03247178
77	0xbae2d92f	-0.0017307157
78	0x3a3fe06c	0.0007319513
79	0xba75fd0e	-0.00093837164
80	0xbd08c218	-0.033388227
81	0x3ca5c2b9	0.020234453
82	0x3ce09652	0.027415428
83	0xbc13d8ea	-0.009023884
84	0x3d842ce6	0.06453876
85	0xbdadda92	-0.084889546
86	0xbbf9b243	-0.0076201274
87	0x3d076fce	0.03306561
88	0xbd2dd67f	-0.042440888
89	0x3ca05459	0.01957147
90	0xbc3069a3	-0.010767373
91	0x3bb91b62	0.0056490162
92	0x3d845105	0.06460766
93	0xbe88fc8b	-0.26755175
94	0xbaef9954	-0.0018279948
95	0xbcc6cde5	-0.0242681
96	0x3aa454c7	0.0012537473
97	0x3c056f28	0.0081441775
98	0xbd0e4b36	-0.034739695
99	0xbc7d918f	-0.015476598
100	0xbc900ecf	-0.017585186
101	0xbd51683c	-0.051124796
102	0x3ce144b8	0.027498588
103	0x3cbb3d45	0.022856364
104	0xbc7ca2c2	-0.015419664
105	0x3bbd58ea	0.0057784216
106	0x3aa454a2	0.001253743
107	0x3b00f8eb	0.0019679617
108	0xbd3a0f51	-0.045424763
109	0xbcbe7876	-0.0232508
110	0x3b943f41	0.004524142
111	0x3ab1369e	0.0013520306
112	0x3d5935a3	0.053029668
113	0xbcee60c5	-0.029098878
114	0x3c63bfc8	0.013900705
115	0x3cccfc89	0.025022762
116	0x3d8d4110	0.06897175
117	0xbe057209	-0.13031782
118	0xbce7c207	-0.028290762
119	0x3d96a008	0.07354742
120	0x3ddc51a7	0.107577614
121	0x3e09b204	0.13446814
122	0xbca34ccd	-0.019934082
123	0xbd3879d0	-0.045038044
124	0x3d291ffe	0.041290276
125	0xbdac4bd3	-0.084129
126	0xbcbc42c6	-0.022981059
127	0xbc903655	-0.017604033
128	0x3cabd6ac	0.020976387
129	0x3dd45264	0.10367277
130	0x3b5c3651	0.003360171
131	0xbc6ffe21	-0.014647991
132	0xbc14c3b2	-0.0090798605
133	0xbdb57180	-0.08859539
134	0xbc988abd	-0.018620843
135	0xbd3939a1	-0.045220975
136	0x3daaf1c4	0.083468944
137	0x3dec47c7	0.11537128
138	0xbd268f74	-0.04066415
139	0xbda2004d	-0.079102136
140	0xbcdacd86	-0.02670933
141	0xbd371ee3	-0.04470719
142	0x3d170e42	0.03687883
143	0xbda4b8a0	-0.08043027
144	0x3b3cfd99	0.002883768
145	0x3cdfcf9c	0.027320676
146	0x3d31ba03	0.043390285
147	0x3d30479e	0.04303705
148	0x3b79c74d	0.0038113177
149	0xbe303e3b	-0.17211239
150	0xbd2216a7	-0.039572384
151	0x3d7d4ff2	0.06184382
152	0xbd19636e	-0.03744834
153	0x3d4e8ca2	0.050427087
154	0xbca2c3d2	-0.019868765
155	0x3c872c33	0.016500568
156	0x3d01e11c	0.03170882
157	0xbe0003c2	-0.12501433
158	0x3ccdba19	0.025113152
159	0x3d731130	0.059342563
160	0xbd3a3620	-0.045461774
161	0xba6799a5	-0.00088348455
162	0x3ba3f383	0.005003394
163	0xbdb61a2e	-0.08891712
164	0x3c4924c0	0.012276828
165	0xbd0650cf	-0.03279191
166	0xbcc67fe6	-0.024230909
167	0xbdaf07a3	-0.085463785
168	0xbd3fc957	-0.046822872
169	0x3d7473cc	0.059680745
170	0xbc8109ba	-0.015751708
171	0x3b23bc9e	0.002498425
172	0x388d68d6	6.742931e-05
173	0xbe527b37	-0.20554815
174	0x3cddc04f	0.027069239
175	0xbd8bfb0a	-0.06834991
176	0x3d575ff8	0.052581757
177	0x3c18fa9c	0.009337094
178	0xbbdec6ca	-0.0067986
179	0x3aa06baf	0.0012239123
180	0xbd7204a1	-0.059086446
181	0xbe2c3349	-0.16816439
182	0x3c27883d	0.010225353
183	0x3d0c96da	0.03432355
184	0x3d6a91ed	0.057268072
185	0x3d84accc	0.06478271
186	0x3b412a77	0.0029474774
187	0x3cbcfb76	0.023069125
188	0x3d9190a8	0.07107669
189	0x3d33b184	0.043870464
190	0x3c8bde79	0.017073857
191	0xba88901a	-0.0010418922
192	0x3c89229d	0.016740138
193	0x3cb9bdfd	0.022673601
194	0x3d1c8534	0.03821297
195	0xbbd624d6	-0.006535153
196	0x3c571ed5	0.0131299095
197	0x3c2f8e10	0.010715023
198	0xbd036ae7	-0.032084372
199	0x3b3ef789	0.0029139242
200	0xbc194da9	-0.0093568945
201	0x3db605d3	0.0888783
202	0xbc900dac	-0.017584644
203	0x3d04e307	0.032443073
204	0x3d6da40c	0.058017775
205	0xbda0917b	-0.07840248
206	0x3c33cd21	0.0109741995
207	0xbccbf52e	-0.024897184
208	0x3c52acc7	0.012858576
209	0x3db6d1fc	0.0892677
210	0x3cb39630	0.0219222
211	0xbc256eeb	-0.010097246
212	0xbbf4db53	-0.0074724345
213	0xbe1a0c05	-0.15043648
214	0xbca90278	-0.02063106
215	0x3cdc3901	0.02688265
216	0x3d21fb38	0.03954622
217	0x3d267381	0.040637497
218	0xbbce10d8	-0.006288629
219	0x3a63857c	0.00086792535
220	0x3c039a78	0.008032434
221	0x3c3a0ac1	0.011355103
222	0xbc03db61	-0.0080479095
223	0x3aa68ec0	0.0012707338
224	0x3c3e38b6	0.011610201
225	0xbc2a27dd	-0.010385481
226	0x3c4f5f13	0.012656945
227	0x3c781543	0.015141788
228	0x3c25f8af	0.010130092
229	0x3dbe4288	0.092900336
230	0xbc4887be	-0.012239395
231	0xbd226816	-0.039650045
232	0x3d38b1ff	0.045091625
233	0x3c338f18	0.010959409
234	0x3be0c463	0.0068593486
235	0xbc84132e	-0.016122427
236	0x3cb17d20	0.02166611
237	0xbe2d7094	-0.16937476
238	0xbc8e7f1c	-0.017394595
239	0xbcac9860	-0.021068752
240	0xbc23bf36	-0.009994319
241	0x3d31767f	0.043325897
242	0xbbd1f241	-0.0064070527
243	0xbc07dc1a	-0.008292222
244	0x3d30f924	0.04320635
245	0x3c8ff984	0.017575033
246	0xbc07c47e	-0.0082865935
247	0xbd84e5a0	-0.0648911
248	0x3cc3c38f	0.02389696
249	0x3d1aaf16	0.03776463
250	0xbc09d49d	-0.008412507
251	0xbcfb51c5	-0.03067864
252	0x3d2e496e	0.042550497
253	0xbc11414b	-0.008865665
254	0xbc4674db	-0.012112821
255	0x3bbe5d5d	0.0058094696

fc1.bias f4 [480]
0	0x3e9768ef	0.29572245
1	0xbdacd598	-0.08439177
2	0x3e16b643	0.14717965
3	0x3e1e17ce	0.15438768
4	0xbe0436db	-0.1291155
5	0x3d94ffb8	0.07275337
6	0xbe22c495	-0.15895303
7	0xbe2acdc1	-0.16680051
8	0x3b091439	0.0020916595
9	0x3abbd325	0.0014329894
10	0x3e002b93	0.12516622
11	0x3dcadfcb	0.09905966
12	0xbd64187f	-0.055687424
13	0x3e5e02fd	0.21680827
14	0x3d8bfe3b	0.068356
15	0xbe058fa2	-0.13043073
16	0xbd8aece9	-0.06783468
17	0x3e2765a6	0.1634737
18	0x3e2bdd91	0.1678374
19	0xbdc1b740	-0.0945878
20	0x3dc85d6d	0.097834446
21	0xbe410ce1	-0.18852569
22	0xbd9a972d	-0.07548366
23	0xbdca69f4	-0.0988349
24	0xbde8d9df	-0.113696806
25	0xbe0e693d	-0.13907333
26	0xbd1d0e88	-0.038343936
27	0xbdc5e580	-0.09662914
28	0x3d48fc03	0.049068462
29	0xbd28cf30	-0.041213214
30	0xbc6b59e3	-0.014364692
31	0xbde218da	-0.11039896
32	0xbe073595	-0.13204034
33	0x3db09f95	0.08624188
34	0x3d95c0df	0.07312178
35	0xbe467936	-0.19382176
36	0xbd1bc2b1	-0.03802747
37	0x3e155df4	0.14586622
38	0xbe25817b	-0.16162674
39	0xbd9ce083	-0.0766001
40	0xbe7bf286	-0.24604234
41	0xbd1a20ba	-0.037628867
42	0xbe56c56a	-0.20973745
43	0xbe5c9304	-0.21540457
44	0x3b489f0f	0.0030612384
45	0xbe800ec8	-0.25011277
46	0xbd85def5	-0.06536666
47	0xbd58f8d3	-0.052971672
48	0x3e22c7e3	0.15896563
49	0x3cb5773d	0.022151584
50	0xbe6ae695	-0.22939523
51	0x3d58f0bc	0.052963957
52	0xbdcc8b90	-0.09987557
53	0xbdb6e390	-0.08930123
54	0x3d421dab	0.047391575
55	0x3e16320a	0.14667526
56	0xbe272985	-0.16324432
57	0xbe629b51	-0.22129561
58	0x3c2d9f14	0.010597009
59	0x3d493570	0.049123228
60	0xbe1b1b1d	-0.15147062
61	0xbe7c062f	-0.24611734
62	0xbd4b606d	-0.049652506
63	0xbe649a9d	-0.22324605
64	0xbd6f13d9	-0.058368538
65	0xbdad4416	-0.08460252
66	0xbdb5ba3f	-0.08873414
67	0xbd3762fd	-0.044772137
68	0x3e2f0ecf	0.17095493
69	0x3bf76d6b	0.0075508854
70	0xbcbcd32a	-0.02304991
71	0xbe16a365	-0.14710768
72	0x3d711879	0.05886123
73	0xbdb17af5	-0.0866603
74	0xbc2292c1	-0.009922684
75	0x3e2552c3	0.16144852
76	0xbe1c8bdc	-0.15287727
77	0x3e4d1ab7	0.20029722
78	0xbdc89c6f	-0.09795462
79	0x3de1b384	0.11020568
80	0xbd8c122c	-0.068394035
81	0x3d25e790	0.04050404
82	0x3e4b3068	0.19842684
83	0xbe722372	-0.23646334
84	0xbe54ed46	-0.20793638
85	0xbe1725a5	-0.14760454
86	0x3e8417dc	0.25799453
87	0xbd8ca9d3	-0.06868329
88	0x3db57121	0.08859468
89	0xbe3a1245	-0.18171032
90	0x3dedd066	0.116120145
91	0xbe7d3f07	-0.24731074
92	0xbe539f7b	-0.20666306
93	0x3d3c2ade	0.04593932
94	0x3e203553	0.15645342
95	0xbe331461	-0.17488243
96	0xbdba3444	-0.09092
97	0xbd80eb26	-0.06294851
98	0xbe1c7a89	-0.15281118
99	0x3db61b20	0.088918924
100	0x3e203b39	0.15647592
101	0xbcf063db	-0.02934449
102	0xbb89bf58	-0.004203718
103	0xbd0f1a99	-0.034937475
104	0xbdf144c5	-0.11780695
105	0xbd9c34d6	-0.07627265
106	0xbe335c01	-0.17515565
107	0x3ddbe6e0	0.10737395
108	0xbd57bbd9	-0.05266938
109	0xbe8e8b84	-0.27840817
110	0x3d87445e	0.06604837
111	0x3d6fd11d	0.058549035
112	0xbe78a2bd	-0.2428083
113	0x3d7cffe0	0.06176746
114	0xbdc362c9	-0.09540326
115	0xbe582c60	-0.21110678
116	0xbe1e534b	-0.15461461
117	0xbe44bbdc	-0.19212288
118	0x3da4fe26	0.080562875
119	0xbd011440	-0.031513453
120	0xbd5f5a39	-0.054529402
121	0xbe2541f7	-0.16138445
122	0xbe53d935	-0.20688327
123	0xbe9455a4	-0.2897159
124	0xbe23a11f	-0.15979432
125	0xbe0b0b60	-0.13578558
126	0xbc21b555	-0.009869893
127	0x3dbb32cb	0.09140547
128	0xbe8bd188	-0.27308297
129	0xbe1c9ebb	-0.15294926
130	0x3e198683	0.14992718
131	0xbe09dbee	-0.13462803
132	0x3e169b1e	0.1470761
133	0x3da64416	0.08118455
134	0x3c9d64a7	0.019213034
135	0xbe8fd21a	-0.28089982
136	0x3e6b3096	0.22967753
137	0x3d6f21f9	0.05838201
138	0xbe0cb4a8	-0.1374079
139	0x3d6e8ad9	0.058237884
140	0xbe5e0a35	-0.21683581
141	0xbe1a04b6	-0.1504086
142	0xbe46a96c	-0.19400567
143	0x3dd73bbb	0.105094396
144	0xbde33da3	-0.11095741
145	0x3e0a0490	0.13478303
146	0x3e33e6ca	0.17568508
147	0x3e257f0a	0.16161743
148	0x3e4d69d7	0.20059906
149	0xbe7bc4b0	-0.24586749
150	0x3d18ab13	0.037272524
151	0xbe4b58f3	-0.1985815
152	0x3b5919f5	0.0033127044
153	0x3cfb092f	0.030644028
154	0xbe60c3b5	-0.21949656
155	0x3e1c2186	0.15247163
156	0xbc6e3ee0	-0.014541358
157	0x3df43fa2	0.119261995
158	0xbdb631f4	-0.088962466
159	0xbd6346c7	-0.05548742
160	0xbc947a25	-0.01812465
161	0xbe6155e1	-0.22005416
162	0xbe485f39	-0.19567575
163	0xbdef6f34	-0.11691132
164	0x3cd6a4d5	0.026201645
165	0x3dca0c89	0.09865672
166	0xbcbb8802	-0.022892002
167	0x3d5e9d87	0.05434945
168	0x3d44da63	0.048059832
169	0xbe8cc2a5	-0.27492252
170	0xbd8e5f29	-0.06951744
171	0x3e19764b	0.14986531
172	0xbdcbfcc7	-0.09960323
173	0xbe7c9b67	-0.24668656
174	0xbdd6768c	-0.1047183
175	0xbcda5874	-0.026653506
176	0xbe18ab32	-0.14909056
177	0xbe751356	-0.23933157
178	0x3e3c66c3	0.18398575
179	0xbe11b507	-0.14229213
180	0x3e0efe9e	0.13964316
181	0xbe1128a4	-0.1417566
182	0xbd73deb7	-0.05953857
183	0xbd83f804	-0.064437896
184	0x3bba4f9f	0.005685761
185	0x3e56a323	0.20960669
186	0xbe04b043	-0.12957864
187	0xbe3240ec	-0.17407578
188	0xbd4992e3	-0.049212348
189	0xbd8d6c45	-0.069054164
190	0x3dc87d85	0.09789566
191	0xbe17c6c6	-0.1482192
192	0xbe7269fb	-0.23673241
193	0xbdf37a1e	-0.118885264
194	0xbe2cbfbe	-0.16870019
195	0xbe532f3a	-0.20623484
196	0x3e3c3a66	0.18381652
197	0xbdeb6b50	-0.114950776
198	0xbc64610e	-0.013939155
199	0xbdc81f9e	-0.097716555
200	0xbe0ff089	-0.140566
201	0x3e7345f0	0.23757148
202	0xbcaee707	-0.021350397
203	0xbdfb2abb	-0.122640096
204	0xbb7cb949	-0.0038562587
205	0xbb340276	-0.0027467287
206	0x3df5b42a	0.11997254
207	0xbe142067	-0.14465486
208	0xba0510cf	-0.0005076052
209	0xbe8fcca1	-0.28085807
210	0x3dc2a435	0.09503976
211	0xbd210ac6	-0.039316915
212	0xbd207a2f	-0.039179023
213	0xbe052ff8	-0.1300658
214	0xbd44e1a4	-0.04806675
215	0xbdeeaef0	-0.116544604
216	0x3dc056d4	0.09391561
217	0xbdf22ccb	-0.1182495
218	0x3d855c19	0.06511707
219	0xbe06cde9	-0.13164486
220	0x3deb984a	0.11503656
221	0xbd979f6d	-0.07403455
222	0xbe11298e	-0.14176008
223	0x3d934fbf	0.07192945
224	0xbe01dd8b	-0.12682168
225	0xbe53ef56	-0.20696768
226	0xbe476d46	-0.19475278
227	0x3ddb0257	0.10693806
228	0xbe7aeade	-0.24503657
229	0xbdb85709	-0.09000976
230	0xbe013bfd	-0.1262054
231	0xbd7ddfaa	-0.06198088
232	0xbe768cf0	-0.24077201
233	0x3dc4d1d4	0.09610334
234	0xbe82da27	-0.25557062
235	0x3cc0f17d	0.02355265
236	0x3dafd34e	0.08585225
237	0xbc1a9876	-0.009435764
238	0xbe7a1468	-0.24421847
239	0xbe8b42ff	-0.2719955
240	0xbe591b28	-0.21201766
241	0x3d8e824f	0.06958448
242	0xbccfed1c	-0.025381617
243	0x3d81d629	0.06339676
244	0x3df2e318	0.11859721
245	0xbe775889	-0.24154867
246	0x3d98a763	0.074538015
247	0xbce2acf2	-0.027670357
248	0xbd8f099d	-0.069842555
249	0x3daa6fbc	0.08322093
250	0xbd4f8e0b	-0.050672572
251	0x3e49e1f0	0.19715095
252	0xbe0435e0	-0.12911177
253	0xbe83700a	-0.25671417
254	0x3ccd4db5	0.025061468
255	0xbd3743a8	-0.044742256

fc2.weight f4 [360, 482]
0	0xbbf6a8e0	-0.0075274557
1	0xbc4f5424	-0.012654338
2	0x3d8d3de8	0.06896573
3	0x3e0740e7	0.13208352
4	0xbda78137	-0.08178943
5	0xbd97ac95	-0.07405964
6	0xbbc42ec4	-0.00598702
7	0xbcc09574	-0.023508765
8	0xbd4521db	-0.04812799
9	0xbd12743b	-0.035755377
10	0xbde50d04	-0.11184123
11	0x3cca4c19	0.02469449
12	0x3d529813	0.05141456
13	0x3ca9a6d1	0.020709427
14	0xbc12051f	-0.008912354
15	0xbd8a8eeb	-0.06765541
16	0x3c3392c5	0.010960286
17	0xbd2f311c	-0.042771444
18	0x3cb69253	0.02228657
19	0xbce6e375	-0.028184632
20	0x3d2a01f8	0.041505784
21	0x3cfd3a13	0.030911481
22	0x3bfcab4d	0.0077108503
23	0xbdb3fe82	-0.08788778
24	0xbd7ff753	-0.062491726
25	0x3d211340	0.039325
26	0xbb8ab53d	-0.004233031
27	0xbd290538	-0.041264743
28	0xbcac1460	-0.02100581
29	0xbd9e08ed	-0.07716546
30	0x3c419043	0.01181418
31	0x3c88dec4	0.016707785
32	0xbe205c8f	-0.15660308
33	0x3cb47ec2	0.0220331
34	0xbe0b8340	-0.13624287
35	0x3d5a4832	0.053291507
36	0xbce445ae	-0.027865257
37	0xbc84b9f4	-0.01620195
38	0xbcd68cae	-0.026190128
39	0xbdeb312b	-0.114839874
40	0xbd33ce38	-0.043897837
41	0xbdd5dbe8	-0.104423344
42	0xbdd7de20	-0.10540414
43	0xbde91e75	-0.11382762
44	0xbc229991	-0.009924308
45	0xbe0a087f	-0.13479804
46	0xbc313d1e	-0.010817794
47	0xbc91ef5f	-0.017814336
48	0xbd4916f4	-0.049094155
49	0x3d4eaf4d	0.05046015
50	0x3d4c6d94	0.04990919
51	0x3c3e6fdf	0.011623352
52	0x3d331b59	0.043727253
53	0xbdf03125	-0.117281236
54	0x3c064fb5	0.008197715
55	0xbd297494	-0.041370943
56	0xbb8ee8c8	-0.004361246
57	0x3ce5a2dd	0.02803176
58	0x3da2a15c	0.07940933
59	0xbd66bc98	-0.0563322
60	0x3c9319aa	0.017956574
61	0x3cd79443	0.026315814
62	0x3d87853d	0.0661721
63	0x3d7ac3b8	0.06122181
64	0x3bd8d43c	0.006617097
65	0xbdc70091	-0.09716905
66	0xbdb3c876	-0.08778469
67	0xbd186077	-0.03720137
68	0xbd95d2ea	-0.07315619
69	0x3bf49539	0.007464078
70	0xbc4dadd3	-0.01255365
71	0x3c8ed018	0.017433211
72	0xbcab0713	-0.020877397
73	0x3d983b84	0.07433227
74	0x3d4e132d	0.050311256
75	0xbe0e6999	-0.1390747
76	0xbd88596c	-0.06657681
77	0xbe50714b	-0.20355718
78	0xbdc2c9b7	-0.0951113
79	0x3cb73135	0.02236233
80	0xba71f8e1	-0.0009230506
81	0xbba09a64	-0.0049012173
82	0xbd0e9d2f	-0.03481787
83	0x3b5cfa79	0.003371863
84	0xbd62d8ef	-0.055382665
85	0x3b92cc82	0.0044799456
86	0xbd1ab821	-0.037773255
87	0x3c637e82	0.013885142
88	0xbcb10e4a	-0.021613259
89	0xbd2e9c5a	-0.042629577
90	0x3c782125	0.015144621
91	0xbd0ab978	-0.033868283
92	0xbcb9467d	-0.02261662
93	0xbc0a163c	-0.008428153
94	0x3c8c99a8	0.017163113
95	0x3c525454	0.012837488
96	0xbd0ed4a3	-0.034870755
97	0xbc94164a	-0.018077035
98	0xbca2638c	-0.019822858
99	0xbcd6e52f	-0.02623233
100	0x3dc422e4	0.09576967
101	0xbd252f87	-0.04032853
102	0xbd458156	-0.048219047
103	0xbcf7f554	-0.030268349
104	0x3d2bed94	0.04197462
105	0xbc24d76e	-0.010061128
106	0x3c003203	0.007824424
107	0xbd0fabce	-0.035075955
108	0x3cba1d62	0.022719089
109	0xbd8fca31	-0.07020987
110	0x3b97a51c	0.004627837
111	0x3ba268fe	0.0049563637
112	0xbd48688d	-0.048927832
113	0xbcd236b2	-0.025660846
114	0xbce15ae6	-0.027509164
115	0xbdad05a7	-0.08448344
116	0xbcb94cca	-0.022619624
117	0xbdc5d0e1	-0.09658981
118	0x3bc3646c	0.005962899
119	0x3d5022f6	0.05081459
120	0xbc4f337f	-0.012646555
121	0xbda697ea	-0.08134444
122	0xbcc77cd7	-0.02435152
123	0x3be68937	0.0070354003
124	0xbd6a4527	-0.057194855
125	0x3d09c9e8	0.03363982
126	0xbc842e94	-0.016135491
127	0xbd3d5ef9	-0.04623315
128	0xbcf0d4f3	-0.029398417
129	0x3d00e906	0.03147223
130	0xbd4d670a	-0.050147094
131	0xbca74fe1	-0.020423831
132	0xba1b7895	-0.0005930749
133	0xbd97af59	-0.07406492
134	0x3d394924	0.045235768
135	0xbc84b631	-0.016200157
136	0x3c70b36e	0.014691217
137	0xbc60f82d	-0.013731045
138	0xbe09ae66	-0.13445434
139	0xbd374bc0	-0.044749975
140	0xbd409075	-0.047012765
141	0xbd814038	-0.06311077
142	0xbcdfd4e0	-0.027323186
143	0xbc905b69	-0.017621713
144	0x3d68a537	0.056798186
145	0xbd3e4bca	-0.046458997
146	0xbdbe74cf	-0.09299623
147	0xbdb026f0	-0.08601177
148	0x3cc45c8b	0.02396991
149	0xbd9863f8	-0.074409425
150	0xbda7514c	-0.08169803
151	0x3d1fd79f	0.03902399
152	0x3cb1a183	0.02168346
153	0xbd327613	-0.043569636
154	0x3d1a15e4	0.037618533
155	0x3cad3ce3	0.021147197
156	0x3c823cbd	0.015898103
157	0x3d0360e6	0.03207483
158	0x3dbb5b9b	0.09148332
159	0xbcace9d3	-0.02110759
160	0xb907071e	-0.00012877255
161	0x3c141fa6	0.009040749
162	0xbd10de34	-0.03536816
163	0xbd0952e5	-0.03352632
164	0xbb2a3c0e	-0.0025975737
165	0xbd9cc2b2	-0.07654323
166	0xbe2abb22	-0.16672948
167	0xbbd7c84d	-0.006585157
168	0xbd4d3a1a	-0.050104238
169	0xbca25421	-0.019815506
170	0xbc8422f8	-0.016129956
171	0x3d610714	0.05493839
172	0x3d4c2e34	0.04984875
173	0xbdba15ad	-0.090861656
174	0xbd24cad8	-0.04023251
175	0xbd38766f	-0.045034822
176	0x3d1a2655	0.037634213
177	0xbd2f2e55	-0.042768795
178	0xbd23d9f2	-0.04000277
179	0xbd874e54	-0.06606737
180	0xbd6baf51	-0.05754024
181	0xbd94c048	-0.07263237
182	0xbd33717b	-0.043809395
183	0xbd9ba0ba	-0.075990155
184	0x3d4c4cab	0.049877804
185	0xbd0273bf	-0.031848665
186	0x3bfc7f0f	0.0077055763
187	0x3d3f57ae	0.046714477
188	0xbe22f6ed	-0.15914507
189	0xbc6fea34	-0.014643241
190	0xbd70f364	-0.058825865
191	0xbd0fac4e	-0.035076432
192	0xbd28a48f	-0.04117256
193	0xbc303f7b	-0.010757322
194	0xbcd4e442	-0.025987748
195	0xbe4b9ad3	-0.1988328
196	0x3be789bc	0.0070659798
197	0xbd746b58	-0.059672683
198	0xbdb3a86e	-0.0877236
199	0xbdaa38b4	-0.083115965
200	0x3cc4f3d5	0.02404205
201	0xbd6957f7	-0.056968655
202	0x3c09cb3d	0.008410272
203	0x3d648079	0.055786584
204	0x3b613311	0.0034362713
205	0xbcbcbc5a	-0.023039032
206	0xbc7fd30d	-0.015614283
207	0xbc45bc03	-0.012068751
208	0x3cee2716	0.029071372
209	0x3c52d5de	0.012868373
210	0xbbfe69df	-0.0077640857
211	0xbc130757	-0.008973918
212	0xbd0cc861	-0.034370784
213	0x3c34a1eb	0.011024932
214	0xba6b45e7	-0.0008974955
215	0x3d47a91a	0.048745252
216	0xbd945a42	-0.07243778
217	0xbc9d4f31	-0.0192028
218	0x3c8b7625	0.01702411
219	0x3d04f8bf	0.032463785
220	0x3bda4ced	0.0066620023
221	0xbcbd37f7	-0.023097975
222	0x3ce8cf4b	0.028419157
223	0xbd998723	-0.074964784
224	0x3d2c98d8	0.04213795
225	0x3d7c9fe6	0.06167593
226	0x3caaf132	0.020866964
227	0x3dde633f	0.108587734
228	0xbd205834	-0.039146617
229	0xbd93af8f	-0.072112195
230	0xbd3d0798	-0.04614982
231	0xbdc6f6ba	-0.09715028
232	0x3d72cef8	0.059279412
233	0xbd7eb769	-0.062186632
234	0xbc3dbc15	-0.011580487
235	0xbd7fa04b	-0.062408727
236	0x3ca520c2	0.020157222
237	0xbddfb016	-0.109222576
238	0x3cd8f2a7	0.026482893
239	0x3d3b26cb	0.045691293
240	0x3b411db1	0.002946716
241	0xbd807853	-0.0627295
242	0x3d122742	0.03568197
243	0x3cd3d3b8	0.025857791
244	0xbd1d9a06	-0.038476966
245	0xbd078e58	-0.033094734
246	0xbc95332e	-0.018212881
247	0xbd239007	-0.039932277
248	0xbc38a771	-0.01127039
249	0xbc485604	-0.012227539
250	0xbdba9329	-0.091101
251	0xbc98686f	-0.018604485
252	0xbc5a45ec	-0.013322335
253	0xbd25e6ad	-0.040503193
254	0x3d96e1a7	0.073672585
255	0xbd52eafc	-0.05149363

fc2.bias f4 [360]
0	0xbcfd3e0b	-0.030913373
1	0x3c51bc53	0.012801248
2	0x3c830b57	0.015996618
3	0xbca8522a	-0.020546991
4	0xbd3bf4c8	-0.04588774
5	0x3c23741c	0.009976413
6	0x3dbcb357	0.09213894
7	0xbd5b4a65	-0.053537745
8	0xbd21ad87	-0.03947213
9	0x3cb611cb	0.022225281
10	0xbd0bd785	-0.034141082
11	0x3cece99d	0.02891999
12	0x3c89fbf1	0.016843768
13	0x3db40f0c	0.087919325
14	0xbc56275a	-0.013070906
15	0x3b560e6a	0.00326624
16	0x3af26cdc	0.0018495577
17	0xbc725608	-0.014791019
18	0x3ca5fe62	0.0202629
19	0xbb2c669c	-0.0026306277
20	0xbd2f38e8	-0.04277888
21	0xbd4f79a1	-0.050653104
22	0xbc9e64b9	-0.019335138
23	0x3c4f29e3	0.012644264
24	0xbd34d8cb	-0.044152062
25	0x3c1bca67	0.009508706
26	0xbd48e8ac	-0.04905002
27	0xbba44647	-0.0050132605
28	0x3d979dae	0.07403122
29	0xbd759b25	-0.05996241
30	0x3d568dae	0.05238121
31	0xbcc0eae9	-0.023549514
32	0xbd562b56	-0.052287422
33	0xbd1b795f	-0.037957545
34	0xbd5c750f	-0.053822573
35	0x3d309acb	0.043116372
36	0xbba40b25	-0.0050062113
37	0xbd183244	-0.037157312
38	0x3d6bd69c	0.057577714
39	0x3d6ad283	0.057329666
40	0xbd242cb8	-0.04008171
41	0x3c24c145	0.010055845
42	0xbcf37262	-0.029717628
43	0x3d011f46	0.031523965
44	0xbd15800d	-0.036499072
45	0x3ac9650a	0.0015365195
46	0x3d6efecf	0.058348473
47	0xbd5e4069	-0.054260645
48	0xbb2fe3e3	-0.0026838712
49	0x3d536c6e	0.05161708
50	0x3b993980	0.004676044
51	0x3c8c9690	0.017161638
52	0x3c83cc2d	0.01608857
53	0xbd4dd525	-0.0502521
54	0xbbfecf19	-0.007776153
55	0xbd394af9	-0.045237515
56	0xbd3e5640	-0.046468973
57	0x3c94722f	0.018120853
58	0x3dcf59c7	0.101245455
59	0xbcb5525a	-0.022133995
60	0xbc4b90a4	-0.012424622
61	0x3d488631	0.0489561
62	0xbcf32ea1	-0.02968532
63	0x3d96f90c	0.07371721
64	0x3d7879cd	0.060663033
65	0x3bcc32e9	0.006231655
66	0x3d8ae2ec	0.06781563
67	0xbc446830	-0.011987731
68	0x3dbe7ac8	0.093007624
69	0xbc798489	-0.015229353
70	0x3d66172e	0.05617445
71	0x3cdbab31	0.026815029
72	0xbca44375	-0.020051697
73	0x3ca5c9fa	0.020237911
74	0x3d8bec70	0.06832206
75	0x3d345f52	0.044036217
76	0xbb2c31fe	-0.0026274915
77	0xbd4d0ada	-0.050059177
78	0x3d9c2a1f	0.076252215
79	0xbca4829b	-0.020081809
80	0x3bf31f55	0.0074195066
81	0x3c7c8c55	0.015414317
82	0x3c98baf3	0.018643832
83	0x3c815015	0.015785256
84	0x3d1eedba	0.038800932
85	0xbd184f7b	-0.037185173
86	0xbd816764	-0.06318548
87	0x3c07571f	0.008260517
88	0x3d1729ea	0.036905207
89	0xbd066670	-0.032812536
90	0x3ddbc418	0.10730761
91	0xbbd89901	-0.0066100364
92	0x3b8909a9	0.00418206
93	0xbc9702ed	-0.018434012
94	0x3d8d2f6c	0.06893811
95	0x3da0883d	0.078384854
96	0x3d82fce1	0.06395889
97	0x3cdf92ee	0.027291741
98	0xbc95a9c9	-0.018269436
99	0x3c1aadbc	0.009440836
100	0x3cfa60c8	0.030563727
101	0xbb0cc62a	-0.002148042
102	0x3d9802d4	0.074224144
103	0xbccab5a1	-0.02474481
104	0x3cf08939	0.029362308
105	0x3d822113	0.06353965
106	0xbd2feb60	-0.04294908
107	0x3cbe0294	0.023194589
108	0xbcefdc2a	-0.029279787
109	0x3c94e5aa	0.018175919
110	0xbce42ffe	-0.027854916
111	0x3dc8d0c4	0.09805444
112	0x3d2f8844	0.042854562
113	0x3c023639	0.007947498
114	0x3da5f9ab	0.08104261
115	0x3d1ecab8	0.038767546
116	0x3b3e8df1	0.0029076303
117	0x3d841541	0.06449366
118	0x3d962cb4	0.07332745
119	0x3cd67d8e	0.026182916
120	0x3d305f68	0.043059736
121	0xbcf115de	-0.029429372
122	0x3db459f6	0.08806221
123	0x3c5684f2	0.01309322
124	0xbcebe599	-0.028796004
125	0x3c7de7da	0.015497172
126	0x3d9eb395	0.07749096
127	0x3c1bf664	0.009519193
128	0xbcd83af5	-0.0263953
129	0xbd001a17	-0.03127488
130	0xbc8d99c5	-0.017285237
131	0x3d838e11	0.064235814
132	0x3b032756	0.002001246
133	0x3c68fcab	0.014220397
134	0xbd233067	-0.039841082
135	0x3dd5b5e1	0.10435081
136	0x3da7aba5	0.081870355
137	0x3d329c6d	0.04360621
138	0xbc87b066	-0.016563606
139	0xbd00e80d	-0.0314713
140	0x3b649d19	0.0034883677
141	0x3de351b1	0.11099566
142	0x3c84ddea	0.016219098
143	0xbbb24d3a	-0.005441335
144	0x3c57c772	0.01317011
145	0x3b8904fc	0.0041815024
146	0x3d20882c	0.039192364
147	0xbd47d99f	-0.048791524
148	0x3c929073	0.017891144
149	0x3cc755a1	0.024332823
150	0x3b8b9280	0.0042594075
151	0x3c25306a	0.010082344
152	0xbc4e6495	-0.012597223
153	0x3dd77b9d	0.10521624
154	0xbb924aa2	-0.0044644633
155	0x3cec9b14	0.02888254
156	0x3c7a95c6	0.015294498
157	0x3b578315	0.0032884527
158	0x3dcf20bb	0.10113665
159	0x3db99c7a	0.09063049
160	0xbc7fb3e9	-0.015606859
161	0x3dbdec36	0.09273569
162	0xbc8c4d41	-0.017126681
163	0xbb514d88	-0.0031937081
164	0xbbf0bf01	-0.007346988
165	0x3d1ceb7e	0.03831052
166	0x3cf3df55	0.029769579
167	0x3bf4563f	0.0074565704
168	0xbd3e6727	-0.046485092
169	0x3aa76716	0.0012771811
170	0x3d675f3b	0.056487303
171	0xbc1d9240	-0.009617388
172	0x3d0875d8	0.03331551
173	0x3cb2f568	0.021845534
174	0x3c9cca76	0.01913951
175	0x3d8122c8	0.06305462
176	0x3dad91c1	0.08475066
177	0xbc720d5e	-0.014773695
178	0x3dbd3590	0.09238732
179	0x3c3336d9	0.01093837
180	0x3d3b96f3	0.045798253
181	0xbca117a2	-0.01966459
182	0xbd2619a3	-0.040551793
183	0xbced9aca	-0.029004473
184	0xbc10fe24	-0.008849654
185	0x3cb13718	0.021632716
186	0x3c4fcc76	0.012683025
187	0x3d0b73bb	0.034045916
188	0x3db845fa	0.08997722
189	0xbb29b5af	-0.0025895645
190	0x3c50e558	0.012749992
191	0x3d3f68e8	0.046730906
192	0xbd5687a2	-0.052375443
193	0x3cbef59f	0.02331048
194	0x3c5a494d	0.01332314
195	0x3d381044	0.044937387
196	0xbbc934a3	-0.006140308
197	0x3d8e9b3e	0.06963204
198	0x3dc54489	0.09632213
199	0x3cd90353	0.026490843
200	0xbcdf27fe	-0.02724075
201	0x3b86a135	0.004108573
202	0x3da72fc5	0.08163408
203	0x3d661f64	0.05618228
204	0x3d96cfdc	0.07363865
205	0x3a67077e	0.0008813067
206	0xbbb6d958	-0.0055801086
207	0x3c947768	0.018123344
208	0x3a19e7ef	0.00058710476
209	0x3d26cd57	0.04072317
210	0xbd631d0a	-0.055447616
211	0x3d409b18	0.04702291
212	0xbd71dc0a	-0.059047736
213	0x3d631300	0.05543804
214	0x3c92a3e2	0.017900411
215	0x3d7334c3	0.05937649
216	0x3c924b0c	0.01785805
217	0x3d3d4ff1	0.046218816
218	0xbd00dbbc	-0.031459555
219	0xbc2bf50f	-0.010495438
220	0xbc2e73f8	-0.010647766
221	0xbc174605	-0.009233003
222	0x39bb1189	0.00035680484
223	0x3c65c58e	0.0140241515
224	0x3ba46574	0.005016977
225	0xbc8a75e8	-0.016901925
226	0xbd4fe9fb	-0.05076025
227	0x3c994406	0.018709194
228	0xbb61ab61	-0.0034434425
229	0x3d07d0d0	0.033158123
230	0x3d51ad6f	0.05119079
231	0x3cc896b7	0.024485929
232	0x3d7a8c70	0.061169088
233	0xbcbc24f2	-0.022966836
234	0x3b5ea2f2	0.0033971635
235	0x3d7c995c	0.061669692
236	0xb99bb8f5	-0.00029701708
237	0x3db4f0a5	0.08834962
238	0xbb2e3a3e	-0.0026585008
239	0xb9e50860	-0.00043684524
240	0x3d5de68b	0.05417494
241	0xbca65761	-0.020305337
242	0xbda9d0ed	-0.082918026
243	0x3d21b2c0	0.03947711
244	0xbd10c347	-0.03534248
245	0xbc62073d	-0.013795671
246	0xbd046c61	-0.03232992
247	0xbd85c558	-0.06531781
248	0x3c327c31	0.010893867
249	0xbd64ab54	-0.055827454
250	0x3dc084bc	0.09400317
251	0x3d76f28a	0.060289897
252	0x3d79323b	0.06083892
253	0x3c193106	0.009350067
254	0xbb765806	-0.0037589087
255	0xbcf3cb21	-0.029759945

fc3.weight f4 [1, 360]
0	0xbd4e62a8	-0.050387055
1	0xbcc9346f	-0.024561135
2	0x3b88db6c	0.0041765478
3	0xbc288abb	-0.010286982
4	0x3c079965	0.008276318
5	0xbba9efe1	-0.0051860665
6	0x3b48f81b	0.003066546
7	0xbb7da0ab	-0.0038700502
8	0xbdcacf2f	-0.099027984
9	0xb98fe3de	-0.0002744486
10	0xbb901471	-0.004396968
11	0x3b60f2ff	0.0034324524
12	0xbd4e558e	-0.05037456
13	0x3b3cff85	0.0028838825
14	0xbb935bc7	-0.0044970247
15	0x3b9d52b9	0.004801121
16	0xbb7c13a5	-0.0038463857
17	0xbc427f45	-0.011871164
18	0x3bb98d94	0.0056626294
19	0xbd28371a	-0.041068174
20	0xbbe31335	-0.00692978
21	0xbc95b85a	-0.018276382
22	0x3acffef6	0.0015868831
23	0xbd17525f	-0.03694379
24	0xbc58a0da	-0.013221944
25	0xbb4ff45e	-0.0031731348
26	0xbdb48c4b	-0.08815821
27	0xbd764f68	-0.06013432
28	0x3b814808	0.0039453544
29	0xbd1d3970	-0.038384855
30	0xbb76c220	-0.0037652329
31	0x3b9d4a2a	0.004800101
32	0xbb6af9fa	-0.0035854564
33	0xbce0a2b0	-0.027421325
34	0xbcf00c02	-0.0293026
35	0xbc385408	-0.011250503
36	0xbd4ac3a9	-0.049503002
37	0xbbce3abe	-0.0062936237
38	0x3b061eee	0.0020465213
39	0xbba0c74f	-0.004906572
40	0x3b17eb67	0.0023181082
41	0x3c897712	0.01678041
42	0xbbb39f28	-0.0054816194
43	0xbbb50d81	-0.0055252914
44	0xbc5e8ac4	-0.013582889
45	0x3d1fbf8b	0.03900103
46	0xbb9795e0	-0.004626021
47	0x3b230ca8	0.002487937
48	0xbb40e788	-0.0029434878
49	0xbc5815dd	-0.013188806
50	0xbb70f962	-0.0036769737
51	0xbba03352	-0.0048889304
52	0xbbcb38df	-0.006201848
53	0x3aeb6a49	0.0017960753
54	0xbc0eb4a7	-0.008710063
55	0xbcd6af00	-0.026206493
56	0xbcd0b4d0	-0.025476843
57	0xbb678b47	-0.0035330819
58	0x3b6bf9fb	0.0036007154
59	0x3bbbfb8e	0.0057367748
60	0xbb50489e	-0.0031781564
61	0x3c8b5bef	0.01701161
62	0xbd4f3285	-0.05058529
63	0x3baa5ddd	0.0051991777
64	0x3b72d22a	0.0037051537
65	0xbc08b6c2	-0.008344354
66	0xbbc4013c	-0.0059815925
67	0x3b6da8aa	0.0036263862
68	0x3b83e123	0.004024641
69	0x3b8c9967	0.004290748
70	0x3b65569e	0.0034994255
71	0x3b8f9618	0.0043819062
72	0xbb978edf	-0.004625186
73	0xbcc1c5cc	-0.023653887
74	0x3bac3235	0.0052550086
75	0x3bec12e3	0.0072044
76	0x3b832d55	0.0040032067
77	0x3b6fa74e	0.0036568227
78	0x3b4bd635	0.003110302
79	0xbba50d01	-0.0050369506
80	0xbbdd6909	-0.006756906
81	0xbb32e997	-0.0027299875
82	0x3cf32ba3	0.029683894
83	0xbb8af148	-0.0042401887
84	0x3d915150	0.07095587
85	0x3bbf76b3	0.0058430075
86	0xbd9aae95	-0.0755283
87	0x3bb0999c	0.0053894054
88	0xbc5e0d07	-0.013552911
89	0x3bdea6a0	0.0067947656
90	0x3b8789d0	0.0041363016
91	0xbb69582b	-0.003560553
92	0x3cf77314	0.03020624
93	0xbb965b43	-0.004588516
94	0x3b5863ef	0.003301855
95	0x3ba184f4	0.0049291793
96	0x3b2d86b8	0.0026478004
97	0x3bb855cf	0.0056254636
98	0xbb974eab	-0.0046175322
99	0x3bcbe117	0.006221901
100	0x3bdac4be	0.0066762855
101	0xbb9e1617	-0.0048244107
102	0x3b8c27a0	0.0042771846
103	0xbc3aae84	-0.011394147
104	0xbc49667b	-0.0122925
105	0xbc9cc16f	-0.019135205
106	0xbdb31e29	-0.08745987
107	0x3b417378	0.0029518288
108	0xbb8cedff	-0.0043008323
109	0xbd21eb27	-0.0395309
110	0xbd244714	-0.040106848
111	0x3b8c5cf9	0.004283544
112	0xbb84e432	-0.0040555233
113	0xbb4ddce2	-0.0031412174
114	0x3b9a2fc0	0.0047053993
115	0xbcd430ee	-0.025902238
116	0x3c1ad37c	0.009449836
117	0x3bb4c12f	0.0055161933
118	0x3b5a48fd	0.0033307665
119	0xbb5fe8df	-0.0034165902
120	0x3bbdc4f6	0.005791302
121	0xbbfae147	-0.0076562497
122	0x3b4e875a	0.0031513781
123	0x3b772652	0.003771205
124	0x3b135595	0.002248143
125	0xbc86396d	-0.016384805
126	0x3b83339e	0.004003956
127	0x3b3e35da	0.0029023797
128	0xbda9cb9c	-0.082907885
129	0xbb803e28	-0.0039136596
130	0xbd1af000	-0.037826538
131	0x3bf62680	0.007511914
132	0xbb7f6158	-0.0038967934
133	0x3cbd1598	0.023081586
134	0xbb436a91	-0.0029818157
135	0x3b7e1244	0.0038768211
136	0x3c1b924f	0.009495332
137	0xbd39ea68	-0.045389563
138	0xbb96f29c	-0.004606558
139	0xbd7c6ffb	-0.06163023
140	0xbcc72e9a	-0.024314214
141	0x3b256560	0.0025237426
142	0xbbb04783	-0.0053796186
143	0x3b5e614d	0.0033932508
144	0xbcff03b2	-0.031129692
145	0x3bcc893d	0.006241946
146	0x3ad38d26	0.0016140088
147	0xbbf04670	-0.0073326156
148	0xbb3fd059	-0.0029268472
149	0xbd44c0bf	-0.04803538
150	0x3c03c04e	0.0080414545
151	0xbc8b2282	-0.016984228
152	0xbcbf0884	-0.02331949
153	0x3bba204b	0.005680119
154	0x3d40e442	0.047092684
155	0xbba626fe	-0.005070566
156	0x3bbbd388	0.0057320036
157	0xbb597ff0	-0.003318783
158	0x3b762d6f	0.0037563702
159	0x3c2d2acd	0.0105692865
160	0xbb1dfbf5	-0.0024106477
161	0x3bf1d605	0.0073802494
162	0x3b9ca423	0.004780309
163	0xbb943ed1	-0.00452409
164	0xbd467ffa	-0.04846189
165	0x3b5612f3	0.0032665103
166	0xbce77ea4	-0.02825863
167	0x3d39c6be	0.04535555
168	0xbbaf7e09	-0.0053556007
169	0xbcb862c2	-0.022508029
170	0x3b47b410	0.0030472316
171	0x3b851560	0.004061386
172	0xbbc07730	-0.0058735833
173	0x3d4e6de6	0.050397776
174	0x3b8121b0	0.0039407834
175	0x3b29ead6	0.0025927327
176	0x3b68b958	0.0035510864
177	0xbd2e7e94	-0.042601183
178	0x3b5a07ce	0.0033268812
179	0xbbf59d86	-0.007495585
180	0x3d01e541	0.031712774
181	0xbc804d5a	-0.015661884
182	0xbcc2116f	-0.023689954
183	0xbdafad92	-0.08578028
184	0x3b75dd49	0.003751593
185	0x3d583abe	0.052790396
186	0xbc4fbff2	-0.012680041
187	0xbb4d1bed	-0.0031297163
188	0x3b7fbaa9	0.003902117
189	0xbba79099	-0.005113673
190	0xbbadbfc4	-0.0053024013
191	0x3b57d06c	0.0032930626
192	0xbb345df2	-0.0027521816
193	0xbbdecc37	-0.0067992467
194	0x3d036524	0.032078877
195	0xbbbb485f	-0.0057154144
196	0x3d4cfbe3	0.050044905
197	0x3c2b03c1	0.010437907
198	0x3b29342b	0.0025818448
199	0x3b11c535	0.0022242789
200	0x3b056a7a	0.0020357654
201	0xbb8a7476	-0.004225309
202	0x3c74c632	0.014939832
203	0x3b8c964e	0.0042903787
204	0x3b910d35	0.004426623
205	0x3d63e071	0.055633966
206	0xbb5657af	-0.0032706072
207	0xbcbcb6de	-0.023036417
208	0xbb58469c	-0.003300107
209	0xbd0f48af	-0.034981426
210	0x3b0804ea	0.0020754882
211	0x3bba2fc0	0.005681962
212	0xbd5cda18	-0.053918928
213	0x3b80935f	0.003923818
214	0xbbd6f7a3	-0.0065602823
215	0x3cf59315	0.02997736
216	0x3d3c6fd5	0.04600509
217	0x3c2233c6	0.009900039
218	0x3d74efbe	0.05979895
219	0xbb9e006a	-0.0048218267
220	0xbb6f3951	-0.003650267
221	0xbb4ea84b	-0.0031533416
222	0x3bb251c9	0.0054418785
223	0xbd77f105	-0.06053259
224	0x3cca52f8	0.024697766
225	0x3d8234e7	0.063577466
226	0xbd04551b	-0.032307725
227	0xbb57eb32	-0.0032946584
228	0xbca2a75e	-0.019855198
229	0x3b6719bb	0.003526314
230	0x3ba82f08	0.0051325597
231	0xbcd1000a	-0.025512714
232	0x3b80723c	0.003919868
233	0xbb4b6486	-0.0031035258
234	0x3d0e17d0	0.034690678
235	0xbba7d2c6	-0.0051215617
236	0x3bf3230d	0.00741995
237	0x3b697684	0.003562362
238	0xbc2af838	-0.0104351565
239	0xbc2938ee	-0.0103285145
240	0xbb9345d7	-0.0044944095
241	0x39339df0	0.00017129607
242	0x3d74aea8	0.059736878
243	0x3b847ec1	0.0040434306
244	0xbc18b255	-0.009319861
245	0xbc04080e	-0.008058561
246	0x3b7577ba	0.0037455396
247	0x3c7c6740	0.015405476
248	0x3b45df6f	0.0030192991
249	0xbdbd75fe	-0.09251021
250	0x3b40e68f	0.0029434299
251	0x3c26bf1c	0.0101774
252	0x3b868cc3	0.0041061356
253	0x3c484607	0.012223727
254	0x3b99a568	0.0046889074
255	0xbb52457d	-0.0032084875
