checkpoint_critic1.pth (torch_old, 746007 bytes, 5 tensors)

fc1.weight f4 [480, 24]
0	0x3cd5e430	0.026109785
1	0xbd3fb769	-0.046805773
2	0xbd04df14	-0.032439306
3	0xbc755b98	-0.014975451
4	0xbc9b88bd	-0.0189861
5	0xbd119a80	-0.035547733
6	0x3b1b3373	0.002368179
7	0x3c8e43fb	0.0173664
8	0x3cdeec30	0.027212232
9	0xbd9a2c64	-0.07527998
10	0x3ab11f8a	0.0013513428
11	0x3c63e570	0.013909683
12	0x3ba779ba	0.0051109465
13	0xbd9e110c	-0.07718095
14	0x3c7360da	0.014854634
15	0x3d819ff8	0.0632934
16	0xbc80009e	-0.015625294
17	0xbd97316f	-0.073824756
18	0x3c85758c	0.016291402
19	0xbb8bd7f0	-0.004267685
20	0xbd8da605	-0.06916431
21	0xbe72c0d3	-0.23706369
22	0xbd0988f2	-0.033577867
23	0xbd387e28	-0.045042187
24	0xbc290d86	-0.010318166
25	0x3d107993	0.035272192
26	0xbd0406a6	-0.032232903
27	0x3c95ca1a	0.018284846
28	0xbd5aaacb	-0.053385537
29	0xb88dbe14	-6.758809e-05
30	0x3cf88aab	0.03033956
31	0x3db8ec74	0.09029475
32	0x3d973c01	0.07384492
33	0x3df5e9dd	0.120074965
34	0xbc315981	-0.010824562
35	0x3ad872ed	0.0016513743
36	0x3da1d3df	0.07901739
37	0x3b465f44	0.0030269185
38	0x3c0a6cd9	0.008448803
39	0x3d27786f	0.04088634
40	0x3daac13c	0.08337638
41	0x3e103e0b	0.14086168
42	0xbc70207b	-0.014656181
43	0xbba446a0	-0.005013302
44	0x3def6fad	0.11691222
45	0x3cd65035	0.026161293
46	0x3b045b4f	0.0020196026
47	0x3d00aecd	0.031416703
48	0xbaa870e3	-0.0012851026
49	0xbc2c758a	-0.01052607
50	0xbc3d95cb	-0.011571358
51	0x3d052cd6	0.032513462
52	0x3d829b42	0.06377269
53	0xbca16566	-0.01970167
54	0x3c410373	0.0117806075
55	0x3c6b8c29	0.0143766785
56	0x3d0ad8a9	0.03389803
57	0xbc419787	-0.011815912
58	0x3c8899f2	0.01667497
59	0x3d0864d4	0.033299282
60	0x3d00acf9	0.03141496
61	0xbe04a9a2	-0.12955335
62	0xbc53d689	-0.012929567
63	0x3bc42b5e	0.005986615
64	0x3d5f3164	0.054490462
65	0x3d4eff64	0.05053653
66	0xbc62d84e	-0.013845516
67	0x3d665f8a	0.056243457
68	0xbdac2b21	-0.08406664
69	0x3c17bd13	0.009261387
70	0x3c1a357e	0.009412168
71	0x3d63a9a7	0.055581715
72	0xbc5a0759	-0.013307416
73	0x3c53fafa	0.012938255
74	0xbcc3d20c	-0.02390387
75	0xbcbb9003	-0.022895819
76	0xbd718415	-0.058963854
77	0xbcc6957c	-0.024241202
78	0xbbdfa5bf	-0.0068251784
79	0xbd19237a	-0.03738735
80	0xbd135483	-0.03596927
81	0xbc14599c	-0.009054568
82	0x3c451cda	0.0120308045
83	0xbb86dfb1	-0.0041160216
84	0x3d81f96e	0.06346403
85	0xbdac062d	-0.083996154
86	0xbcbc7401	-0.023004534
87	0x3d1b8ae0	0.03797424
88	0xbd843c3e	-0.06456803
89	0xbc318c9d	-0.0108367475
90	0xbca45c3c	-0.020063512
91	0x3d3af08d	0.045639563
92	0x3dc3f130	0.09567487
93	0xbe09d152	-0.13458756
94	0xbc3642e7	-0.011124349
95	0x3c80ccdc	0.015722685
96	0x3c82ac2e	0.015951242
97	0xbc88269d	-0.016619975
98	0xbd0917f7	-0.03347012
99	0x3c044059	0.008071982
100	0x3a591e82	0.0008282439
101	0x3dbb0cdd	0.09133313
102	0x3cebab64	0.028768249
103	0x3d3e1339	0.04640505
104	0x3b836fde	0.0040111383
105	0xbc39715c	-0.011318531
106	0x3b1e082c	0.0024113758
107	0x3cb5dc24	0.022199698
108	0xbd7f6249	-0.06234959
109	0x3da6497b	0.08119484
110	0x3bba2ea1	0.005681828
111	0x3cb0d046	0.021583688
112	0x3d983e13	0.07433715
113	0xbd6fb96b	-0.058526438
114	0x3cd9c921	0.026585164
115	0x3d1b2b51	0.037883107
116	0x3d26cfc0	0.04072547
117	0xbdfd7673	-0.12376108
118	0xbc7fb2f7	-0.015606633
119	0x3db0f724	0.08640888
120	0x3d7df989	0.062005553
121	0x3e3bbcbc	0.18333715
122	0xbc7a2bfe	-0.015269278
123	0x3bc3aa6e	0.0059712445
124	0x3deccd8b	0.11562642
125	0xbd28a3f8	-0.041171998
126	0xbc960c33	-0.018316364
127	0x3d08d477	0.033405747
128	0xbc6c8045	-0.014434879
129	0x3e115cae	0.1419551
130	0xbbb4c370	-0.005516462
131	0xbd2f88fb	-0.042855244
132	0x3ceef02f	0.029167263
133	0xbcae5e18	-0.021285102
134	0xbce142a2	-0.027497593
135	0xbd966142	-0.07342769
136	0x3d7d503a	0.061844088
137	0x3e1e35a5	0.15450151
138	0xbd653dcf	-0.05596715
139	0xbd62980e	-0.055320792
140	0xbd43ea3d	-0.04783081
141	0x3d0fe8a6	0.03513398
142	0x3cb0beb5	0.021575311
143	0xbd6808bd	-0.05664896
144	0x3d6f1c60	0.05837667
145	0x3d8de027	0.06927519
146	0x3d25e274	0.040499166
147	0x3cd808fe	0.026371475
148	0x3dc0d285	0.094151534
149	0xbe0a0859	-0.13479747
150	0xbd2dee36	-0.042463504
151	0x3d390c2b	0.04517762
152	0x3afc6f31	0.0019259212
153	0x3c46cc6b	0.012133698
154	0xbca22d34	-0.019796945
155	0xbd3f6336	-0.046725474
156	0x3dac0e11	0.084011205
157	0x3cae06a1	0.021243395
158	0x3cce50bd	0.025184983
159	0xbb7e8995	-0.003883933
160	0xbd07d7e9	-0.033164892
161	0xbd1bb52f	-0.038014587
162	0x3c56e941	0.0131171355
163	0x3ba8db8d	0.0051531256
164	0xbdcedf31	-0.10101164
165	0x3e0fcce0	0.14042997
166	0xbc84084f	-0.016117243
167	0x3c0d026a	0.008606533
168	0xbd1eafc5	-0.038741846
169	0x3d870b0a	0.065939024
170	0xbc8a271e	-0.016864356
171	0x3c931a15	0.017956773
172	0x3d513fd0	0.051086247
173	0xbe5407d9	-0.20706119
174	0x3cd4a278	0.025956377
175	0xbd58a485	-0.052891273
176	0x3d091ba0	0.03347361
177	0x3d154e0c	0.036451384
178	0xba8a422c	-0.0010548285
179	0x3d40caf7	0.047068562
180	0xbcd2560f	-0.025675802
181	0xbe86f32a	-0.26357394
182	0x3c82d15d	0.015968973
183	0x3da42f2e	0.08016811
184	0x3d929535	0.07157365
185	0x3d96b676	0.073590204
186	0xba171379	-0.00057630945
187	0x3d20e4d8	0.039280742
188	0x3d142351	0.036166493
189	0x3d8f2f4b	0.06991442
190	0x3c5e0254	0.01355036
191	0x3c788b87	0.015169985
192	0xbc3de622	-0.0115905125
193	0xbcf50ca3	-0.029913252
194	0x3d2aa05a	0.04165683
195	0xbc998914	-0.018742122
196	0x3c6a5cdb	0.014304365
197	0xbcfb193c	-0.030651681
198	0xbcea9f7f	-0.028640507
199	0xbc18415e	-0.0092929285
200	0xbccebd30	-0.025236696
201	0x3d9f1db4	0.07769337
202	0xbc5ea686	-0.013589507
203	0x3d38c17a	0.04510639
204	0x3a6af73e	0.00089632336
205	0xbde3774e	-0.1110674
206	0x3c754449	0.014969894
207	0xbc48704e	-0.012233807
208	0xbbc6b9fb	-0.006064651
209	0x3db56934	0.088579565
210	0x3ca14245	0.01968492
211	0xbc0325ed	-0.008004648
212	0xbd0f6438	-0.035007685
213	0xbe013a2f	-0.12619852
214	0xbcbb56a4	-0.022868462
215	0x3ced5e1b	0.028975537
216	0x3e062244	0.13099009
217	0x3caa533e	0.020791646
218	0xbca3547a	-0.019937743
219	0xbb9a3008	-0.004705433
220	0xbc2360b4	-0.009971786
221	0xbd43ca47	-0.04780033
222	0xbcb1be1f	-0.021697102
223	0xbb8cfd88	-0.004302684
224	0x3d92e266	0.07172088
225	0xbc0d10ec	-0.0086099915
226	0x3c85fa91	0.016354831
227	0x3bb2c29a	0.005455327
228	0x3d11f2a4	0.03563179
229	0x3d816059	0.06317205
230	0xbc0bf1ef	-0.008541568
231	0xbd4a15a3	-0.04933704
232	0x3df0efd2	0.11764492
233	0x3d63546d	0.055500437
234	0x3c2c0241	0.010498584
235	0x3cdb8291	0.026795657
236	0x3db94338	0.09046024
237	0x3d6041c1	0.054750208
238	0xbc615d55	-0.013755162
239	0x3cb2fd45	0.021849284
240	0xbd520c52	-0.05128128
241	0x3d82397a	0.06358619
242	0x3b74d714	0.0037359642
243	0x3ce3b4ef	0.027796237
244	0x3d13052d	0.035893608
245	0xbc0491fd	-0.008091447
246	0x3af34fb3	0.0018563181
247	0xbcebf2b4	-0.028802253
248	0xb92bf655	-0.00016399597
249	0x3db1dc1f	0.08684563
250	0xbc8a666d	-0.016894544
251	0xbca01b29	-0.019544201
252	0x3d687c1b	0.05675898
253	0xbc6d0964	-0.014467571
254	0xbca8b6eb	-0.020595035
255	0x3c8acdf5	0.016943911

fc1.bias f4 [480]
0	0x3e5af67b	0.21383087
1	0xbdc163ca	-0.094428614
2	0x3defe750	0.11714041
3	0x3e083c37	0.1330422
4	0xbde097de	-0.10966466
5	0x3d4590ce	0.0482338
6	0xbe09b495	-0.13447793
7	0xbe13b89d	-0.14425893
8	0xbaadc54d	-0.0013257653
9	0xbd9a4421	-0.07532526
10	0x3e0eb3f0	0.13935828
11	0x3c809daf	0.01570019
12	0xbca3c2a1	-0.019990267
13	0x3e485953	0.19565324
14	0x3c46fc37	0.012145094
15	0xbe0fe497	-0.14052044
16	0xbdad4210	-0.08459866
17	0x3e62bb39	0.22141732
18	0x3dce6a34	0.100788504
19	0xbd789663	-0.060690295
20	0x3e085a15	0.13315614
21	0xbe00b812	-0.12570217
22	0xbd262267	-0.040560152
23	0xbd8702d3	-0.065923356
24	0xbdd83d70	-0.10558593
25	0xbe0fdce0	-0.14049101
26	0xbde30aae	-0.11086021
27	0xbdbd31dd	-0.09238026
28	0x3d212e77	0.039350953
29	0xbd92f600	-0.07175827
30	0xbc8b6fe9	-0.017021136
31	0xbe0766a6	-0.13222751
32	0xbe0e51c5	-0.1389838
33	0x3d8cca4b	0.06874522
34	0x3e22e835	0.15908892
35	0xbe16fafb	-0.14744179
36	0xbdb3ce34	-0.087795645
37	0x3e440282	0.19141582
38	0xbe1b6b5c	-0.15177673
39	0xbd0463cf	-0.032321747
40	0xbe57e923	-0.21085028
41	0x3beea46b	0.0072827837
42	0xbe718a12	-0.23587826
43	0xbe6049be	-0.2190313
44	0x3d87bbcf	0.066276185
45	0xbe5728ed	-0.21011706
46	0xbdc46db4	-0.09591237
47	0x3d5289cf	0.051400956
48	0x3e040e46	0.1289607
49	0xbd76b9ce	-0.06023579
50	0xbe3c28cf	-0.18374942
51	0xbc002f4c	-0.007823776
52	0x3c11f62c	0.00890879
53	0xbca8387c	-0.020534746
54	0xbd6f15c4	-0.058370367
55	0x3d228912	0.0396815
56	0xbe36a934	-0.17837983
57	0xbdee709d	-0.11642573
58	0xbc262e23	-0.010142836
59	0x3dad350c	0.084573835
60	0xbe0b11ee	-0.13581058
61	0xbe037130	-0.12836146
62	0xbdd40844	-0.10353139
63	0xbe7e307d	-0.24823184
64	0xbdafc3bd	-0.08582256
65	0xbd827601	-0.06370164
66	0xbdf25083	-0.11831763
67	0xbd12d6eb	-0.035849493
68	0x3e3f2328	0.18665755
69	0x3cabbbae	0.020963516
70	0xbd3e6525	-0.046483178
71	0xbe285f55	-0.16442616
72	0x3d30f3ee	0.04320138
73	0xbd626f86	-0.05528214
74	0xbd39fe6f	-0.045408662
75	0x3da56b05	0.08077053
76	0xbe3cbc3d	-0.18431182
77	0x3e4e6cf0	0.20158744
78	0xbde425b6	-0.11140005
79	0x3e08816e	0.13330624
80	0xbd894618	-0.067028224
81	0x3d34d0cd	0.04414444
82	0x3e348736	0.17629704
83	0xbe883bc1	-0.2660809
84	0xbe55eb99	-0.20890655
85	0xbd5f99e1	-0.05459011
86	0x3e0f594a	0.13998905
87	0xbd6c2795	-0.057654936
88	0x3de6724c	0.11252269
89	0xbe6f95a4	-0.23396927
90	0x3d9959c4	0.074878246
91	0xbe45a1b3	-0.19299965
92	0xbe045b7c	-0.12925524
93	0x3d3d5dc0	0.046231985
94	0x3e4d44f1	0.2004583
95	0xbe1d8496	-0.15382609
96	0xbe705b9b	-0.23472445
97	0xbd9a483e	-0.0753331
98	0xbde831bc	-0.11337611
99	0x3deb6752	0.11494316
100	0x3e26d765	0.16293104
101	0xbddeb59e	-0.108744845
102	0xbcb9f756	-0.022700947
103	0xbd88b9ae	-0.066760406
104	0xbe65ba8a	-0.2243444
105	0xbded36a1	-0.11582685
106	0xbe462b99	-0.19352569
107	0x3e472512	0.19447735
108	0xbe074802	-0.13211063
109	0xbe5f25ad	-0.21791716
110	0x3d46b96a	0.04851667
111	0x3d501d0f	0.050808962
112	0xbe6bc723	-0.23025183
113	0x3d7dca27	0.061960366
114	0xbdd5acb2	-0.1043333
115	0xbe548bb4	-0.20756418
116	0xbe28eb30	-0.16495967
117	0xbe6c8c16	-0.23100314
118	0x3e409197	0.18805538
119	0xbd37ebf0	-0.044902742
120	0xbd1715c6	-0.036886
121	0xbe57c9fe	-0.21073148
122	0xbe6159d5	-0.22006924
123	0xbe7277a6	-0.23678455
124	0xbe1ce666	-0.15322265
125	0xbe0263e5	-0.12733419
126	0xbd5829b6	-0.052774154
127	0x3d865aa2	0.065602556
128	0xbe984ef3	-0.29747733
129	0xbde3ce8b	-0.11123379
130	0x3de75fde	0.11297582
131	0xbdafadef	-0.08578097
132	0x3e34d6e3	0.17660098
133	0x3dfeed52	0.12447609
134	0xbb9af0fe	-0.0047284355
135	0xbe7bc4a7	-0.24586736
136	0x3e5ff13c	0.21869367
137	0x3ccf5537	0.025309188
138	0xbdb85820	-0.090011835
139	0x3d3687d5	0.044563133
140	0xbe50c2dd	-0.20386834
141	0xbe87aa54	-0.26497138
142	0xbe1c6f6d	-0.1527688
143	0x3de117d6	0.109908745
144	0xbdb260b9	-0.08709855
145	0x3ccf3c03	0.02529717
146	0x3e2ab3df	0.16670178
147	0x3e197e16	0.14989504
148	0x3e8f2854	0.27960455
149	0xbe4f7b3a	-0.20261851
150	0x3d9b173b	0.0757279
151	0xbe825d74	-0.25461924
152	0xbc4a64bf	-0.012353121
153	0x3d6ce93a	0.05783961
154	0xbe38c894	-0.18045264
155	0x3e0dd9e7	0.13852654
156	0xbc598e26	-0.01327852
157	0x3e0cc796	0.13748011
158	0xbda95953	-0.0826899
159	0xbdc7748d	-0.09739027
160	0xbd827f30	-0.06371915
161	0xbe4bea17	-0.19913517
162	0xbe474576	-0.19460091
163	0xbd987c42	-0.07445575
164	0x3c7002be	0.014649091
165	0x3ded6a98	0.11592597
166	0xbd9176d0	-0.0710274
167	0x3dbf69c3	0.09346344
168	0x3e20e6d2	0.15713051
169	0xbe90c40b	-0.2827457
170	0xbcc83a50	-0.024441868
171	0x3e2b03ea	0.16700712
172	0xbe207aba	-0.15671816
173	0xbe72d4b4	-0.23713952
174	0xbd2ee358	-0.04269728
175	0xbc078022	-0.008270295
176	0xbd457ead	-0.04821651
177	0xbea963bd	-0.33083907
178	0x3e2f17f8	0.17098987
179	0xbdc18aae	-0.09450279
180	0x3e4665ad	0.19374724
181	0xbd9b5219	-0.07584018
182	0xbcc5fb32	-0.02416763
183	0xbd6d6394	-0.057956293
184	0xbc806c1c	-0.01567655
185	0x3dcb52ce	0.09927903
186	0xbdb9a23e	-0.09064148
187	0xbe69fea3	-0.22851042
188	0x39d2f8bc	0.00040239643
189	0xbd69c95c	-0.057076797
190	0x3dae1b33	0.085012816
191	0xbdfd4f24	-0.123686105
192	0xbe8c52bf	-0.2740688
193	0xbdd0c345	-0.10193495
194	0xbe27ffc6	-0.16406164
195	0xbe481f20	-0.19543123
196	0x3e19a849	0.15005602
197	0xbe0d131a	-0.13776818
198	0xbcc70394	-0.024293698
199	0xbdb29ecd	-0.08721695
200	0xbe6c2804	-0.2306214
201	0x3e4f3fb8	0.2023915
202	0xbcd435aa	-0.025904495
203	0xbd9e58e5	-0.07731799
204	0x3cd02e1d	0.025412614
205	0x3d24bb14	0.040217474
206	0x3db490c5	0.08816675
207	0xbe3eecb2	-0.1864498
208	0x3c9d653d	0.019213313
209	0xbe84300d	-0.2581791
210	0x3de7a204	0.11310199
211	0xbd012e14	-0.031538084
212	0xbd88d587	-0.06681352
213	0xbe1a3b2f	-0.15061639
214	0x3c8355e2	0.016032163
215	0xbdfc5167	-0.12320214
216	0x3dd5d833	0.10441627
217	0xbe174dea	-0.14775816
218	0x3d640700	0.05567074
219	0xbde4ebcd	-0.11177788
220	0x3e06c852	0.13162354
221	0xbd522995	-0.051309187
222	0xbda65ad8	-0.08122796
223	0x3e18153d	0.14851852
224	0xbe513ace	-0.20432588
225	0xbe1f4f38	-0.15557563
226	0xbe8a94ad	-0.27066556
227	0x3e017e46	0.12645826
228	0xbe8982c4	-0.2685758
229	0xbcbbe445	-0.022935996
230	0xbdfe5c76	-0.12419979
231	0xbda8ec1e	-0.08248161
232	0xbe67268a	-0.22573295
233	0x3d890e1e	0.06692146
234	0xbe846369	-0.25857094
235	0xbb3d2a96	-0.0028864495
236	0xbc970eb3	-0.018439626
237	0x3c35398e	0.011061085
238	0xbe79ec05	-0.2440644
239	0xbe808dfd	-0.25108328
240	0xbe544b40	-0.2073183
241	0x3d8cd239	0.06876034
242	0x3c4c04d9	0.012452328
243	0x3e099789	0.13436712
244	0x3d37e7b1	0.044898693
245	0xbe0dd691	-0.13851382
246	0x3d8c0fc1	0.06838942
247	0xbd0a4f88	-0.033767253
248	0xbdacc234	-0.08435479
249	0x3de7098c	0.11281118
250	0xbda33db1	-0.07970751
251	0x3e6aa0c2	0.22912887
252	0xbd826cc1	-0.063683994
253	0xbe84c274	-0.25929606
254	0x3d1f50fe	0.0388956
255	0xbd840c97	-0.06447714

fc2.weight f4 [360, 482]
0	0xbbcdb025	-0.0062771016
1	0x3d150b20	0.036387563
2	0x3d0783ea	0.033084787
3	0x3d88f999	0.06688232
4	0x3cf72829	0.030170517
5	0xbdec2eaf	-0.11532342
6	0xbc108a4b	-0.008822034
7	0xbc89d4d1	-0.016825112
8	0xbc3b474e	-0.011430575
9	0x3d043fda	0.032287456
10	0x3c8c7093	0.017143523
11	0x3ced47fb	0.028964987
12	0x3d2e51dd	0.04255854
13	0x3d8f61fd	0.07001112
14	0xbc7a88ef	-0.015291437
15	0x3d1411e8	0.03614989
16	0x3d634123	0.05548204
17	0x3b11d448	0.0022251774
18	0x3cb12fb5	0.021629194
19	0x3c9c88fe	0.019108292
20	0xbcf9da9c	-0.030499749
21	0x3c178e06	0.00925017
22	0x3d6786eb	0.056525152
23	0xbcf3857a	-0.029726733
24	0xbd8bc600	-0.06824875
25	0x3cab2040	0.020889401
26	0x3ce9db57	0.028546972
27	0xbd218b12	-0.03943927
28	0x3c99908a	0.01874568
29	0x3c972270	0.018449038
30	0xbc922012	-0.017837558
31	0x3d06cd23	0.032910477
32	0xbd4e93df	-0.05043399
33	0x3c8a9ac9	0.01691951
34	0xbc830c85	-0.01599718
35	0x3d18fae7	0.037348654
36	0x3c931c6e	0.017957892
37	0x3d024c83	0.03181125
38	0xbd769b69	-0.060206804
39	0x3d5adcbf	0.053433176
40	0x3d488391	0.048953597
41	0xbd29d06d	-0.041458536
42	0xbcb6f4ed	-0.022333587
43	0xbc51a4ed	-0.012795669
44	0xbe2ea485	-0.17054947
45	0x3c670f41	0.014102758
46	0xbd5dc0ce	-0.05413895
47	0xbd1fb141	-0.038987402
48	0x3c8a42d4	0.01687757
49	0x3d8da918	0.06917018
50	0xbce0aea5	-0.027427027
51	0x39460c6e	0.00018887382
52	0x3d19ec37	0.037578788
53	0xbd3ff304	-0.046862617
54	0x3d0e27e6	0.03470602
55	0xbdf008b5	-0.11720411
56	0xbb049ff3	-0.0020236939
57	0xbce3aa55	-0.027791182
58	0xbe19938d	-0.14997692
59	0x3bc20ba9	0.0059218
60	0xb9a193ab	-0.00030818334
61	0x3cf8a5ef	0.03035256
62	0x3cef3205	0.029198656
63	0xbcd7633d	-0.026292438
64	0xbdad7c92	-0.084710255
65	0xbcc31789	-0.023814933
66	0x3d7d4daf	0.061841663
67	0x3b91b19e	0.0044462224
68	0xbd116156	-0.035493217
69	0x3c4ead15	0.012614508
70	0xbd172a73	-0.036905717
71	0xbbe56bae	-0.007001362
72	0x3c5932c3	0.013256731
73	0xbd29068e	-0.041266017
74	0x3cca22f1	0.024674864
75	0xbd66209c	-0.056183442
76	0xbd8d09c4	-0.06886628
77	0xbdc1007f	-0.09423923
78	0x3c417f94	0.011810202
79	0x3c2482b3	0.010040927
80	0xbc99d9e3	-0.018780654
81	0x3c45a905	0.012064223
82	0x3d8251fa	0.06363292
83	0xbbfd1a9a	-0.0077241184
84	0x3ca68285	0.020325908
85	0x3cb529a9	0.022114592
86	0xbce26ccf	-0.027639775
87	0x3be7e7fd	0.0070772157
88	0xbb83b904	-0.0040198583
89	0xbdac8e96	-0.084256336
90	0xbd411b4c	-0.047145173
91	0x3cecfd69	0.02892943
92	0x3cefeae8	0.029286817
93	0xbd4fa1ee	-0.050691538
94	0x3b93774e	0.004500306
95	0xbdf67b46	-0.12035231
96	0x3d4b613d	0.04965328
97	0x3c92af3b	0.017905822
98	0x3caf2953	0.02138201
99	0xbc490855	-0.012270053
100	0x3bc3074a	0.0059517967
101	0x3dd88bf5	0.1057357
102	0xbc988b1e	-0.018621024
103	0x3ceb6a06	0.02873708
104	0xbda66a62	-0.0812576
105	0xbd9733e8	-0.07382947
106	0xbc4f084b	-0.012636255
107	0xbd024152	-0.031800576
108	0xbd614909	-0.055001292
109	0x3c0791ef	0.008274539
110	0xbc217da2	-0.009856613
111	0xbc0f4b3c	-0.008745965
112	0x3d4a8973	0.049447488
113	0xbc453271	-0.012035952
114	0xbd090468	-0.033451468
115	0xbdaed3cc	-0.08536491
116	0xbccecd28	-0.02524431
117	0xbcd7af74	-0.02632878
118	0xbc953c5d	-0.01821726
119	0x3d1bd9d0	0.03804952
120	0xbcee1b1e	-0.029065665
121	0xbda427e9	-0.08015425
122	0x3b4c30e9	0.0031157082
123	0x3d26b9a6	0.040704392
124	0xbd04073d	-0.032233465
125	0xbbf272ec	-0.0073989537
126	0xbc0833f7	-0.008313171
127	0xbbdbc317	-0.006706606
128	0xbd8126db	-0.06306239
129	0x3d591ac8	0.053004056
130	0xbd972e80	-0.07381916
131	0xbdbf7eb7	-0.09350341
132	0x3bb51d34	0.005527163
133	0x3c1ad6ee	0.009450657
134	0xb9ebbe7b	-0.00044964612
135	0xbd887e74	-0.06664744
136	0x3cdabb60	0.026700675
137	0xbdaf2a5f	-0.085530035
138	0xbd18f41e	-0.037342183
139	0xbc615429	-0.0137529755
140	0xbd69c862	-0.057075866
141	0xbcd4cede	-0.025977548
142	0xbd676f45	-0.0565026
143	0xbc83d7c8	-0.016094103
144	0x3d26ef56	0.040755592
145	0xbce3aee9	-0.027793365
146	0xbd2bda12	-0.041956015
147	0xbd6c4a83	-0.057688247
148	0xbd12caf0	-0.035838068
149	0xbdff0592	-0.12452234
150	0xbcd41175	-0.02588723
151	0x3d3d68ac	0.0462424
152	0xbd6d0cab	-0.05787341
153	0xbb0ee36e	-0.002180304
154	0xbe17bb0a	-0.14817443
155	0x3ca79349	0.020455973
156	0x3d8e204e	0.069397554
157	0x3d1d20b9	0.038361285
158	0x3d76a9e6	0.06022062
159	0x3c45ba49	0.01206834
160	0xbc660a3b	-0.014040525
161	0xbcd5cc76	-0.026098471
162	0x3c9491ac	0.018135868
163	0xbcc0518f	-0.02347639
164	0x3cc77885	0.02434946
165	0xbd95b415	-0.073097385
166	0x3d845457	0.06461399
167	0xbd476053	-0.048675846
168	0xbd84c16d	-0.064822055
169	0x3ccb281d	0.024799401
170	0xbe09e8af	-0.13467668
171	0x3cd27c87	0.025694145
172	0xbd50a601	-0.050939564
173	0xbc2ea991	-0.010660545
174	0xbaecfd83	-0.0018080923
175	0xbb2af177	-0.0026083866
176	0x3d56c64c	0.052435204
177	0xbda4290c	-0.080156416
178	0x3c49ae5a	0.012309635
179	0xbd429de1	-0.047513846
180	0xbd7fd917	-0.062462892
181	0xbcb30587	-0.021853222
182	0x3d2dc4db	0.042424064
183	0xbd972b59	-0.07381315
184	0xbc93b4a6	-0.018030476
185	0x3bd681cf	0.006546236
186	0x3d6f6dab	0.058454197
187	0xbd2abf74	-0.04168649
188	0xbdb84a30	-0.08998525
189	0x3b7e5d2e	0.0038812864
190	0xbd370851	-0.044685666
191	0xbd70d419	-0.058796022
192	0x3d94b199	0.072604366
193	0x3d07927b	0.03309868
194	0xbda905a4	-0.08253029
195	0x3b863616	0.004095803
196	0x3cd0bee5	0.02548165
197	0x3bf54603	0.0074851527
198	0xbd182d08	-0.03715232
199	0xbc5c0199	-0.013428115
200	0x3cf5fe50	0.030028492
201	0xb942c92d	-0.00018576226
202	0xbc2fb242	-0.010723652
203	0xbcb49e8e	-0.022048261
204	0x3c71c86e	0.014757259
205	0xbceca77e	-0.02888846
206	0xbd15bc8b	-0.03655676
207	0x3c42f288	0.011898644
208	0x3d2ab97e	0.041680805
209	0x3c8fce44	0.01755441
210	0x3d1ae968	0.03782025
211	0x3b0c96e0	0.0021452233
212	0xbd5f16bf	-0.05446505
213	0xbd0de86a	-0.034645475
214	0x3d52546b	0.05135004
215	0x3d1a413e	0.037659876
216	0xbcf23753	-0.029567396
217	0x3db4ac9d	0.08821986
218	0x3cc82327	0.024430824
219	0xbd5bcc47	-0.05366161
220	0xbd39edf5	-0.04539295
221	0x3d68f329	0.05687252
222	0x3d63c12e	0.055604152
223	0xbda0cf74	-0.078520685
224	0x3d16e97d	0.036843766
225	0x3d58a5c8	0.052892476
226	0x3d0a6dd8	0.03379616
227	0xbb826897	-0.0039797532
228	0xbd0c5178	-0.034257382
229	0xbdb6c9f9	-0.08925242
230	0xbc81c6af	-0.01584181
231	0xbd979e77	-0.07403272
232	0x3d9c196b	0.076220356
233	0xbd025764	-0.031821623
234	0xbe49d9d9	-0.19712009
235	0x3d2dc985	0.042428512
236	0x3ccd676f	0.025073735
237	0xbd52adc4	-0.051435247
238	0x3c8353c7	0.01603116
239	0x3b43b6cd	0.0029863596
240	0xbbbe9b75	-0.0058168718
241	0x3c1bdd03	0.0095131425
242	0xbd48fc6c	-0.049068853
243	0x3c0dcf04	0.008655313
244	0x3c97b721	0.01851994
245	0xbceb07fc	-0.02869033
246	0xbd84af79	-0.06478781
247	0xbcfa1593	-0.030527866
248	0xbd8d882d	-0.06910739
249	0xbd571fce	-0.052520566
250	0xbd589d73	-0.05288453
251	0x3d641635	0.05568524
252	0x3b77e13d	0.0037823461
253	0xbd84dee8	-0.064878285
254	0x3d94e9a0	0.07271123
255	0xbcc54fdc	-0.024085931

fc2.bias f4 [360]
0	0x3d344b2c	0.044017002
1	0xbcd6c45d	-0.02621668
2	0xbdb78fcb	-0.08962973
3	0x3ba92659	0.005162042
4	0x3c2d75d7	0.010587177
5	0x3dc1d318	0.09464091
6	0x3d97d28a	0.07413204
7	0xbd1c3b9f	-0.038142797
8	0xbd836b90	-0.06417
9	0x3d9547a5	0.07289056
10	0xbca9d927	-0.02073343
11	0xbd700edc	-0.05860792
12	0x3bec8671	0.007218175
13	0x3d60d93b	0.054894667
14	0xbbccc404	-0.006248953
15	0xbab7224b	-0.0013972012
16	0x3d834ac2	0.06410743
17	0xbd09237f	-0.033481117
18	0x3d2e1fd7	0.042510834
19	0x3bb9d952	0.0056716586
20	0x3ba38813	0.0049905865
21	0x3cb3a733	0.021930313
22	0xbbfc1822	-0.0076933065
23	0xbbb6ce4f	-0.005578793
24	0xbd2cb92a	-0.042168774
25	0xbc1d4a1d	-0.0096001895
26	0x3cf3ff98	0.029784963
27	0x3c86c176	0.016449671
28	0x3d52eac8	0.051493436
29	0xbd74c7c6	-0.05976083
30	0x3d4b6cb8	0.04966423
31	0x3d8846c9	0.06654126
32	0xbcc4898b	-0.023991367
33	0xbca3e013	-0.020004308
34	0xbd6f1278	-0.058367223
35	0x3d38b428	0.045093685
36	0x3cf8c3c5	0.030366788
37	0xbd835644	-0.06412938
38	0x3dbda965	0.09260825
39	0x3d42e8ba	0.047585227
40	0xbc36a481	-0.011147619
41	0xbbe07d15	-0.0068508484
42	0x3d960088	0.0732432
43	0xbcdb7b6d	-0.026792252
44	0xbd05b69d	-0.032644857
45	0xbbf1707f	-0.007368147
46	0xbc99c2bc	-0.018769614
47	0x3d131cc9	0.035916124
48	0xbd0e9303	-0.03480817
49	0xbd12790c	-0.03575997
50	0x3cad7b04	0.021176822
51	0x3d881590	0.06644738
52	0x3bc04486	0.0058675436
53	0x3d2ccdb4	0.04218836
54	0xbd163dd7	-0.03668007
55	0x381d01ba	3.7433325e-05
56	0xbd144c79	-0.036205743
57	0x3baa431c	0.0051959883
58	0xbc13e8b6	-0.009027651
59	0x3cfd842b	0.030946812
60	0xbc7e04b7	-0.015504054
61	0x3d805756	0.06266658
62	0xbca3aafd	-0.019978995
63	0x3d95d322	0.07315661
64	0xbd029116	-0.031876646
65	0xbc2f317e	-0.010692952
66	0x3d4607e8	0.048347384
67	0x3d303d81	0.043027405
68	0xbb5e2935	-0.0033899073
69	0xbbeb7d3f	-0.0071865614
70	0xbd41e1d0	-0.047334492
71	0xbb9cf6ff	-0.0047901864
72	0x3c9f1d31	0.0194231
73	0xbaa6ecde	-0.0012735387
74	0x3db1caf7	0.086812906
75	0xbcb5876f	-0.022159306
76	0xbcb47f4d	-0.022033358
77	0xbb4a6a72	-0.00308862
78	0x3d8ee610	0.06977475
79	0xbd167a3c	-0.036737666
80	0x3ba45681	0.005015195
81	0x3d95ef14	0.07320991
82	0xbcad2e71	-0.021140309
83	0x3cd3d13d	0.025856609
84	0x3be61229	0.007021208
85	0x3d427cbe	0.047482245
86	0xbd95c32c	-0.07312617
87	0x3b76d300	0.0037662387
88	0x3c51fb89	0.012816318
89	0xbcf2a367	-0.029618932
90	0x3dcedfe0	0.101012945
91	0xbc323a6a	-0.010878185
92	0x3daf2a1f	0.08552956
93	0x3d152006	0.036407493
94	0xbd598d98	-0.05311355
95	0x3d42d618	0.047567457
96	0xbd9153c8	-0.07096058
97	0xbbdf2784	-0.0068101306
98	0xbc90eab8	-0.017690048
99	0x3da82f09	0.08212096
100	0x3d63645d	0.055515636
101	0xba9975ef	-0.0011708121
102	0xbccc3587	-0.024927868
103	0xbd213eba	-0.03936646
104	0xbbb7b9fd	-0.0056068883
105	0xbcc8a51b	-0.02449279
106	0xbcd51753	-0.026012098
107	0xba9e8dc7	-0.0012096696
108	0xbcf58a77	-0.029973252
109	0xbbcd2b6d	-0.0062612803
110	0x3dbdc9e3	0.092670225
111	0x3d8663b1	0.065619834
112	0x3d1a0b6b	0.037608545
113	0x3d4599c2	0.048242338
114	0x3d9e15bf	0.077189915
115	0x3dac2423	0.0840533
116	0x3c1d4e9e	0.009601263
117	0x3dc0d7eb	0.09416183
118	0x3d0ff37f	0.035144325
119	0x3b93298c	0.0044910368
120	0xbd880440	-0.066414356
121	0x3ce7b7c2	0.028285865
122	0xbccb0004	-0.02478028
123	0xbc888709	-0.016665952
124	0x3cbebbc0	0.023282886
125	0x3cf5c9c9	0.030003445
126	0x3b8bc1db	0.0042650527
127	0xbd42cba4	-0.047557488
128	0xbc24d246	-0.010059899
129	0x3d7e398d	0.062066603
130	0x3d638624	0.05554785
131	0x3dc4257e	0.095774636
132	0x3c1d282d	0.009592098
133	0x3d3a93bc	0.045551047
134	0x3caf8e4c	0.021430157
135	0x3d2be01d	0.041961778
136	0xbc29792a	-0.010343829
137	0x3d86b035	0.065765776
138	0xbb719ba2	-0.0036866446
139	0xbbfeb805	-0.0077734017
140	0x3d0489d9	0.032358024
141	0x3d95fdc1	0.0732379
142	0xbd3d16d7	-0.04616436
143	0xbd1e010d	-0.03857522
144	0x3d9edb62	0.07756688
145	0x3b4074db	0.0029366526
146	0x3d032457	0.03201708
147	0xbd4e9e55	-0.050443966
148	0xbcf21ad6	-0.029553812
149	0x3db307ee	0.08741747
150	0x3d09fa6d	0.03368609
151	0x3d84cd09	0.0648442
152	0xbd08ceab	-0.03340022
153	0x389291f4	6.9890084e-05
154	0x3d12b257	0.03581461
155	0x3ba878ee	0.005141369
156	0x3b536b42	0.0032259976
157	0xbbb709cc	-0.0055858847
158	0x3db3769d	0.08762858
159	0x3d17627c	0.036959156
160	0xbd57b975	-0.0526671
161	0x3c12fc69	0.008971312
162	0x3cf58f0d	0.029975438
163	0x3c940faa	0.018073875
164	0xbc9987f0	-0.018741578
165	0xbca3b40f	-0.01998332
166	0x3bf0280e	0.0073289936
167	0x3d3915a0	0.04518664
168	0xbd868710	-0.0656873
169	0x3dc68464	0.0969322
170	0x3d277452	0.040882416
171	0x3c584449	0.013199874
172	0x3ccc9ff4	0.024978615
173	0x3b60bc51	0.0034291933
174	0xbc1c516c	-0.009540897
175	0x3d43020b	0.04760937
176	0x3ccd4d16	0.025061172
177	0x3d03ac5c	0.032146797
178	0x3cc0930a	0.023507614
179	0xbccff67a	-0.025386084
180	0xbb62dc41	-0.0034616145
181	0xbd1e2ef5	-0.038619
182	0xbd6d7caf	-0.057980236
183	0xbc5e364c	-0.01356275
184	0x3cc4c58c	0.024019979
185	0xbd1c00bc	-0.038086638
186	0x3da4afe0	0.08041358
187	0x3ccf2f7b	0.025291195
188	0x3db09e42	0.08623935
189	0x3d96ff70	0.073729396
190	0xbc05dda3	-0.008170518
191	0xbc68b0b2	-0.014202284
192	0x3d30d61e	0.043172948
193	0xbc323162	-0.010876032
194	0x3ca49a0e	0.02009299
195	0x3bcd99be	0.006274431
196	0x3c36d537	0.011159233
197	0x3d2c01c3	0.041993868
198	0xbc872913	-0.016499078
199	0x3d8f99a5	0.07011727
200	0x3d67bdc4	0.05657746
201	0x3d63c5a0	0.05560839
202	0x3dd373a5	0.10324792
203	0x3d062fec	0.032760546
204	0xbd024c06	-0.031810783
205	0x3cb2e20a	0.0218363
206	0x3d36ce5d	0.044630397
207	0x3c241bc7	0.010016388
208	0x3da9a5cd	0.08283577
209	0xbc1bd659	-0.009511554
210	0xbc590ff9	-0.013248437
211	0xbcbcc8cb	-0.023044964
212	0xbcbe0236	-0.023194414
213	0xbc7c592a	-0.015402118
214	0x3d81ee30	0.06344259
215	0x3d6296f7	0.055319753
216	0xb9edc359	-0.00045349708
217	0x3d67d25b	0.056597095
218	0x3d171876	0.036888562
219	0xbd80f13a	-0.0629601
220	0xbc804fab	-0.015662989
221	0xbc06c700	-0.008226156
222	0x3c77cdd6	0.015124759
223	0xbc9a4e9c	-0.018836312
224	0x3cd8eaff	0.026479242
225	0x3d49841c	0.049198255
226	0xbd646261	-0.055757884
227	0xbd6d5107	-0.0579386
228	0xbbb7a7e1	-0.0056047295
229	0x3c32b696	0.01090779
230	0x3d35bc72	0.04436917
231	0x3d534931	0.051583473
232	0xbb35f708	-0.002776565
233	0x3ca51e67	0.020156099
234	0x399c94ac	0.00029865408
235	0x3d2e98c0	0.042626143
236	0x3d7249b5	0.059152324
237	0x3d8adc46	0.06780295
238	0x3bf21822	0.0073881308
239	0x3d29bb23	0.041438233
240	0x3c93693c	0.017994516
241	0xbb81264e	-0.003941334
242	0xbd993dd3	-0.07482495
243	0x3d35f7d6	0.044425808
244	0x3d7197b1	0.058982555
245	0x3d19f403	0.037586223
246	0x3bb58d77	0.0055405456
247	0xbc43dec5	-0.011954968
248	0x3bd5cf5b	0.006524963
249	0xbcdc5f97	-0.02690105
250	0x3da2cfcd	0.07949791
251	0x3cf91075	0.030403355
252	0x3b84eb3c	0.0040563624
253	0x3da1cab2	0.07899989
254	0x3d06eb4d	0.032939244
255	0xbd847f24	-0.06469563

fc3.weight f4 [1, 360]
0	0xbced1a2d	-0.028943146
1	0xbc5c73bd	-0.0134553285
2	0xbc506936	-0.012720397
3	0xbcf87f51	-0.030334147
4	0x3bddfc2d	0.0067744465
5	0x3b60752c	0.0034249527
6	0x3b7702b2	0.0037690816
7	0xbb84979e	-0.0040463945
8	0xbbe8fd77	-0.0071102935
9	0x3c5a2a2e	0.0133157205
10	0xbd0fd4a9	-0.035114918
11	0xbbb3a272	-0.0054820115
12	0x3d8e7e05	0.0695763
13	0xbd566ac1	-0.052347902
14	0xbce7eb8c	-0.02831056
15	0xbb144752	-0.0022625518
16	0xbb92c86f	-0.00447946
17	0xbd4831f1	-0.048875753
18	0x3b69404c	0.0035591302
19	0xbba1df37	-0.0049399394
20	0xbcdc0417	-0.026857419
21	0x3b5a207f	0.003328353
22	0x3bcd9053	0.0062733083
23	0x3d1c3add	0.038142074
24	0x3a06b4fd	0.00051386637
25	0xb9ae4bac	-0.00033244246
26	0x3bed8d06	0.0072494773
27	0xbd755195	-0.059892256
28	0x3bf011c1	0.007326335
29	0xbb3fd2e1	-0.002926998
30	0xbb952f9c	-0.0045527946
31	0x3b9601f1	0.004577868
32	0xbb545471	-0.0032398964
33	0x3d9351bd	0.07193325
34	0xb9c20230	-0.00037004193
35	0xbb52c784	-0.0032162378
36	0x3cc91df8	0.024550423
37	0xbd07da15	-0.033166964
38	0x3b396a42	0.0028292094
39	0xbbaaf7ee	-0.005217544
40	0xbce8b194	-0.028404988
41	0xbdcef40a	-0.101051405
42	0xbc50a767	-0.012735224
43	0xbc3a94a6	-0.01138798
44	0xbc85a5be	-0.016314384
45	0x3b900a8d	0.004395789
46	0xbc67245d	-0.014107791
47	0x3b5224b0	0.0032065324
48	0xbd0e4eb7	-0.034743037
49	0xbca5c227	-0.02023418
50	0xbb25b045	-0.0025282067
51	0x3b887fab	0.00416561
52	0xbbcccffc	-0.0062503796
53	0x3b81479a	0.003945303
54	0xbc3fd36a	-0.01170812
55	0x3d1056cf	0.035239037
56	0xbba19259	-0.004930776
57	0xbcee6910	-0.029102832
58	0x3aea65d9	0.0017883136
59	0x3b8d70c1	0.00431642
60	0xbb992380	-0.0046734214
61	0x3b32ef0d	0.002730313
62	0xbb8a6dd1	-0.004224517
63	0x3b75d409	0.0037510416
64	0x3b80923e	0.0039236834
65	0xbb8b4e64	-0.0042512883
66	0xbbd4fce1	-0.006499872
67	0x3b39b011	0.0028333704
68	0x3c878c27	0.016546322
69	0x3bfd9d94	0.007739732
70	0x3a8c9906	0.0010726757
71	0x3b814429	0.003944893
72	0xbc7229f5	-0.014780511
73	0xbd26fade	-0.04076659
74	0x3b65ad3f	0.003504589
75	0x3c16e4bc	0.009209808
76	0x3db950ce	0.090486154
77	0x3bb27352	0.005445876
78	0x3b7a6121	0.0038204866
79	0xbb77906f	-0.0037775298
80	0xbb478c0d	-0.0030448467
81	0xbc26178a	-0.010137448
82	0xbc5ece47	-0.013598985
83	0xbb8b456c	-0.004250219
84	0xbba65da9	-0.005077083
85	0x3b2a5703	0.0025991804
86	0xbcf7ab1c	-0.030232958
87	0x3bbc1427	0.005739707
88	0xbba97dd2	-0.0051724697
89	0xbb7454a4	-0.0037281895
90	0x3b3df9f4	0.0028988095
91	0xbb96e5cd	-0.004605031
92	0x3bc0ea15	0.0058872798
93	0x3bae9eeb	0.005329003
94	0x3936882c	0.000174076
95	0x3d0abb65	0.03387012
96	0xbc2eb6aa	-0.010663668
97	0x3c293004	0.010326389
98	0xbbad492c	-0.005288264
99	0x3b851c8a	0.00406224
100	0x3b301a6f	0.0026871224
101	0xbc31799e	-0.010832218
102	0xbd7f3d71	-0.062314454
103	0x398cb95a	0.00026840979
104	0xbb8e0495	-0.0043340423
105	0xbc49767d	-0.012296316
106	0x3d36cb01	0.044627193
107	0x3bb8f604	0.0056445617
108	0xbb73cd55	-0.0037201245
109	0xbcc5f5c1	-0.024165036
110	0x3b2a9ff4	0.002603528
111	0x3b51b47c	0.0031998446
112	0xbd3b330c	-0.04570298
113	0x3ccd7563	0.025080388
114	0x3b8fcf87	0.004388753
115	0x3b159b2a	0.002282808
116	0x3cb1bbe4	0.021696039
117	0x3b833462	0.0040040473
118	0x3b924a2a	0.0044644075
119	0xbb97732b	-0.0046218834
120	0xba047bc5	-0.00050538435
121	0x3bbda467	0.0057874206
122	0xbc4c1634	-0.0124564655
123	0xbb5d3cc6	-0.0033758148
124	0x3b6dc0ea	0.0036278316
125	0x3d1ccc47	0.03828075
126	0xbd05ae3b	-0.032636862
127	0xbc18a2a7	-0.009316123
128	0xbd4447b2	-0.047919936
129	0x3b6b3a3f	0.0035892872
130	0x3bafebf9	0.0053687063
131	0x3b2955b9	0.0025838448
132	0xbd2c9538	-0.042134494
133	0x3b85d0cf	0.00408373
134	0xbc8531a9	-0.016259031
135	0x3c36253c	0.011117276
136	0x3d2bd002	0.04194642
137	0xbc04144d	-0.008061481
138	0xbb8f0b78	-0.004365381
139	0x3b8d05ba	0.004303661
140	0x3b5e0136	0.0033875233
141	0x3baf06e6	0.0053413985
142	0x3b36a72e	0.0027870643
143	0xbb907932	-0.004408979
144	0x3be0f090	0.006864615
145	0x3c9c1724	0.019054003
146	0x3c16b291	0.009197847
147	0xbbb8fb61	-0.005645201
148	0x3c97286d	0.018451894
149	0xbbac733b	-0.00526276
150	0x3b4f307c	0.0031614592
151	0xbca0bdc4	-0.019621737
152	0xbd126fc5	-0.035751123
153	0xbc750ef4	-0.014957178
154	0x3ba298ba	0.004962054
155	0xbd4d8423	-0.050174844
156	0x3c9c5f88	0.019088522
157	0xbd097973	-0.03356309
158	0x3b8d5ba4	0.004313903
159	0x3c09c525	0.008408819
160	0xbbcb8d2b	-0.006211897
161	0xbd7b77b1	-0.061393443
162	0x3b28cb11	0.0025755803
163	0xbd73ecad	-0.059551883
164	0xbda4487d	-0.080216385
165	0xba32eb3e	-0.0006825215
166	0xbc6bd2da	-0.014393533
167	0x3ba8672b	0.0051392517
168	0xbbdf8f99	-0.006822538
169	0x3b98b8ee	0.004660717
170	0x3b4bf00b	0.0031118419
171	0x3b6a0798	0.0035710093
172	0xbd9bbffe	-0.07604979
173	0xbb3de256	-0.0028974018
174	0xbc7064e5	-0.014672493
175	0x3b526207	0.0032101886
176	0xbd014afa	-0.031565644
177	0x3ba1d645	0.004938873
178	0xbc22e0ec	-0.009941321
179	0xbb91e5b3	-0.004452431
180	0xbd0cf494	-0.034412935
181	0xba810523	-0.000984345
182	0xbc0958d1	-0.008382992
183	0xbd683bcf	-0.056697663
184	0x3d26f7b4	0.04076357
185	0xbb9d5630	-0.004801534
186	0x3b72bae4	0.0037037665
187	0xbb9da4aa	-0.0048108893
188	0x3b37ac34	0.0028026225
189	0x3b8666b4	0.0041015986
190	0x3d3ea645	0.046545286
191	0xbd5e7d74	-0.05431886
192	0x3b1db42a	0.0024063685
193	0xbb8a2700	-0.004216075
194	0xbbd41827	-0.0064726057
195	0xbd123ab0	-0.0357005
196	0xbc248dc3	-0.010043564
197	0x3c48f048	0.012264319
198	0xbcbe597c	-0.023236029
199	0x3b830d78	0.0039994083
200	0x3b5870a4	0.0033026123
201	0xbcce8dc8	-0.025214091
202	0x3b4bd255	0.003110071
203	0x3ba2d4b3	0.0049692034
204	0xbd0246cf	-0.03180581
205	0x3baabe0c	0.0052106436
206	0x3cc28e83	0.023749596
207	0xbb719161	-0.0036860334
208	0x3b37ecfe	0.0028064842
209	0xbcd3bf6a	-0.02584811
210	0xbb76bd0e	-0.0037649306
211	0xbcfb2763	-0.03065843
212	0xbbd879c4	-0.0066063125
213	0x3cf172cf	0.02947369
214	0x3b5ee19d	0.0034008988
215	0x3cd0b956	0.025479
216	0xbb4ecdb2	-0.003155571
217	0x3b5a5be0	0.0033318922
218	0x3b81798d	0.0039512576
219	0xbc1878a2	-0.009306105
220	0xbb84c2a4	-0.0040515233
221	0xbd141b47	-0.036158826
222	0x3b91edc3	0.0044533922
223	0xbc895752	-0.01676527
224	0xbc0e3979	-0.008680695
225	0x3b3ee5c3	0.0029128648
226	0xba810f89	-0.0009846549
227	0xbd6c8866	-0.057747267
228	0xbb6d90d9	-0.0036249666
229	0xbbaad02b	-0.005212804
230	0x3b34e2a2	0.0027600904
231	0xbcff8e19	-0.031195687
232	0x3c9b479c	0.018955044
233	0xbbb2d554	-0.0054575596
234	0xbb5c8205	-0.0033646834
235	0x3d59652c	0.053075
236	0x3c03ee66	0.008052444
237	0x3b825812	0.003977784
238	0x3c4a667e	0.012353538
239	0xbb8c8fcb	-0.0042896024
240	0xbbb8581d	-0.0056257383
241	0x3b91a6e1	0.0044449423
242	0xbd4e77b3	-0.050407123
243	0x3b52e62d	0.0032180652
244	0x3b8e4619	0.0043418524
245	0xbcd6006b	-0.026123246
246	0x3d6c1b19	0.05764303
247	0xbb53c765	-0.0032314893
248	0xbddc2a2e	-0.10750233
249	0xbba20747	-0.004944715
250	0x3bb20cdd	0.0054336623
251	0x3d9f8b3e	0.0779023
252	0xbd49a94f	-0.04923373
253	0x3b740620	0.0037235096
254	0x3b961222	0.0045797983
255	0x3b8f34c9	0.004370306
