checkpoint_actor1.pth (torch, 745823 bytes, 6 tensors)

fc1.weight f4 [480, 24]
0	0xbc8164fb	-0.015795222
1	0x3d867546	0.06565337
2	0xbd1184f0	-0.03552717
3	0xbc69bda9	-0.01426641
4	0x3c1f9c9b	0.0097419275
5	0xbc5f2a91	-0.0136209885
6	0xba3cb0af	-0.0007197959
7	0x3c94121c	0.018075041
8	0xbb25779f	-0.0025248302
9	0x3d7b6731	0.061377708
10	0xbc9c8ee8	-0.019111112
11	0x3bb8d2ef	0.0056403796
12	0x3d8efb43	0.06981518
13	0xbdb30edf	-0.08743071
14	0xbbb7c14f	-0.005607761
15	0x3d616076	0.055023633
16	0xbd143e32	-0.036192127
17	0x3db17c83	0.08666327
18	0x3c8f41d4	0.017487444
19	0x3c68c247	0.014206476
20	0x3d3897ae	0.045066528
21	0xbe6000ca	-0.21875301
22	0xbd04a3b2	-0.032382675
23	0xbcd9a421	-0.02656752
24	0x3ac45d88	0.0014981488
25	0xbde46776	-0.11152546
26	0xbd128b8d	-0.035777617
27	0xba80c4a0	-0.0009824224
28	0x3c0e58a7	0.008688129
29	0x3ce7d2a7	0.028298689
30	0x3cdb8322	0.026795927
31	0x3d9176b9	0.07102723
32	0x3d953b30	0.0728668
33	0xbd57f650	-0.052725136
34	0xbc3d23f6	-0.011544218
35	0xbdbb03d2	-0.09131588
36	0x3dbb0ad1	0.091329224
37	0x3c9cf11a	0.019157935
38	0x3bfd4366	0.007728982
39	0xbd55534f	-0.052081402
40	0x3d9feef0	0.078092456
41	0xbda7478a	-0.08167942
42	0x3ba4a6d5	0.0050247707
43	0xbdb50486	-0.088387534
44	0x3d9cb139	0.0765099
45	0x3d99472b	0.07484277
46	0x3cb1c5bc	0.021700732
47	0xbd54d1b3	-0.051957797
48	0xbda06c37	-0.0783314
49	0x3d89338a	0.066992834
50	0xbc245f84	-0.010032538
51	0xbc92fb1c	-0.017942004
52	0x3a45d567	0.0007546753
53	0xbd2a7afa	-0.041621186
54	0x3c5a3850	0.01331909
55	0xbd13c6b9	-0.03607819
56	0xbd1cbc35	-0.038265426
57	0x3d823762	0.0635822
58	0x3c5b3ac0	0.013380706
59	0x3ca9fd1e	0.020750578
60	0x3cc579b2	0.02410588
61	0xbe3058a4	-0.17221314
62	0xbc84e72e	-0.016223516
63	0xbbd705cb	-0.00656197
64	0xbcc5a154	-0.024124779
65	0x3dfdafed	0.12387071
66	0xbc5f8954	-0.013643581
67	0xbc91d9d0	-0.017804056
68	0x3d348eab	0.04408137
69	0xbe48ab8b	-0.19596688
70	0x3c1d8513	0.009614247
71	0xbc974593	-0.018465793
72	0xbc85b2e1	-0.016320648
73	0x3df600d8	0.1201188
74	0x3bac0c85	0.005250516
75	0x3c4e5acd	0.012594891
76	0xbd3caf75	-0.046065766
77	0xbd3d80c2	-0.04626537
78	0x3cb6ed11	0.022329839
79	0xbaf891eb	-0.0018964385
80	0xbcd29458	-0.025705501
81	0x3dcb93c1	0.09940291
82	0x3ccabb1c	0.024747424
83	0x3b044030	0.002017986
84	0x3d8f2f5f	0.06991457
85	0xbdd1fa97	-0.10252874
86	0xbc289038	-0.010288291
87	0x3d34aaee	0.044108324
88	0xbd2920a0	-0.04129088
89	0x3e13425d	0.14380784
90	0x3a4ef604	0.00078949356
91	0x3da26351	0.07929099
92	0x3da74e3a	0.081692174
93	0xbe4084b8	-0.18800628
94	0x3c1f66bc	0.009729084
95	0x3d4a3d37	0.049374785
96	0x3c038b41	0.008028806
97	0xbc750df8	-0.014956944
98	0xbd28c1f6	-0.0412006
99	0xbd1530c1	-0.03642345
100	0xbc24c5ba	-0.010056907
101	0x3d6ea63b	0.058264
102	0x3cac571a	0.021037627
103	0x3afa45a5	0.0019094242
104	0xbb9dffe2	-0.0048217634
105	0xba7bcd1d	-0.00096054544
106	0xbc812f6f	-0.015769688
107	0x3c6c7fcd	0.014434767
108	0xbd8747a3	-0.066054605
109	0xbd0a8e27	-0.033826973
110	0xbc4ccaf9	-0.012499564
111	0x3c62686d	0.013818842
112	0x3d491386	0.049090885
113	0xbd271fc4	-0.04080178
114	0x3c5185de	0.012788264
115	0x3bd23790	0.006415315
116	0xbdd3aab8	-0.103352964
117	0xbdddc540	-0.10828638
118	0xbcf0df71	-0.02940342
119	0x3d61091d	0.05494033
120	0x3daa64ad	0.08319984
121	0xbc99090f	-0.018681077
122	0xbbc502b3	-0.0060122847
123	0xbe2202c2	-0.15821365
124	0x3de2ff0d	0.11083803
125	0xbd83a166	-0.06427269
126	0xbc146daa	-0.009059349
127	0xbe05eb06	-0.13077936
128	0x3c6e92b2	0.014561342
129	0xba8a0dcb	-0.0010532675
130	0xbb4aefbe	-0.0030965651
131	0xbd1923c3	-0.03738762
132	0x3b27e8ac	0.002562086
133	0x3bb7561e	0.0055949828
134	0xbccd6f36	-0.025077444
135	0xbd8b2e6a	-0.06795962
136	0x3d7eeaf0	0.062235773
137	0x3d505628	0.050863415
138	0xbd120fe0	-0.03565967
139	0xbc404ad9	-0.011736595
140	0xbd979f1a	-0.07403393
141	0x3e29e7a7	0.16592275
142	0x3d2b8dc2	0.041883238
143	0xbc560d97	-0.0130647635
144	0x3d929e43	0.07159092
145	0x3d2fdfeb	0.042938154
146	0x3d35bf6b	0.044372004
147	0xbc38b23d	-0.011272964
148	0x3cc5b712	0.024135146
149	0x3b50468a	0.0031780326
150	0xbd1e112b	-0.03859059
151	0x3bf6ddcc	0.0075337645
152	0x3d1f7fcf	0.038940247
153	0x3cc9d895	0.024639407
154	0xbcbce3e7	-0.023057891
155	0xbcdaff53	-0.026733076
156	0xbbcf8a87	-0.0063336524
157	0x3df9fb89	0.1220618
158	0x3cb39a21	0.02192408
159	0x3c83f574	0.016108252
160	0x3d397465	0.045277018
161	0x3cfe1bbe	0.031019088
162	0x3c9a7f97	0.018859668
163	0x3d08b451	0.033375088
164	0xbdf1536e	-0.11783491
165	0x3e20de1c	0.15709728
166	0xbc29fb54	-0.010374863
167	0x3d16d989	0.03682855
168	0x3db05312	0.086095944
169	0xbc047a64	-0.008085821
170	0xbbd10022	-0.0063781897
171	0x3d5fb252	0.05461342
172	0xbd41d5e6	-0.04732313
173	0xbdf8a128	-0.12140113
174	0x3d1544ba	0.036442496
175	0xbc84fe09	-0.016234415
176	0x3dec6599	0.11542816
177	0xbd48c326	-0.049014233
178	0xbcd21a64	-0.02564735
179	0x3d81212b	0.063051544
180	0xbc0f110b	-0.008732091
181	0xbe405720	-0.18783236
182	0xbc0d4a3b	-0.008623655
183	0x3dc4eaee	0.09615122
184	0x3d9e257d	0.07721994
185	0xbd7535f1	-0.059865896
186	0x3cc2c383	0.023774868
187	0xb9ec9dd1	-0.0004513101
188	0x3d994d79	0.0748548
189	0xbe39c8cd	-0.18143006
190	0x3d1b3de3	0.037900817
191	0xbcc935d0	-0.024561793
192	0x3cbd7aa1	0.023129763
193	0xbc418c74	-0.011813272
194	0x3cf650c3	0.030067807
195	0xbc1cd805	-0.009572987
196	0x3cb66907	0.022266878
197	0x394ec35e	0.00019718471
198	0xbd24c834	-0.04022999
199	0xb901d4e2	-0.00012381704
200	0x3c304ce5	0.010760521
201	0x3d29d3d7	0.04146179
202	0xbc4abed1	-0.012374596
203	0x3d61971b	0.055075746
204	0xbd107109	-0.03526405
205	0xbd0fc95c	-0.03510414
206	0x3c849510	0.01618436
207	0xbb146d2f	-0.0022648086
208	0x3ca7d71a	0.02048831
209	0x3d2d1427	0.042255547
210	0x3ca32c94	0.019918717
211	0x3b163696	0.002292072
212	0xbdf3145f	-0.1186912
213	0x3c3d788e	0.011564387
214	0xbcb96c62	-0.022634689
215	0x3d20dc52	0.039272614
216	0x3e394a63	0.18094783
217	0xbdd26a89	-0.10274226
218	0xbce71d64	-0.028212257
219	0xbcc3b9d5	-0.023892323
220	0x3c8a9d66	0.016920757
221	0x39e709b7	0.00044066992
222	0xbcf58734	-0.029971696
223	0xbcc06d6f	-0.023489682
224	0x3e2b6cf6	0.16740784
225	0xbdf0936e	-0.1174687
226	0x3c1ef11a	0.009701038
227	0x3c168c09	0.00918866
228	0x3e06176b	0.13094871
229	0x3c0afac9	0.008482643
230	0xbc78f711	-0.015195624
231	0xbd3aca94	-0.04560335
232	0x3e5bb2f5	0.21454985
233	0xbe034ef1	-0.12823083
234	0x3c37dc10	0.011221901
235	0x3c023fdf	0.007949798
236	0x3e61dedb	0.22057669
237	0xbdb48788	-0.08814913
238	0xbc558494	-0.013032097
239	0x3b44d61f	0.0030034853
240	0xbc82e54c	-0.015978478
241	0x3c4d60fb	0.012535329
242	0xbb96885e	-0.004593893
243	0xbddf4d39	-0.10903401
244	0xbd247ecf	-0.040159997
245	0xbe1761b8	-0.1478337
246	0xbbd41e52	-0.006473341
247	0xbe299ba6	-0.16563281
248	0x3cb734aa	0.02236398
249	0xbc49a7da	-0.012308085
250	0xbce8614f	-0.028366713
251	0xbc48beac	-0.012252491
252	0x3d61abe9	0.055095587
253	0xbd0625bc	-0.03275083
254	0xbd0358b9	-0.032067034
255	0x3cc68961	0.02423543

fc1.bias f4 [480]
0	0xbd348e51	-0.044081036
1	0x3d92f083	0.0717478
2	0x3e52bef4	0.20580655
3	0x3e14c440	0.14527988
4	0xbe64fd1e	-0.22362182
5	0x3d398c7e	0.0453
6	0x3de75414	0.112953335
7	0xbd8d2d76	-0.068934366
8	0xbe85f39b	-0.2616242
9	0xbdcf4dea	-0.10122283
10	0xbc1afdad	-0.009459895
11	0x3da5562a	0.08073075
12	0x3dce674d	0.10078297
13	0xbd28e6b5	-0.041235644
14	0x3e208084	0.15674025
15	0xbe0ffa80	-0.14060402
16	0x3c113593	0.008862871
17	0xbde2a9fa	-0.11067577
18	0xbe0bf286	-0.13666734
19	0xbe8e79a1	-0.2782717
20	0xbe805642	-0.2506581
21	0xbbfdcdfb	-0.007745502
22	0xbe7e01ec	-0.2480542
23	0xbcb745fc	-0.022372238
24	0xbe3e1c09	-0.18565382
25	0x3cfe80ea	0.03106733
26	0xbe567f1f	-0.2094693
27	0xbe14b37f	-0.14521597
28	0x3c9ea6c7	0.019366635
29	0xbc904d38	-0.017614946
30	0xbcf64542	-0.030062322
31	0xbde5c1c9	-0.11218602
32	0x3e00ddcd	0.1258461
33	0x3e3c374f	0.18380474
34	0xbea8eabe	-0.32991594
35	0xbc6076e5	-0.013700222
36	0x3d536d18	0.05161771
37	0x3e12594a	0.14291874
38	0xbc33ef40	-0.010982335
39	0x3d86900a	0.06570442
40	0xbdbb7e1a	-0.09154911
41	0xbdc0f7c5	-0.09422258
42	0xbdf4a0e4	-0.1194475
43	0xbe4253d4	-0.1897729
44	0xbe5c410b	-0.21509187
45	0x3bd10ecd	0.006379938
46	0xbe73ef51	-0.2382176
47	0xbe056a53	-0.1302884
48	0xbe6dfe86	-0.23241624
49	0xbe23477a	-0.15945235
50	0xbd96b006	-0.073577926
51	0xbe8a2ad7	-0.2698581
52	0x3d3da7a5	0.046302456
53	0xbde9f4c7	-0.11423641
54	0xbd23969b	-0.03993855
55	0xbd2d2c0f	-0.042278346
56	0xbe76a541	-0.24086477
57	0x3d94209b	0.072327815
58	0xbe27dee6	-0.16393623
59	0x3cd2d965	0.025738427
60	0x3cbe4ce7	0.02323003
61	0xbda9b8a8	-0.082871735
62	0x3c87e6fe	0.016589638
63	0xbc2ad1ce	-0.010425998
64	0x3d2c0599	0.041997526
65	0xbe229645	-0.15877636
66	0xbe42011e	-0.18945739
67	0xbbcfb827	-0.0063390913
68	0xbe2b2ffd	-0.16717525
69	0xbc1b334b	-0.009472678
70	0xbd0ff1fd	-0.035142887
71	0xbe0019a5	-0.12509783
72	0xbe6ae566	-0.22939071
73	0x3dc28f0a	0.09499939
74	0xbdafa1cb	-0.085757814
75	0xbe8d7c57	-0.27633926
76	0xbe8175a9	-0.2528508
77	0xbdfaea18	-0.12251681
78	0xbdd3ef27	-0.10348349
79	0xbd9d85ee	-0.07691561
80	0xbe06926b	-0.13141792
81	0x3dbf98fa	0.0935535
82	0x3e1edd87	0.15514193
83	0xbe8a1d45	-0.26975456
84	0xbd654ca0	-0.05598128
85	0xbd54ddb7	-0.051969256
86	0x3bd99b41	0.006640822
87	0xbe052e85	-0.13006027
88	0xbdcb1daa	-0.09917767
89	0x3e28bd6d	0.1647851
90	0xbd398cc6	-0.045300268
91	0xbe8d15cc	-0.27555692
92	0xbe322e89	-0.17400564
93	0x3e05c6ea	0.13064161
94	0xbe2b54a6	-0.1673151
95	0xbdcb42b4	-0.09924832
96	0x3dfceb8b	0.12349614
97	0x3dcaa30c	0.0989438
98	0xbe80598b	-0.25068316
99	0xbdfab851	-0.12242187
100	0xbc11e914	-0.008905668
101	0xbe006b51	-0.12540938
102	0x3c418952	0.011812525
103	0x3c8741b0	0.016510814
104	0xbe33a43b	-0.17543118
105	0xbe1e971b	-0.1548733
106	0xbe820709	-0.25395992
107	0xbe24e9c2	-0.16104797
108	0x3d88c587	0.066783
109	0xbe44e31a	-0.19227257
110	0xbe074fcd	-0.13214035
111	0xbd7711c3	-0.060319673
112	0x3c6e97e6	0.014562583
113	0xbe289407	-0.16462718
114	0x3dc42f36	0.09579317
115	0xbdf0f056	-0.117645904
116	0x3bb3cf44	0.0054873545
117	0xbda39ab4	-0.07988492
118	0x3d6c0cb3	0.0576293
119	0xbe737c72	-0.23777941
120	0xbddd055f	-0.1079204
121	0xbe87edfd	-0.26548758
122	0xbc8645fc	-0.016390793
123	0x3e12a545	0.14320858
124	0x3dce7591	0.10081018
125	0xbe7d99b0	-0.24765658
126	0xbe418188	-0.18897069
127	0x3c847b7a	0.01617216
128	0xbd873dc0	-0.06603575
129	0x3db8ccc9	0.09023435
130	0xbdec9041	-0.11550952
131	0xbdbf7766	-0.09348945
132	0xbe0691b8	-0.13141525
133	0xbe5c97ba	-0.21542254
134	0x3de1bd02	0.110223785
135	0xbd7d2ea3	-0.061812054
136	0x3d78cff1	0.060745183
137	0xbe69bfcb	-0.2282707
138	0x3d8c994e	0.06865178
139	0x3d15e624	0.036596432
140	0xbd8db047	-0.06918388
141	0xbe26116b	-0.16217582
142	0x3b7d9c4c	0.0038697897
143	0xbdf4ff4b	-0.11962756
144	0xbde117be	-0.109908566
145	0xbe3e3bdf	-0.18577527
146	0x3dc69b78	0.09697622
147	0x3def88ca	0.11696012
148	0x3b0a45e4	0.0021098787
149	0xbe3dae05	-0.18523414
150	0x3e0d0184	0.1377011
151	0xbe5e9681	-0.217371
152	0xbde0c527	-0.10975104
153	0xbe840487	-0.25784704
154	0x3e0c10bc	0.13678259
155	0x3e1c878d	0.15286084
156	0x3e1f465b	0.15554182
157	0x3e84aeb4	0.25914538
158	0xbd5d952e	-0.054097347
159	0x3d04dc65	0.032436747
160	0xbe8c844f	-0.27444693
161	0xbe3e683f	-0.18594454
162	0xbdc3c4e1	-0.09559036
163	0xbdbc9a57	-0.092091255
164	0x3d70f971	0.058831636
165	0xbe285567	-0.16438828
166	0x3d71a6b6	0.05899688
167	0xbe1a2c2f	-0.15055917
168	0xbdc526bd	-0.09626529
169	0x3be8ac79	0.0071006385
170	0xbe78e957	-0.24307762
171	0x3d0a0539	0.033696387
172	0xbe17c84e	-0.14822504
173	0xbe106889	-0.14102377
174	0x3d48c757	0.04901823
175	0x3e0b1787	0.13583194
176	0xbe096812	-0.13418606
177	0xbe497859	-0.19674815
178	0xba1511e2	-0.00056865637
179	0x3e689648	0.22713578
180	0x3d5135e9	0.051076803
181	0x3c87067c	0.016482584
182	0xbcc30540	-0.023806214
183	0x3d9baa17	0.076008014
184	0xbe7419f7	-0.2383803
185	0xbd45608d	-0.04818778
186	0x3e176eee	0.1478841
187	0xbd5cedf7	-0.05393788
188	0xbab2aa38	-0.0013631051
189	0xbd1954c1	-0.037434343
190	0xbe6c0705	-0.23049553
191	0xbdefac4c	-0.11702785
192	0xbb9bca89	-0.0047543687
193	0x3bfec281	0.0077746515
194	0x3dc86ba7	0.09786158
195	0xbe09db49	-0.13462557
196	0x3b82e940	0.0039950907
197	0x3dcc1d73	0.099665545
198	0xbe6e06d8	-0.23244798
199	0x3cdbd2d0	0.026833922
200	0x3e142b8b	0.14469735
201	0xbe4fabb4	-0.20280343
202	0xbe4ed856	-0.20199713
203	0xbe48a452	-0.19593933
204	0x3d035102	0.032059677
205	0x3d987bf3	0.074455164
206	0x3d96ae7e	0.073575005
207	0x3d9fbe37	0.077999525
208	0x3d212930	0.03934592
209	0xbe8c1d10	-0.27365923
210	0xbe82d8a5	-0.25555912
211	0x3db960f0	0.090516925
212	0xbe23604e	-0.15954706
213	0x3df3c9c0	0.11903715
214	0xbe7dce49	-0.24785723
215	0xbe2f0c51	-0.17094542
216	0x3c66bbad	0.014082831
217	0x3d60a339	0.05484316
218	0x3e601fba	0.21887103
219	0xbdb622e6	-0.08893375
220	0xbe1823b9	-0.14857377
221	0x3d88bbd8	0.06676453
222	0x3e03a1f2	0.12854746
223	0x3dc6dfcb	0.09710654
224	0xbd902a21	-0.070392855
225	0xbe1a5d4a	-0.1507465
226	0xbe1d7e42	-0.15380195
227	0x3de0561d	0.10953925
228	0xbddea3c0	-0.108710766
229	0x3cd91cbb	0.026502958
230	0xbe52365a	-0.20528546
231	0xbe6491d7	-0.22321258
232	0x3d91f7d6	0.07127349
233	0x3dc445a3	0.09583595
234	0xbe7b48aa	-0.24539438
235	0x3d8d11cb	0.06888159
236	0x3d9e3eb3	0.07726803
237	0x3d4705d6	0.04858955
238	0xbd42446b	-0.04742853
239	0xbdae4ba0	-0.08510518
240	0x3dbc6aee	0.09200083
241	0xbd7cd678	-0.06172797
242	0x3e15a112	0.14612225
243	0x3d6a5489	0.057209525
244	0xbd9959e7	-0.07487851
245	0x3e45f430	0.19331431
246	0xbda6dda6	-0.08147745
247	0x3c100991	0.008791343
248	0x3b683dd0	0.0035437234
249	0x3c9f3975	0.019436577
250	0x3e39fd1a	0.18162957
251	0xbc9ac024	-0.018890448
252	0xbe239f16	-0.15978655
253	0xbe168284	-0.14698225
254	0x3d93088f	0.07179367
255	0x3c35b4e9	0.011090496

fc2.weight f4 [360, 480]
0	0xba947a31	-0.001132792
1	0x3e11b7f9	0.14230336
2	0x3e080e5e	0.1328673
3	0x3d7537bb	0.0598676
4	0xbc254b5d	-0.010088769
5	0xbe044bc6	-0.1291953
6	0xbd90fe81	-0.07079793
7	0x3c867106	0.016411316
8	0xbcee2b28	-0.029073313
9	0xbdfe6bea	-0.12422927
10	0xbcbc0887	-0.022953285
11	0x39a5c1d7	0.00031615674
12	0x3ceb95a7	0.028757883
13	0xbb19a2e9	-0.002344305
14	0xbe0d893e	-0.13821885
15	0x38f06848	0.00011463516
16	0x3d4099aa	0.047021545
17	0xbd8bf1f7	-0.068332605
18	0xbcfb8d57	-0.030707045
19	0xbdd51af8	-0.104055345
20	0xbdfdfd55	-0.12401835
21	0x3d1b5c0e	0.037929587
22	0xbdab98e8	-0.08378774
23	0x3b6a348b	0.0035736884
24	0x3cc2d6f7	0.023784144
25	0xbcb363e0	-0.02189821
26	0x3d346420	0.0440408
27	0x3d4bcd6b	0.04975645
28	0xbdc41a10	-0.095752835
29	0xbd9a8a29	-0.07545883
30	0x3dc95090	0.09829819
31	0xbc092dfc	-0.00837278
32	0x3be653c2	0.0070290277
33	0x3c7c7e17	0.015410922
34	0xbe4f23bb	-0.20228474
35	0xbcfcc521	-0.030855717
36	0xbe892c4e	-0.26791614
37	0x3e3302c9	0.17481531
38	0x3c033c6b	0.00801001
39	0x3d22ad64	0.03971614
40	0x3d922393	0.071356915
41	0xbd52dfd4	-0.05148299
42	0xbc93a0c9	-0.018021004
43	0xbdc5a129	-0.096498795
44	0xbd2f13e7	-0.04274359
45	0xbdb05cef	-0.08611476
46	0xbe06b88b	-0.13156335
47	0x3c0563d3	0.008141476
48	0xbd7ea9d6	-0.062173687
49	0xbddfcaba	-0.10927339
50	0xbdb4dae7	-0.08830815
51	0x3d630661	0.055426005
52	0x3c806647	0.01567377
53	0xbcb4c73e	-0.022067662
54	0xbd430b59	-0.047618244
55	0xbce9e2f5	-0.028550604
56	0xbdc4c6c0	-0.09608221
57	0x3be5b4d4	0.007010082
58	0xbc60fa31	-0.013731525
59	0xbdabdee6	-0.08392124
60	0x3c2899fa	0.010290617
61	0xbd01e242	-0.031709917
62	0x3dda67f3	0.10664358
63	0x3dc5a660	0.09650874
64	0xbcd44aaf	-0.025914518
65	0x3c71faef	0.0147693
66	0x3cbd0f9e	0.023078736
67	0x3c8aeda9	0.016959028
68	0xbd896aef	-0.06709849
69	0xbbc3f09f	-0.005979612
70	0xbd54829f	-0.051882382
71	0x3d5a20d0	0.05325395
72	0xbd86f055	-0.065888084
73	0x3e2321a8	0.15930808
74	0xbdab60e9	-0.083680935
75	0xbe16e98a	-0.14737526
76	0xbe279d20	-0.16368532
77	0xbd51d8e6	-0.05123224
78	0xbd2c0486	-0.0419965
79	0x3d1e1cb9	0.03860161
80	0xbdc049d1	-0.09389079
81	0xbc44e4c6	-0.012017434
82	0x3d891d8f	0.06695091
83	0xbce76ab3	-0.02824912
84	0xbd364d4c	-0.04450731
85	0x3cfa3d99	0.03054695
86	0x3e0ff962	0.14059976
87	0x3c58559f	0.013204007
88	0x3d8eddba	0.06975885
89	0x3d3628df	0.04447257
90	0xbd8b4d40	-0.06801844
91	0xbe0996eb	-0.13436477
92	0xbc498379	-0.012299412
93	0xbc503c1d	-0.012709645
94	0x3d2dd867	0.042442705
95	0xbc9b0662	-0.018923942
96	0x3d931c7f	0.071831696
97	0x3cdaefee	0.026725736
98	0xbce034a4	-0.027368851
99	0x3c44ea8f	0.012018814
100	0x3d4964ed	0.049168516
101	0x3d0fcf4c	0.035109803
102	0x3d262dfc	0.040571198
103	0x3e0010b0	0.12506366
104	0xbe4d1c76	-0.20030388
105	0xbe125797	-0.14291225
106	0xbd0155cd	-0.031575967
107	0xbd09d400	-0.033649445
108	0xbccad819	-0.024761247
109	0x3d312301	0.043246273
110	0xbd8ce85b	-0.06880256
111	0xbce878b1	-0.028377863
112	0xbd8929cf	-0.066974275
113	0xbcef8788	-0.029239431
114	0xbd4b63b8	-0.049655646
115	0xbdc79c37	-0.097465925
116	0x3c421804	0.011846546
117	0xbdea921c	-0.114536494
118	0x3e11c108	0.14233792
119	0xbd3e40fc	-0.046448693
120	0xbe3ccebc	-0.18438238
121	0xbe359aec	-0.1773488
122	0x3d3be574	0.04587312
123	0x3cbfac40	0.023397565
124	0xbd0fb6d1	-0.035086457
125	0xbc7d0154	-0.015442211
126	0x3dd34a12	0.10316862
127	0xbda40c57	-0.08010166
128	0xbdcc7063	-0.099823736
129	0xbbca18a5	-0.0061674886
130	0xbd8dfb4b	-0.06932696
131	0x3d8268e5	0.06367663
132	0xbdea7aac	-0.11449179
133	0x3b9933cf	0.0046753655
134	0xbb23fed2	-0.002502371
135	0x3c03bb1a	0.008040214
136	0x3d9f8dbb	0.07790705
137	0xbdc14192	-0.09436335
138	0xbe194165	-0.14966352
139	0x3c8821a2	0.0166176
140	0x3b50a448	0.00318362
141	0xbd08554c	-0.03328447
142	0xbcbe36a3	-0.023219412
143	0x3ca8e241	0.020615699
144	0x3d7b27f7	0.06131741
145	0xbdd089b0	-0.10182512
146	0x3d3a5eb5	0.045500476
147	0xbd2a4fb6	-0.041579925
148	0x3ddfdf33	0.10931244
149	0xbd96b6ae	-0.07359062
150	0x3cb6c689	0.022311466
151	0x3b0dc990	0.0021635033
152	0x3d1aaf11	0.037764613
153	0xbcbef225	-0.023308823
154	0xbd31be4f	-0.043394383
155	0x3daf4c2d	0.08559451
156	0x3cf1e417	0.029527707
157	0x3d159c2e	0.036525898
158	0x3e09c4fd	0.13454051
159	0xbcbd6765	-0.023120591
160	0xbcc0d347	-0.023538245
161	0xbdd00af6	-0.10158341
162	0x3c428966	0.011873579
163	0xbcbd2ff7	-0.02309416
164	0x3d4d68ba	0.050148703
165	0xbbc3d0ea	-0.005975832
166	0xbcb21944	-0.021740563
167	0x3d688861	0.056770686
168	0xbd4939af	-0.049127277
169	0xbbd94aae	-0.006631217
170	0x3d33b87a	0.043877102
171	0xbd2ad2b4	-0.04170485
172	0x3c8eefd7	0.017448349
173	0x3d4aa2dd	0.049471725
174	0xbd834d6c	-0.064112514
175	0xbcc954a7	-0.024576498
176	0xbb97c140	-0.0046311915
177	0xbde45c55	-0.111504234
178	0xbd346be0	-0.04404819
179	0xbc0a7c92	-0.008452551
180	0x3d891899	0.06694145
181	0x3ba4ab25	0.005025285
182	0xbb8d2c02	-0.0043082247
183	0x3bc1a3a8	0.005909402
184	0xbdb1adf0	-0.08675754
185	0xbcfbc090	-0.03073147
186	0x3dbe64a2	0.09296538
187	0x3c9c91c0	0.019112468
188	0xbd379cfc	-0.044827446
189	0xbcc9d5fb	-0.024638167
190	0xbd626233	-0.05526943
191	0x3a82c824	0.000997786
192	0xbcde9845	-0.027172217
193	0xbd20ae19	-0.039228532
194	0xbdcdc9df	-0.100482695
195	0xbd167a13	-0.036737513
196	0xbc7853b8	-0.015156679
197	0xbb443357	-0.0029937827
198	0xbd2c14a3	-0.04201187
199	0xbe02ef14	-0.12786514
200	0x3d0b5a18	0.034021467
201	0xbdc183a2	-0.09448935
202	0x3db35647	0.087566905
203	0xbbd7921a	-0.006578696
204	0xbd32ecf0	-0.043682992
205	0xbc63f1d3	-0.013912636
206	0xbd63ead2	-0.055643864
207	0x3bccddbf	0.00625202
208	0x3d01c1bc	0.0316789
209	0x3d688245	0.05676486
210	0xbd70c73f	-0.058783766
211	0xbdbea6f0	-0.093091846
212	0xbb0d71ba	-0.002158268
213	0x3c06e615	0.008233567
214	0xbd3f6b1b	-0.046733003
215	0x3dd91685	0.105999984
216	0xbe7599c1	-0.23984434
217	0xbc0a1b6f	-0.008429392
218	0x3e12ff88	0.1435529
219	0xbcbabb52	-0.0227944
220	0x3c4ff06a	0.0126915965
221	0x3d4bfc7b	0.04980133
222	0x3d03b89a	0.03215847
223	0xbd8b9c0b	-0.06816872
224	0x3d8f9f4b	0.070128046
225	0x3de8c4e0	0.11365676
226	0xbd9cc10f	-0.076540105
227	0xbe26091e	-0.16214415
228	0x3ca7815a	0.020447422
229	0xbce488d9	-0.027897285
230	0x3cc20884	0.023685701
231	0xbd3feeba	-0.046858527
232	0xbd3e6388	-0.04648164
233	0xbc06c4a4	-0.008225594
234	0xbe4b7d46	-0.19872007
235	0x3cbf38c2	0.023342494
236	0xbd26d698	-0.040731996
237	0xbe08557d	-0.13313861
238	0x3c95141b	0.018198064
239	0x3e0c5c5f	0.13707112
240	0xbc301948	-0.010748215
241	0xbe3f6030	-0.18689036
242	0x3d8259b5	0.063647665
243	0x3d273ac6	0.040827535
244	0x3d3e7f69	0.046508227
245	0xbc3ea3d1	-0.011635737
246	0xbcb410db	-0.021980694
247	0x3b96624b	0.004589354
248	0x3d88e798	0.06684798
249	0xbc04ca71	-0.008104906
250	0xbbc6c115	-0.0060654976
251	0xbc1f6e5e	-0.009730903
252	0x3cb2c1a5	0.021820853
253	0xbdf6c641	-0.12049533
254	0x3dfbb581	0.122904785
255	0xbbd2595c	-0.006419344

fc2.bias f4 [360]
0	0x3a761fb2	0.0009388878
1	0xbbc55eb2	-0.0060232515
2	0xbd79e6e7	-0.06101122
3	0x3b0896df	0.002084188
4	0x3d05c9af	0.032663044
5	0x3c9e82d0	0.019349486
6	0x3dc239b2	0.09483661
7	0x3e23e45f	0.16005085
8	0x3e26625b	0.16248457
9	0x3d300b2e	0.04297941
10	0xbd79c827	-0.060981896
11	0x3d4accd1	0.049511734
12	0x3e0ec1f0	0.13941169
13	0xbd5a879a	-0.053351976
14	0xbb7fd59a	-0.0039037229
15	0x3d51daa9	0.05123392
16	0xbcbdb4cc	-0.0231575
17	0xbdbaa2ec	-0.09113106
18	0x3d2b4bf4	0.04182048
19	0x3e29fb12	0.16599682
20	0xbc8bb910	-0.017056018
21	0x3da5fcb4	0.0810484
22	0x3d9dc8eb	0.07704338
23	0xbd004aec	-0.03132145
24	0x3de24257	0.110478096
25	0x3dddb52a	0.1082557
26	0xbd22c7ea	-0.039741434
27	0xbd8dec5e	-0.06929849
28	0x3da1594d	0.07878361
29	0x3cc8839c	0.024476819
30	0x3cbf0517	0.023317857
31	0xbc81a56a	-0.015825946
32	0x3df42dba	0.11922784
33	0xbd89f6f3	-0.06736555
34	0x3e004776	0.1252726
35	0xbde4df7f	-0.11175441
36	0xbc153b64	-0.009108398
37	0xbd9549c1	-0.07289458
38	0x3d328542	0.043584116
39	0xbe3dfb9d	-0.18553014
40	0x3a4365c8	0.0007453826
41	0xbe02a3aa	-0.12757745
42	0x3c1d6aee	0.009608014
43	0x3c83de29	0.016097145
44	0x3df67dc3	0.12035706
45	0xbcc82dea	-0.024435956
46	0xbdb83f5f	-0.08996462
47	0xbd557e91	-0.052122656
48	0xbe67c102	-0.2263222
49	0x3e47f49d	0.19526906
50	0xbd1c0430	-0.03808993
51	0x3d8a0533	0.06739273
52	0xbadbda6f	-0.0016773472
53	0x3e002e9d	0.12517782
54	0x3c11c901	0.008898021
55	0xbd8bb740	-0.068220615
56	0xbc9bd29d	-0.019021327
57	0xbd66b617	-0.056326
58	0x3d87c99c	0.06630251
59	0xbca2513c	-0.019814126
60	0xbcf788ba	-0.030216563
61	0x3c96f729	0.018428402
62	0x3e2e1f66	0.17004165
63	0x3d029ce7	0.031887915
64	0x3e3b418e	0.18286726
65	0xbd3867a4	-0.045020714
66	0xbe64055b	-0.22267668
67	0xbd4b3033	-0.049606513
68	0xbbddf98c	-0.006774133
69	0x3cf9bd8d	0.030485893
70	0x3b68b2df	0.0035507006
71	0x3dbe7621	0.09299875
72	0xbdd092b7	-0.10184234
73	0x3b92e925	0.0044833594
74	0xbdba8939	-0.091082044
75	0xbd5d9dd9	-0.054105613
76	0x3dbebfb8	0.09313911
77	0x3bf998c7	0.0076170894
78	0x3e1839d3	0.14865808
79	0x3df8b71b	0.121442996
80	0x3cb80f93	0.022468364
81	0xbcd5c30b	-0.02609398
82	0x3d322014	0.043487623
83	0x3db56bb4	0.08858433
84	0xbbe2c1ec	-0.00692009
85	0x3d9caae8	0.07649785
86	0xbdfb89a5	-0.12282113
87	0x3e58252a	0.21107927
88	0xbd81fbea	-0.06346877
89	0xbde49c00	-0.11162567
90	0x3d0ba647	0.03409412
91	0xbd66e80e	-0.05637365
92	0xbb9041a5	-0.0044023567
93	0x3c902539	0.017595874
94	0x3e1b442f	0.15162729
95	0x3b39aee4	0.0028333003
96	0x3c9e6b5a	0.019338299
97	0xbe05bd99	-0.13060607
98	0xbd8e911e	-0.06961273
99	0x3e1d5f44	0.15368372
100	0x3cb7060f	0.022341756
101	0xbd72e6e7	-0.059302237
102	0xbc6b3f61	-0.014358372
103	0x3dfbf046	0.12301688
104	0xbdf1ef79	-0.11813254
105	0xbd8d6adb	-0.06905147
106	0x3c692940	0.014231026
107	0x3e6ebe71	0.23314835
108	0xbcd350fb	-0.02579545
109	0x3ceb3ecf	0.028716473
110	0x3df36e51	0.118862756
111	0xbc82521b	-0.015908292
112	0xbdc2d532	-0.0951332
113	0x3e28dcac	0.1649043
114	0xbc15e60b	-0.009149085
115	0x3d4bd575	0.049764115
116	0x3e03ce04	0.12871557
117	0x3bc5fc3e	0.0060420325
118	0x3db7dfd7	0.08978241
119	0xbd4605ff	-0.048345562
120	0xbb94d992	-0.004542538
121	0x3c8b8b05	0.017034063
122	0xbcebe44e	-0.028795388
123	0x3d87dec3	0.06634285
124	0x3e4fe01f	0.20300339
125	0x3cec53fe	0.028848644
126	0x3dc5fa47	0.09666877
127	0xbcdbe5cc	-0.026842974
128	0x3e1b8142	0.15186027
129	0xbbf9fe6d	-0.007629207
130	0x3d0946ae	0.03351467
131	0xbe58d860	-0.2117629
132	0xbd488b60	-0.048961043
133	0x3d936b81	0.07198239
134	0xbda7e090	-0.08197129
135	0xbd0fd644	-0.03511645
136	0x3e31cab8	0.17362487
137	0xbda737d5	-0.08164946
138	0xbda0ade5	-0.07845668
139	0xbcb2f1d1	-0.021843823
140	0xbc00b1ea	-0.007854918
141	0xbde147b0	-0.110000014
142	0x3d1f1ed3	0.038847756
143	0xbcaa2eaf	-0.020774214
144	0xbd17a24b	-0.03702001
145	0xbdd2484b	-0.10267695
146	0xbd4c50ea	-0.049881853
147	0xbd183b52	-0.037165947
148	0x3d3775c0	0.04479003
149	0xbd1a84ae	-0.03772419
150	0x3d0a95f9	0.03383443
151	0xbbddc997	-0.006768416
152	0xbc1bb838	-0.00950437
153	0x3d0329e4	0.032022372
154	0x3ca0496a	0.019566257
155	0xbceb00c8	-0.028686896
156	0x3c605cde	0.013694016
157	0xbdea71d9	-0.11447496
158	0xbe225471	-0.15852524
159	0x3cedf0a1	0.029045405
160	0x3d7da64f	0.061926182
161	0xbd58f8aa	-0.05297152
162	0xba789aae	-0.0009483498
163	0x3d141a31	0.03615779
164	0xbd019104	-0.03163244
165	0xbd15ed55	-0.03660329
166	0x3d1bc63e	0.038030855
167	0xbd89405c	-0.06701729
168	0x3e2585b8	0.16164291
169	0xbd097673	-0.033560228
170	0xbdb57b64	-0.088614255
171	0x3dec0f40	0.11526346
172	0x3d8c3a4d	0.068470575
173	0x3e3224f6	0.17396912
174	0x3cc10117	0.02356009
175	0xbd8fe552	-0.07026161
176	0x3db21e7c	0.08697221
177	0x3ded4ace	0.115865335
178	0xbd3c8712	-0.04602725
179	0x3df295c2	0.1184497
180	0xbd4e3dcb	-0.0503519
181	0x3d8c39bd	0.0684695
182	0x3d9fd687	0.0780459
183	0x3cd202b1	0.025636049
184	0xbb6c6c52	-0.0036075306
185	0xbd5ec6a8	-0.054388672
186	0xbd14a869	-0.03629342
187	0xbc023254	-0.0079465695
188	0xbd537235	-0.05162259
189	0x3d2a3beb	0.04156105
190	0xbcc4635d	-0.023973161
191	0x3ca89903	0.020580774
192	0xbd78b66f	-0.060720857
193	0xb9633090	-0.00021666498
194	0x3d0f6e1e	0.035017125
195	0x3da83de0	0.08214927
196	0xbd25877b	-0.040412407
197	0xbce03f45	-0.02737392
198	0x3c6ff36d	0.01464544
199	0x3e1f011c	0.15527767
200	0xbd43d107	-0.047806766
201	0xbd8ba7ab	-0.068190895
202	0x3e2955c7	0.16536628
203	0xbd56cf74	-0.052443936
204	0x3d537c94	0.05163248
205	0x3c691347	0.0142257875
206	0xbd015574	-0.031575635
207	0x3b966d11	0.0045906384
208	0x3d39b4b4	0.045338348
209	0x3dded42a	0.10880311
210	0xbe0ce007	-0.13757335
211	0xbd103dc5	-0.035215158
212	0x3d2f01b4	0.042726234
213	0xbab5d227	-0.0013871834
214	0xbc189644	-0.00931317
215	0x3c465dd2	0.012107329
216	0xbd212401	-0.039340977
217	0x3df5b811	0.119979985
218	0x3d45e2bb	0.04831193
219	0x3db27633	0.08713951
220	0xbd0ef97a	-0.03490589
221	0xbdb83aae	-0.08995567
222	0x3d4d5ca5	0.05013718
223	0xbd6cdcf9	-0.057827923
224	0x3e4ec51d	0.2019238
225	0x3d1cb085	0.03825428
226	0xbd9c8db2	-0.07644214
227	0xbc82f259	-0.015984701
228	0x3c83b5f6	0.016077977
229	0x3cc41b82	0.023938898
230	0x3d97ed74	0.074183375
231	0x3c7b36fa	0.015332932
232	0xbcdc3fcf	-0.026885895
233	0xbd17a275	-0.037020165
234	0xbda44d4f	-0.08022558
235	0x3d9dd067	0.07705765
236	0x3d8c6be8	0.06856519
237	0x3db48c39	0.08815808
238	0xbcf2222d	-0.029557312
239	0x3ac053c9	0.0014673407
240	0x3e13d490	0.14436555
241	0xbdb215a0	-0.08695531
242	0xbd365597	-0.04451522
243	0xbb0a21af	-0.0021077206
244	0x3dd64839	0.10462994
245	0xbd887f22	-0.06664874
246	0x3c33fc4b	0.010985444
247	0xbdb25d92	-0.08709253
248	0x3c148f77	0.009067408
249	0x3dab0f07	0.083524756
250	0xbd1ed00d	-0.03877263
251	0x3cd24148	0.025665894
252	0x3c16bb79	0.00919997
253	0xbe5132a7	-0.20429479
254	0xbd59dd8c	-0.0531898
255	0x3db1dd9b	0.08684846

fc3.weight f4 [2, 360]
0	0x3e732cd5	0.23747571
1	0x3e2ef249	0.17084612
2	0xbe626c3e	-0.22111604
3	0x3e2bc4b9	0.16774262
4	0xbd8129c3	-0.063067935
5	0x3e9266b4	0.2859398
6	0xbd0e21b8	-0.034700125
7	0xbcc7623c	-0.024338834
8	0xbbd58467	-0.0065160277
9	0xbe1d25ee	-0.153465
10	0x3d9ee621	0.07758737
11	0xbdc4d4f2	-0.096109286
12	0x3c72c6c7	0.0148179
13	0xbe55ecc3	-0.20891099
14	0x3e10a0f5	0.141239
15	0x3d36287c	0.044472203
16	0xbe9ba8f8	-0.3040235
17	0xbe010465	-0.12599333
18	0x3d2c09e4	0.04200162
19	0xbd129a0e	-0.03579145
20	0x3dc9ed59	0.098597236
21	0xbe48e6a6	-0.19619235
22	0x3c1072af	0.008816405
23	0xbe4e163f	-0.20125674
24	0xbb96640c	-0.0045895632
25	0x3c28735a	0.010281408
26	0x3e022cd9	0.1271242
27	0xbe796a7b	-0.24357025
28	0x3d024a9e	0.03180944
29	0x3e79bf31	0.2438934
30	0xbdca07c0	-0.098647594
31	0xbeb5291a	-0.3538292
32	0x3c35bbca	0.011092136
33	0x3eb14554	0.34623206
34	0x3c25e156	0.010124525
35	0x3e1d6bf7	0.15373217
36	0xbe386d9c	-0.18010563
37	0x3e2e2367	0.17005692
38	0x3e912ce8	0.28354573
39	0x3dde58a5	0.10856751
40	0x3e2f8a9c	0.17142719
41	0x3e416bdf	0.18888806
42	0xbe83b90a	-0.2572711
43	0x3e6712f3	0.22565822
44	0x3c8e1d63	0.017347997
45	0xbd0fe4a5	-0.03513016
46	0x3e4634f0	0.19356132
47	0x3dc48819	0.09596271
48	0xbdc3904a	-0.09549005
49	0xbc2dd6b6	-0.010610273
50	0x3edc4bd1	0.43026593
51	0xbe0830d6	-0.1329988
52	0x3ea18bd9	0.31552008
53	0x3d449df2	0.04800219
54	0x3e23193f	0.159276
55	0x3e2e9d74	0.17052251
56	0xbe929861	-0.2863188
57	0x3ea058d4	0.3131777
58	0xbe55a667	-0.20864259
59	0x3d6b9362	0.057513602
60	0x3df277c1	0.118392475
61	0xbe957fa5	-0.29198948
62	0xbbd1d937	-0.006404068
63	0xbd95a58f	-0.073069684
64	0xb85f1b3d	-5.319271e-05
65	0x3d95c166	0.073122784
66	0x3da7745c	0.08176491
67	0x3b963cac	0.0045848694
68	0xbd9a5eea	-0.07537635
69	0x3cc5eacc	0.024159811
70	0x3e0ed371	0.13947846
71	0xbdb3ce1f	-0.08779549
72	0x3e3c4511	0.18385722
73	0x3e1aa412	0.1510165
74	0x3e2bb080	0.16766548
75	0xbe9bc7e9	-0.30425957
76	0xbdec7440	-0.115456104
77	0x3e785811	0.24252345
78	0xbd058a37	-0.032602515
79	0x3c145bb4	0.009055067
80	0x3e35e25c	0.1776213
81	0x3e2239df	0.15842389
82	0xbe84e13b	-0.25953087
83	0xbe197678	-0.14986598
84	0x3d7e6e77	0.062117066
85	0xbb3330f1	-0.0027342404
86	0x3e26b691	0.16280581
87	0xbcc09bfc	-0.02351188
88	0x3d2078b1	0.0391776
89	0x3e2f3034	0.17108232
90	0x3dba4dbe	0.090968594
91	0x3dbb13ce	0.09134637
92	0x3e4a6003	0.19763188
93	0x3deeb536	0.11655657
94	0x3af26288	0.0018492499
95	0xbdfd6c94	-0.12374225
96	0x3e82433b	0.25441918
97	0xbbaf3b81	-0.0053476696
98	0x3e292979	0.16519727
99	0xbc07ddba	-0.00829261
100	0x3dd72b77	0.10506337
101	0xbe9db54a	-0.30802375
102	0x3e9c2144	0.3049413
103	0xb9ad1b56	-0.00033017498
104	0x3e061a51	0.13095976
105	0x3cf50e64	0.029914089
106	0x3cb10f48	0.021613732
107	0xbd13079e	-0.035895936
108	0x3e772239	0.24134149
109	0xbd660265	-0.056154627
110	0x3ca138e5	0.01968045
111	0x3da7427d	0.081669785
112	0x3e814832	0.25250393
113	0xbc840022	-0.016113345
114	0xbec1c35c	-0.3784436
115	0xbd23ac04	-0.03995897
116	0xbb485d30	-0.0030573122
117	0x3dbf1f5f	0.093321554
118	0x3c657179	0.014004105
119	0x3e092f04	0.13396841
120	0xbcd36f7e	-0.02581
121	0xbec58a7e	-0.38582224
122	0xbe90c21c	-0.28273094
123	0xbe1fd472	-0.15608385
124	0xbc8c2f3a	-0.017112363
125	0xbde0d0ef	-0.10977351
126	0x3d273249	0.04081944
127	0xbe123a69	-0.14280094
128	0xbb4fa669	-0.0031684882
129	0xbe8d50a1	-0.27600577
130	0x3d8c572a	0.06852563
131	0xbd59560a	-0.05306057
132	0x3eb5f300	0.35536957
133	0x3c02c5e4	0.007981751
134	0x3e42597f	0.18979453
135	0x3d7c040f	0.061527308
136	0x3c1771d4	0.009243447
137	0xbe8caa68	-0.2747376
138	0x3e2a2ad1	0.16617896
139	0xbd1905a2	-0.037358887
140	0x3e50b225	0.20380457
141	0x3e66860c	0.22512072
142	0xbe86f66e	-0.26359886
143	0x3cbcab79	0.023030983
144	0x3cd6a841	0.026203277
145	0xbd944915	-0.07240502
146	0x3e004f34	0.12530214
147	0x3df2b270	0.118504405
148	0xbe257013	-0.16156034
149	0x3e5d4f0a	0.21612182
150	0xbe81f0d9	-0.25379065
151	0x3dbcf8eb	0.09227165
152	0x3a90050a	0.001098783
153	0x3e3b63a4	0.18299729
154	0x3e674952	0.22586563
155	0x3e602dad	0.21892424
156	0xbe6e29b4	-0.23258096
157	0x3df3f353	0.11911645
158	0xbc61e34f	-0.013787105
159	0xbdb6ede2	-0.08932091
160	0x3d796f82	0.060897358
161	0x3db09365	0.08621863
162	0x3c5b34ad	0.013379258
163	0xbe19e073	-0.15027027
164	0x3d724ba0	0.059154153
165	0x3e38ae49	0.18035235
166	0xbeb34e84	-0.3502084
167	0x3e3bf5ca	0.1835548
168	0xbc664db7	-0.014056615
169	0x3e98a3a0	0.29812336
170	0x3c78a5fd	0.015176293
171	0xbb544118	-0.0032387432
172	0x3b97513a	0.0046178373
173	0xba1c6fa4	-0.00059675635
174	0xbe33fa4c	-0.1757595
175	0x3df9af7a	0.121916726
176	0xbccca942	-0.024983052
177	0xbc458fe2	-0.01205823
178	0xbdb651c8	-0.08902317
179	0xbc0445bf	-0.008073269
180	0x3bd64944	0.0065394957
181	0xbe0819bd	-0.13291068
182	0x3aa57ee0	0.0012626313
183	0x3da8412a	0.08215554
184	0xbcadd7d4	-0.021221079
185	0x3e063d5f	0.13109349
186	0x3e05f497	0.13081585
187	0x3d8020dd	0.06256268
188	0x3d863008	0.0655213
189	0xbe010f5f	-0.1260352
190	0xbe9ab0b0	-0.30212927
191	0x3e2dcc9e	0.16972587
192	0x3e702e4b	0.2345516
193	0xbe2bcbcc	-0.16776961
194	0x3c9a9ffb	0.018875113
195	0xbc9e6859	-0.019336866
196	0x3b292fba	0.00258158
197	0x3e999805	0.29998794
198	0x3e357bf3	0.17723064
199	0x3ccaa142	0.024735097
200	0x3e3b442e	0.18287727
201	0xbcc5342c	-0.024072729
202	0x3c092b72	0.008372175
203	0x3dfc23cc	0.12311515
204	0xbdd6cc64	-0.10488203
205	0xbe52726f	-0.20551465
206	0xbe6bcf12	-0.2302821
207	0xbea083b2	-0.31350476
208	0xbe489eff	-0.19591902
209	0xbbbbe811	-0.0057344516
210	0xbd871f3c	-0.06597754
211	0x3da753a6	0.081702515
212	0xbca581da	-0.02020352
213	0xbe8b35ff	-0.27189633
214	0xbea1b71d	-0.31585017
215	0x3d7ec0b3	0.06219549
216	0xbe336077	-0.17517267
217	0xbd06b18b	-0.032884162
218	0xbe009f89	-0.12560858
219	0x3db91025	0.090362824
220	0x3e6893da	0.22712651
221	0x3b0f3029	0.0021848774
222	0x3e968cd1	0.2940431
223	0xbe2602f6	-0.16212067
224	0xbc6436fa	-0.013929123
225	0xbeae4c40	-0.3404255
226	0xbeb0a4d2	-0.34500748
227	0x3e7b6370	0.24549651
228	0xbe5d55c6	-0.21614751
229	0x3e1fa857	0.1559156
230	0xbdd6890c	-0.10475358
231	0xbe3827db	-0.17983954
232	0x3e594bee	0.21220371
233	0x3dd8ee75	0.10592357
234	0x3e0e59c4	0.1390143
235	0xbbf2867c	-0.0074012857
236	0xbc91dd14	-0.017805614
237	0xbdd24571	-0.10267151
238	0xbdcf19b9	-0.10112328
239	0x3e069e27	0.13146268
240	0x3c1d5db6	0.009604862
241	0x3e1f0038	0.15527427
242	0x3e8864e5	0.26639476
243	0xbca4ed42	-0.020132665
244	0xbc5731a8	-0.013134398
245	0x3e0166c0	0.12636852
246	0xbe0254f5	-0.12727721
247	0x3e2ce896	0.168856
248	0xbe9b830d	-0.3037342
249	0xbe12a867	-0.14322053
250	0x3db90919	0.09034938
251	0xbdccaa64	-0.09993437
252	0x3ebd4b02	0.3697129
253	0x3d1bd7ae	0.038047485
254	0x3ea7a41b	0.3274239
255	0x3c306228	0.01076559

fc3.bias f4 [2]
0	0xbde9cf67	-0.11416512
1	0x3e9a87f3	0.30181846
