checkpoint_actor0.pth (torch, 745823 bytes, 6 tensors)

fc1.weight f4 [480, 24]
0	0xbd12b3e5	-0.035816092
1	0xbca8d784	-0.020610578
2	0xbc762a22	-0.015024694
3	0xbccc56f7	-0.024943812
4	0xbe05954d	-0.13045235
5	0xbd3fdcb2	-0.04684133
6	0x3ca20f38	0.019782647
7	0x3bf26abf	0.007397979
8	0xbc93746f	-0.017999856
9	0xbcdd251c	-0.026995234
10	0x3af74d7a	0.0018867694
11	0xbadbf10b	-0.001678021
12	0x3d3131cc	0.04326038
13	0xbd95d168	-0.07315332
14	0x3c7c2597	0.0153898215
15	0x3d4366b3	0.047705363
16	0xbd684ae7	-0.056712057
17	0xbd2d8c5c	-0.042370185
18	0x3d17ae04	0.03703119
19	0xbb9f9dd3	-0.004871109
20	0x3e71b02c	0.2360236
21	0xbe07693f	-0.13223742
22	0xbc525cf8	-0.012839548
23	0xbd3af6e9	-0.045645628
24	0xbce1a9a5	-0.027546713
25	0x3dac74fe	0.08420752
26	0xbd0d14ac	-0.034443542
27	0x3cd2842c	0.02569779
28	0xbdc8dd62	-0.098078504
29	0xbc8932e2	-0.016747896
30	0x3ce66e5e	0.028128799
31	0x3dc81b1e	0.09770797
32	0x3d63cf34	0.055617526
33	0x3e14a22c	0.14514989
34	0xbb7af9d8	-0.003829589
35	0x3cb9bec4	0.022673972
36	0x3d46e052	0.048553772
37	0xbba6e29c	-0.005092932
38	0x3c7d07f0	0.015443787
39	0x3d7d93e3	0.061908614
40	0x3d53d6ed	0.05171864
41	0x3e267cbd	0.16258521
42	0xbc8395de	-0.016062673
43	0x3d2521db	0.04031549
44	0x3da724f1	0.08161343
45	0x3d0ee189	0.034883056
46	0x3a20c0e1	0.0006132257
47	0x3d9d2d66	0.07674675
48	0x3ceb6f71	0.028739663
49	0xbde1aed3	-0.11019673
50	0xbcf77a83	-0.030209785
51	0x3d81b032	0.06332435
52	0xbd27363a	-0.0408232
53	0xbd2a2248	-0.0415366
54	0xbbe0b7da	-0.0068578543
55	0x3d3917ba	0.045188643
56	0x3d426f56	0.04746946
57	0xbe0e2f19	-0.13885154
58	0x3bbc0bea	0.005738725
59	0x3d19ed92	0.03758008
60	0xbd8904ca	-0.066903666
61	0xbd11f349	-0.035632405
62	0xbcc381d5	-0.02386562
63	0x3c28390b	0.010267506
64	0x3d39fbe0	0.045406222
65	0xbdc2bcfe	-0.09508704
66	0xbc94e4e4	-0.01817555
67	0x3c8820a0	0.01661712
68	0xbd179868	-0.03701058
69	0x3ddb5f77	0.10711568
70	0x3ba68987	0.0050823125
71	0x3c82b4c6	0.01595534
72	0xbc273810	-0.010206237
73	0x3e24f9a9	0.16110863
74	0x3b935bed	0.0044970424
75	0x3cbe369c	0.0232194
76	0xbd21e175	-0.039521653
77	0xbcdac536	-0.026705366
78	0x3cb0c011	0.02157596
79	0x3c0effb8	0.00872796
80	0x3ace88a8	0.001575728
81	0x3e22ee79	0.15911283
82	0x3d0310d6	0.031998478
83	0xbc34feb5	-0.011047055
84	0x3dcf5614	0.1012384
85	0xbdc68135	-0.09692613
86	0xbb470a33	-0.003037107
87	0x3cfe4e10	0.031043082
88	0xbcdcad4b	-0.026938101
89	0x3e1b2e21	0.15154316
90	0xbd0f5ee2	-0.035002597
91	0x3d9c1f4e	0.076231584
92	0x3e2c30de	0.16815516
93	0xbddbb1b1	-0.10727251
94	0xbcd58236	-0.026063066
95	0x3d3db438	0.046314448
96	0xbcd28436	-0.025697809
97	0x3e88e849	0.2673972
98	0xbd41f922	-0.047356732
99	0xbde3af4f	-0.11117422
100	0x3cb767d0	0.022388369
101	0x3ced4263	0.02896232
102	0x3c73d4aa	0.014882246
103	0xbd952dd9	-0.07284135
104	0xbd3fc8a7	-0.046822216
105	0x3e7091fb	0.23493187
106	0x3bba7640	0.005690366
107	0xbd0228ab	-0.031777065
108	0x3d578131	0.05261344
109	0x3ae1c2c5	0.0017224184
110	0x3c12d0dd	0.00896093
111	0xbd04ae79	-0.032392953
112	0x3c99fe46	0.018798005
113	0x3e38af03	0.18035512
114	0x3ca54503	0.020174509
115	0xbd6c0109	-0.057618175
116	0x3dbed3a6	0.093177125
117	0xbd38fc27	-0.045162346
118	0xbcb45c81	-0.022016766
119	0xbc14f9a2	-0.00909272
120	0x3da09a8f	0.0784198
121	0xbdb8cdbf	-0.09023618
122	0xbce8ae99	-0.028403567
123	0x3bdc1bc1	0.0067171757
124	0x3d271172	0.04078812
125	0xbdb06ada	-0.0861413
126	0xbd00d24d	-0.03145056
127	0x3d0be303	0.034152042
128	0xbb4209ca	-0.0029607886
129	0xbd5e9492	-0.054340906
130	0x3bd4e8a7	0.006497461
131	0x3d225b74	0.039637998
132	0x3d34fa17	0.044183817
133	0xbe05db78	-0.13072002
134	0xbc7db048	-0.015483923
135	0x3c148854	0.009065706
136	0x3d90e883	0.07075598
137	0xbd4d0e63	-0.05006255
138	0x3c03b34c	0.008038353
139	0xbe2acd38	-0.16679847
140	0x3d9746fe	0.073865876
141	0xbd97c596	-0.074107334
142	0x3daf4522	0.08558108
143	0xbe2c294c	-0.16812629
144	0xbc37bbc6	-0.011214202
145	0x3ac1c578	0.0014783582
146	0x3d4a7ece	0.049437337
147	0x3c8c908c	0.01715877
148	0x3e5338d4	0.20627147
149	0x3c9949dc	0.018711977
150	0xbd0951ba	-0.033525206
151	0x3d1350ee	0.035965852
152	0xbba81be4	-0.005130278
153	0x3d95f4ba	0.073220685
154	0xbd5b1c2b	-0.05349366
155	0xbd5b1c4d	-0.053493787
156	0x3e33e1f5	0.17566665
157	0xbba2cb9a	-0.004968119
158	0xbc0b754a	-0.008511851
159	0xbc2e8879	-0.010652655
160	0xbcc9d4b1	-0.024637552
161	0x3d39c8fe	0.045357697
162	0xbb2ea846	-0.0026650592
163	0xbc17a107	-0.0092547005
164	0xbbee7017	-0.0072765457
165	0xba976f3b	-0.0011553535
166	0xbd02a993	-0.0319
167	0xbbbe1966	-0.0058013676
168	0xbccbe9de	-0.02489179
169	0x3d79f26e	0.061022215
170	0xbd2f1f0a	-0.04275421
171	0xbb9b3a16	-0.004737149
172	0xbd7a057f	-0.061040398
173	0xbdf4de42	-0.11956455
174	0x388d78ee	6.745929e-05
175	0xbd9acc92	-0.0755855
176	0x3d7f605a	0.062347747
177	0x3c9f8c7b	0.019476166
178	0x3c178743	0.0092485575
179	0x3d6c1d4b	0.057645123
180	0xbcc6b413	-0.024255788
181	0xbd16c497	-0.036808576
182	0x3cd7397b	0.026272526
183	0x3db9d8a8	0.09074527
184	0x3c637cd1	0.013884739
185	0xbcfee1e3	-0.03111357
186	0xbcb512b6	-0.022103649
187	0x3c85da9f	0.016339598
188	0x3d2ea8cf	0.042641457
189	0x3e234486	0.15944108
190	0xbc02b249	-0.007977077
191	0xbbfea709	-0.007771377
192	0x3c24ba4b	0.010054181
193	0xbcf757d4	-0.030193247
194	0x3cfdcb9a	0.030980874
195	0x3c5ebb55	0.013594468
196	0x3d6f9884	0.05849506
197	0xbd75387f	-0.059868332
198	0xbd2109a8	-0.03931585
199	0x3cbcc644	0.02304376
200	0xbba20587	-0.0049445066
201	0x3ce1ee6c	0.027579509
202	0xbbc03b01	-0.005866409
203	0x3daa6a0e	0.083210096
204	0x3c06c929	0.008226671
205	0xbda14114	-0.07873741
206	0x3cb9e5b6	0.022692543
207	0x3cd3eb13	0.025868928
208	0x3ba361d8	0.004986029
209	0x3d471c50	0.048610985
210	0x3cf30227	0.029664112
211	0x3d15d338	0.036578387
212	0xbd93e8cd	-0.072221376
213	0xbcca4919	-0.024693059
214	0xbc532c5f	-0.012888997
215	0x3d96a5e7	0.07355862
216	0x3d57d8fb	0.052697163
217	0x3d4a539f	0.049396154
218	0xba985f56	-0.0011625092
219	0xbb9501f5	-0.0045473524
220	0x3e43d850	0.19125485
221	0x3c33a775	0.010965218
222	0xbb3f7b0b	-0.0029217626
223	0xbb87cfc0	-0.004144639
224	0x3d8801f4	0.066409975
225	0x3be6506a	0.007028629
226	0x3ab5a150	0.0013857279
227	0xbd3ac4f7	-0.045597997
228	0x3e670230	0.22559428
229	0x3d287c26	0.041134022
230	0xbcc099cf	-0.023510842
231	0xbdcd99f5	-0.100391306
232	0x3daa3526	0.083109185
233	0xbc267216	-0.010159036
234	0x3c865f26	0.016402792
235	0xbdde2eeb	-0.10848793
236	0x3e8bc82f	0.27301165
237	0x3d5938b8	0.053032607
238	0xbc00a1d0	-0.007851079
239	0xbde8504d	-0.11343441
240	0xbd0b7e9f	-0.034056302
241	0x3e6ccbff	0.23124693
242	0x3bd11d1c	0.006381644
243	0x3d755c70	0.05990261
244	0xbdb07d31	-0.08617628
245	0xbd84aa3c	-0.06477782
246	0x3b9386cc	0.004502153
247	0x3b58723c	0.0033027073
248	0x37d2b706	2.5119178e-05
249	0x3e71e607	0.23622905
250	0xbb7fbe0f	-0.0039023196
251	0xbc5858e0	-0.013204783
252	0x3c90f910	0.017696887
253	0xbdc8162d	-0.09769855
254	0xbbf921c9	-0.0076029045
255	0x3cbebb4a	0.023282666

fc1.bias f4 [480]
0	0xbdb1e663	-0.08686521
1	0x3dbe88e5	0.09303454
2	0x3e151d18	0.1456188
3	0x3db09e25	0.08623914
4	0xbdf395fb	-0.11893841
5	0xbe8d3c0d	-0.27584878
6	0x3cae1c57	0.021253748
7	0xbc4e07b4	-0.012575079
8	0xbe3619cf	-0.17783283
9	0x3d4ded1b	0.05027495
10	0xbd440b63	-0.04786242
11	0x3ca7964a	0.020457406
12	0x3d1fe0d6	0.03903278
13	0x3e41c70b	0.18923585
14	0xbdff0e7a	-0.12453933
15	0xbb016379	-0.0019743128
16	0x3dff9e84	0.12481406
17	0xbdcb1bb9	-0.09917397
18	0x3e033454	0.1281293
19	0xbe2f26d5	-0.17104657
20	0xbd42b458	-0.04753527
21	0x3d794162	0.06085337
22	0x3e63d04f	0.22247432
23	0xbd7e1efa	-0.06204126
24	0xbd979cc5	-0.07402948
25	0x3e2abb9f	0.16673134
26	0xbc6eac29	-0.014567413
27	0xbde59ca7	-0.1121152
28	0xbe9e5f1f	-0.30931947
29	0xbd1fa382	-0.038974293
30	0x3dd8b802	0.10581972
31	0x3dbc3bb9	0.09191079
32	0xbe8b12e4	-0.2716285
33	0x3e24a725	0.16079386
34	0xbe96545d	-0.2936124
35	0x3de35efb	0.111021005
36	0xbe481ed2	-0.19543007
37	0x3dd4b3e7	0.10385876
38	0xbd659257	-0.056047764
39	0x3dbcd6de	0.0922067
40	0x3de9593f	0.113939755
41	0xbdc511a8	-0.09622508
42	0x3d672e5b	0.056440692
43	0xbdd4a63a	-0.10383268
44	0xbbc4aafc	-0.0060018282
45	0xbe568013	-0.20947294
46	0xbe1d04e6	-0.153339
47	0x3d19fa58	0.037592262
48	0xbd850a3d	-0.064960934
49	0x3cad0a9a	0.02112322
50	0xbd9ff0f1	-0.07809628
51	0x3dcf7a73	0.10130777
52	0xbcb7dfee	-0.022445645
53	0xbe06e7c1	-0.13174345
54	0x3cdf1e82	0.027236227
55	0xbe99481b	-0.29937825
56	0xbe8a5dc9	-0.27024677
57	0x3de38d88	0.11110979
58	0x3c5f4205	0.01362658
59	0xbe41ac43	-0.18913369
60	0x3dd1abde	0.10237859
61	0x3d887386	0.06662659
62	0x3b77879e	0.0037770043
63	0x3e48a4dd	0.1959414
64	0xbe2e1524	-0.17000252
65	0xbd2b1c37	-0.041774955
66	0xbd76fb1b	-0.060298067
67	0xbde61c62	-0.11235882
68	0xbde4ceb9	-0.11172242
69	0x3cc67821	0.024227204
70	0xbe8ea0df	-0.2785711
71	0x3dfd939f	0.12381672
72	0xbe5870d7	-0.21136795
73	0x3e593094	0.21209937
74	0xbe19c059	-0.15014781
75	0xbe6c4c5e	-0.23076007
76	0xbe90f95b	-0.28315243
77	0xbd8dcd42	-0.069239154
78	0xbde623a5	-0.112372674
79	0x3da3bbe0	0.07994819
80	0xbb2ff63a	-0.0026849643
81	0xbc252d28	-0.010081567
82	0xbd1c7fbe	-0.038207762
83	0x3cc56f42	0.024100903
84	0xbb726db9	-0.003699167
85	0xbc6b2fe0	-0.014354676
86	0x3e4deef9	0.20110692
87	0x3e01fb68	0.1269356
88	0xbe8ab435	-0.27090612
89	0x3d60f3a8	0.05491987
90	0xbdd33b1f	-0.10314011
91	0x3e1c52ec	0.15266007
92	0xbde8b61d	-0.1136286
93	0xbe0233f7	-0.12715136
94	0x3d748115	0.059693415
95	0xbe285291	-0.16437747
96	0x3da272e6	0.079320714
97	0xbc1c5bb9	-0.009543353
98	0xbcf557e3	-0.029949134
99	0xbdcecf82	-0.10098173
100	0x3d86ac8b	0.06575879
101	0x3dd3bbf9	0.10338587
102	0xbe1b2bed	-0.15153475
103	0x3d4241ec	0.04742615
104	0xbd24905a	-0.040176727
105	0xbe570d81	-0.21001245
106	0xbccfeefb	-0.02538251
107	0xbd843344	-0.06455091
108	0xbe43fc26	-0.19139156
109	0xbe01158d	-0.12605877
110	0xbc680fc6	-0.014163917
111	0xbe1283a5	-0.14308031
112	0xbe74c4ed	-0.23903246
113	0xbd787f60	-0.06066835
114	0x3c156c54	0.009120066
115	0xbe4ccfac	-0.20001096
116	0xbdd5104d	-0.104035
117	0xbdec056f	-0.11524474
118	0x3deac681	0.11463643
119	0x3d90cd61	0.07070423
120	0xbe1dd3ad	-0.15412779
121	0xbee424f5	-0.44559446
122	0x3e0843fc	0.13307184
123	0xbce193de	-0.027536329
124	0xbe231b64	-0.15928417
125	0x3dda01b8	0.10644859
126	0xbd9daa91	-0.076985486
127	0xbd3a9847	-0.04555538
128	0xbdb6b30e	-0.08920871
129	0x3e2c1032	0.16803053
130	0xbe399a71	-0.18125321
131	0xbdc5d7e6	-0.0966032
132	0xbe4d4345	-0.20045193
133	0xbe06cbae	-0.13163635
134	0xbd89dbd1	-0.0673138
135	0xbe8e605c	-0.2780789
136	0xbd0ce1b5	-0.03439494
137	0xbe6cbd7c	-0.23119158
138	0xbde9be97	-0.11413305
139	0xbdbb2647	-0.0913816
140	0xbe3b175d	-0.18270631
141	0xbdfcabc0	-0.12337446
142	0x3db88efd	0.09011648
143	0x3daea2ea	0.08527167
144	0x3d22dde7	0.039762404
145	0xbe5c174d	-0.21493264
146	0xbdc54393	-0.096320294
147	0xbe411bcf	-0.18858264
148	0x3e306f51	0.17229964
149	0xbe51493a	-0.2043809
150	0xbe5ffac9	-0.2187301
151	0x3e349b0a	0.17637268
152	0xbc8eb508	-0.017420307
153	0x3cccebbe	0.025014754
154	0xbe5afb0d	-0.21384831
155	0xbde003c9	-0.10938222
156	0x3e7245c6	0.23659429
157	0x3e2afc44	0.16697794
158	0x3e01ad1d	0.12663694
159	0xbd5b9653	-0.053610157
160	0xbe41c07d	-0.18921085
161	0xbd36b3ac	-0.044604942
162	0xbdbdaa6c	-0.09261021
163	0xbcdaf1f6	-0.026726704
164	0x3c0518a8	0.008123554
165	0xbe1d82fa	-0.15381995
166	0xbdb3adcc	-0.087733835
167	0xbce6fa8a	-0.028195638
168	0xbe875895	-0.2643477
169	0x3c50fb62	0.012755247
170	0x3cdd4b69	0.027013497
171	0x3da6f66c	0.0815247
172	0x3d8f4633	0.06995811
173	0xbd3e9550	-0.046529114
174	0xbe52eb22	-0.20597509
175	0xbe22e716	-0.15908465
176	0x3e5cb8a3	0.21554808
177	0xbe478e88	-0.19487965
178	0x3e114f51	0.14190413
179	0xbdeeb322	-0.116552606
180	0xbe0fb145	-0.14032467
181	0xbe2675a2	-0.16255811
182	0x3df9ef77	0.122038774
183	0x3d272527	0.040806916
184	0xbdf876d2	-0.12132038
185	0xbd1f9041	-0.03895593
186	0x3d852b7a	0.06502433
187	0xbcd5bb4c	-0.026090287
188	0xbe7487a4	-0.23879868
189	0xbc995b9a	-0.018720437
190	0xbe8095c6	-0.25114268
191	0xbdb06f79	-0.08615012
192	0x3da157a5	0.07878045
193	0x3d96e181	0.0736723
194	0xbe8fb43e	-0.280672
195	0xbd481910	-0.048852026
196	0x3de97b08	0.114004195
197	0xbe4e979f	-0.20175026
198	0xbd8e163b	-0.06937834
199	0xbdc654a3	-0.09684112
200	0xbe329879	-0.17440976
201	0xbba77686	-0.0051105646
202	0x3e4311e1	0.19049789
203	0x3b21c451	0.0024683664
204	0x3d9eb02b	0.07748445
205	0x3d9158a8	0.07096988
206	0xbd80fc77	-0.06298154
207	0xbdb97a52	-0.09056534
208	0x3dfc1d5d	0.12310288
209	0x3e31f955	0.17380269
210	0xbc9434a6	-0.018091511
211	0xbde0cc1a	-0.10976429
212	0xbe26d0c8	-0.16290581
213	0xbe1d0043	-0.15332131
214	0xbd321927	-0.04348102
215	0x3defc9a6	0.11708383
216	0xbe5d9c73	-0.21641712
217	0x3e2c53f2	0.16828898
218	0x3be5995c	0.0070068073
219	0x3d9e545b	0.07730933
220	0xbe7360d9	-0.23767413
221	0x3ddcafe8	0.10775739
222	0x3e091c48	0.13389695
223	0xbdc257fc	-0.09489438
224	0x3db1b403	0.08676913
225	0x3e1df07e	0.15423772
226	0x3c48f45e	0.012265293
227	0xbdf8ce16	-0.12148683
228	0x3d0f2b01	0.03495312
229	0xbdacd2a6	-0.084386155
230	0x3dece4bf	0.11567067
231	0x3c66018b	0.014038454
232	0x3d3eb7e4	0.04656209
233	0xbd7da84f	-0.06192809
234	0xbeb77c0d	-0.3583683
235	0xbd47d773	-0.048789453
236	0x3d054619	0.032537553
237	0xbe2be2b1	-0.16785695
238	0x3daec8b4	0.08534375
239	0x3e1d45e2	0.1535869
240	0x3c91182a	0.017711718
241	0xbe8eca79	-0.2788885
242	0xbca93017	-0.020652814
243	0x3e273903	0.16330342
244	0x3e010bb4	0.1260212
245	0xbd9a2c11	-0.07527936
246	0xbec096bd	-0.37615004
247	0xbd95a314	-0.07306495
248	0x3e1acade	0.1511645
249	0xbcb11e1b	-0.0216208
250	0xbda99711	-0.08280767
251	0x3cb93000	0.022605896
252	0xbe08fa30	-0.13376689
253	0xbe3023e1	-0.17201187
254	0x3e55e313	0.20887403
255	0xbe32e7c0	-0.17471218

fc2.weight f4 [360, 480]
0	0xbe1201e9	-0.14258541
1	0x3d20b35e	0.039233558
2	0x3d30beb1	0.043150607
3	0x3c5c8d74	0.013461459
4	0xbca4a03f	-0.020095943
5	0xbcab0954	-0.020878471
6	0x3cc3998b	0.023876926
7	0x3d953ff6	0.0728759
8	0x3c709a71	0.014685259
9	0xbe5fbbf3	-0.2184904
10	0xbdb92867	-0.09040909
11	0xbcda0ae2	-0.026616517
12	0x3d50b60b	0.05095486
13	0xbd754520	-0.059880376
14	0xbdef37ec	-0.11680588
15	0xbdb3581f	-0.08757042
16	0xbd2c4b44	-0.042063966
17	0xbc5bf22f	-0.01342444
18	0x3d3c8073	0.046020936
19	0x3d54fdff	0.052000042
20	0xbe089a9f	-0.13340233
21	0xbc5b3d41	-0.013381303
22	0xbc2ee83f	-0.010675489
23	0xbcd42113	-0.025894677
24	0xbe7dc67a	-0.24782744
25	0xbc9c15e6	-0.01905341
26	0xbcb88f7f	-0.022529362
27	0x3c1d10d9	0.009586536
28	0x3d4f5995	0.05062254
29	0x3d41a151	0.047272984
30	0x3ccbf82e	0.024898615
31	0x3d8d26e1	0.06892181
32	0x3caf964c	0.021433972
33	0x3ba40b2c	0.0050062146
34	0x3b801e32	0.0039098496
35	0x3d370564	0.044682875
36	0xbdfc2f26	-0.1231368
37	0xbcea7435	-0.028619865
38	0xbc9aab26	-0.018880438
39	0xbd7d1890	-0.061791003
40	0x3cb07b57	0.021543188
41	0x3d26217e	0.040559284
42	0x3d61a7fe	0.05509185
43	0xbd8f0cdf	-0.06984877
44	0x3c37d949	0.011221238
45	0xbd3130c2	-0.04325939
46	0xbe082fd5	-0.13299496
47	0xbe832174	-0.2561146
48	0xbc87c9fa	-0.016575802
49	0xbba7e365	-0.005123543
50	0xbcf9248d	-0.030412937
51	0xbe39d430	-0.1814735
52	0x3dadcdd3	0.084865235
53	0xbe166f4b	-0.14690892
54	0x3d96c992	0.07362665
55	0x3c3b1736	0.011419108
56	0x3c98fe00	0.018675804
57	0x3bc9c1d8	0.006157141
58	0x3d67a46e	0.056553297
59	0xbd51bfbd	-0.051208246
60	0x3b977bfc	0.0046229344
61	0x3d11535e	0.035479896
62	0xbd84e44e	-0.06488858
63	0xbcdb0e75	-0.026740292
64	0xbdb50e53	-0.08840623
65	0xbc96a7e5	-0.018390605
66	0xbd0b8131	-0.034058753
67	0xbc4db216	-0.012554666
68	0xbd604e12	-0.054761954
69	0x3d4ed701	0.050498012
70	0xba7b123e	-0.00095776084
71	0x3d911e31	0.07085837
72	0x3ce4631b	0.027879288
73	0xbdba4a17	-0.09096163
74	0xbc27921c	-0.010227706
75	0xbd91fb0a	-0.0712796
76	0xbc7ebe85	-0.015548353
77	0xbc8583a6	-0.016298126
78	0xbcd7a433	-0.026323413
79	0xbd87db55	-0.06633631
80	0x3ba44c39	0.0050139693
81	0xbd9f76ae	-0.07786308
82	0x3cf175ff	0.02947521
83	0x3d09efce	0.03367596
84	0x3b87a82b	0.00413992
85	0xbb3576dd	-0.0027689256
86	0xbcdf8f2f	-0.027289955
87	0x3cd21595	0.025645057
88	0xbd5db0d9	-0.054123733
89	0x3da32c27	0.07967406
90	0xbd6a878b	-0.05725817
91	0xbe113633	-0.14180832
92	0x3d5e335c	0.0542482
93	0xbaee736e	-0.001819236
94	0x3d2c9b4e	0.042140298
95	0xbc0167db	-0.007898296
96	0x3d81f45e	0.063454375
97	0xbc8639a4	-0.016384907
98	0x3d065a1b	0.032800775
99	0xbdc97bbb	-0.09838053
100	0x3b265e70	0.002538588
101	0x3dae5b74	0.08513537
102	0x3c8f7045	0.017509589
103	0x3ce60da1	0.02808267
104	0xbe62c02e	-0.22143623
105	0xbb0281f9	-0.0019913896
106	0xbd3f3e6b	-0.046690386
107	0x3d911e7b	0.07085892
108	0x3d22474d	0.03961878
109	0xbd5db3af	-0.054126438
110	0xbdc70f96	-0.0971977
111	0x3d3af51d	0.045643914
112	0x3c16509a	0.00917449
113	0xbdf912d4	-0.12161794
114	0xbd979b7c	-0.07402703
115	0xbb656a0f	-0.0035005843
116	0xbdc7de12	-0.097591534
117	0xbcaa06ac	-0.020755135
118	0x3cb0a5a9	0.021563368
119	0xbc5fbde1	-0.0136561105
120	0xbd6396d4	-0.055563763
121	0x3c9aa04f	0.01887527
122	0x397094d6	0.0002294363
123	0x3cb8b809	0.022548692
124	0xbcc600c1	-0.024170281
125	0xbc98637c	-0.018602125
126	0x3c94dd2c	0.01817187
127	0x3c404a96	0.011736533
128	0xbdea9e28	-0.11455947
129	0x3d904881	0.07045079
130	0xbdebc0b6	-0.11511366
131	0xbd9c7438	-0.076393545
132	0xbd401e58	-0.046903938
133	0xbdafdb3e	-0.08586739
134	0x39bcac28	0.0003598642
135	0xbd80cdaa	-0.06289227
136	0xbddd2ab9	-0.10799164
137	0x3bd3146e	0.0064416444
138	0xbdaf3aa3	-0.08556106
139	0x3ca584a0	0.020204842
140	0xbcd2e4a5	-0.025743792
141	0xbc71a230	-0.014748141
142	0xbb814b3f	-0.0039457376
143	0x3d66e45e	0.05637013
144	0x3d6926fc	0.056921944
145	0xbd10d8c3	-0.03536297
146	0xbb894d49	-0.0041901213
147	0xbe679031	-0.22613598
148	0xbcf9caaa	-0.030492146
149	0xbc734e58	-0.014850222
150	0xbc3e999e	-0.011633305
151	0xbc2b86cd	-0.010469151
152	0x3ce44fa7	0.027870012
153	0xbe26fecc	-0.16308135
154	0xbcf55a8c	-0.029950403
155	0x3d16ea8f	0.036844786
156	0xbb2a266b	-0.002596284
157	0x3c960caf	0.018316595
158	0x3d71b9dc	0.05901514
159	0x3cb29f35	0.021804431
160	0xbc90776c	-0.01763507
161	0x3d25c4fb	0.04047106
162	0xbde687f1	-0.112563975
163	0x3c7f5340	0.015583813
164	0x3c1361b6	0.008995464
165	0xbcaff6bc	-0.021479957
166	0x3cd0743f	0.025446055
167	0xbd40fac7	-0.04711416
168	0xbbe4589a	-0.00696857
169	0xbcdfd14e	-0.027321484
170	0x3d503470	0.05083126
171	0x3ca1ba19	0.019742059
172	0x3d4120d1	0.047150437
173	0x3c4fd538	0.012685113
174	0xbcfd33a7	-0.030908419
175	0xbd190340	-0.037356615
176	0x3cfada84	0.030621774
177	0xbde80830	-0.11329687
178	0xbdad90e4	-0.08474901
179	0xbd24ec63	-0.0402645
180	0xbe7931bd	-0.2433538
181	0xbe622946	-0.22086057
182	0xbdb8d453	-0.09024873
183	0x3d147064	0.036239997
184	0xbb9b8d03	-0.0047470345
185	0xbd353dff	-0.044248577
186	0x3b8a7943	0.0042258813
187	0x3e08465c	0.1330809
188	0xbce27241	-0.027642371
189	0xbc07dbd6	-0.008292159
190	0x3d5bbc1e	0.0536462
191	0xbd104fa4	-0.0352322
192	0x3d0543bf	0.03253531
193	0xbd0091e1	-0.03138912
194	0xbd153c4d	-0.03643446
195	0xbddd7ed0	-0.10815203
196	0xbcb1b06a	-0.021690566
197	0xbd9c0789	-0.07618625
198	0xbd774f02	-0.060378082
199	0xbca84244	-0.02053941
200	0xbd6d3310	-0.057910025
201	0xbe7c66dd	-0.24648614
202	0xbb8f713f	-0.0043775137
203	0xbe0f7761	-0.14010383
204	0xbd408c6a	-0.04700891
205	0x3d6f7e60	0.05847013
206	0xbe2bd0bb	-0.16778843
207	0xbd94add4	-0.072597176
208	0xbd5b10bd	-0.05348276
209	0xbd18e940	-0.03733182
210	0xbdd28637	-0.10279506
211	0x3d300141	0.042969946
212	0xbe0dfc03	-0.13865666
213	0xbca2d4a4	-0.019876786
214	0xbb06a66d	-0.0020545975
215	0xbd9f9ea0	-0.07793927
216	0x3cd9da6f	0.026593415
217	0xbd1b37e5	-0.037895102
218	0xbdd66b0b	-0.104696356
219	0xbc0fd2d0	-0.008778289
220	0x3d3cdf2f	0.046111282
221	0x3bf1ae07	0.007375482
222	0xbb8c77a8	-0.004286725
223	0x3cbf5850	0.02335754
224	0x3db85308	0.09000212
225	0xbe10d592	-0.1414397
226	0xbce92baf	-0.028463213
227	0xbba71280	-0.005098641
228	0xbd85325f	-0.06503748
229	0xbc4e021a	-0.012573743
230	0xbce4198f	-0.027844219
231	0xbde1fe13	-0.11034789
232	0x3d21e9d0	0.03952962
233	0x3c5ee9bd	0.013605532
234	0x3c4b11e0	0.012394398
235	0x3cbd27a1	0.023090186
236	0x3d851295	0.06497685
237	0xbdbd9122	-0.092561975
238	0x3baa8ff7	0.00520515
239	0x3dc80e3e	0.097683415
240	0xbda78d3a	-0.08181234
241	0xbba0b6b0	-0.0049045905
242	0x3d0b6e7c	0.034040913
243	0x3d5e9597	0.05434188
244	0x3d37366a	0.044729628
245	0xbe1a6e94	-0.15081245
246	0xbd887a21	-0.06663919
247	0xbd19bccf	-0.037533578
248	0xbd912fb4	-0.07089177
249	0xbd1a6601	-0.037694935
250	0x3b68683b	0.0035462517
251	0xbccb9d7e	-0.024855372
252	0x3ce94762	0.02847642
253	0xbdb9d2c1	-0.09073401
254	0xbc9b975c	-0.018993072
255	0xbc8f8c7d	-0.017523045

fc2.bias f4 [360]
0	0x3c4e5c63	0.012595269
1	0x3c3c94f7	0.011510125
2	0xbd0d4f48	-0.034499437
3	0xbd11fcc3	-0.035641443
4	0xbd06dd92	-0.03292615
5	0xbcbc09ee	-0.022953954
6	0x3d09f580	0.033681393
7	0x3dc11066	0.09426956
8	0x3e12f054	0.1434949
9	0xbc3aca71	-0.011400805
10	0xbd79c3d7	-0.060977783
11	0xbcb884d1	-0.02252427
12	0xbba1febd	-0.0049436972
13	0x3d9c018a	0.07617481
14	0xbda23175	-0.079195894
15	0xbc96e096	-0.018417638
16	0x3c23d00d	0.009998334
17	0x3dd41c00	0.10356903
18	0x3c0fee39	0.008784824
19	0x3e353e95	0.17699654
20	0xbdbd5995	-0.09245602
21	0x3b93cef3	0.0045107543
22	0x3d54a279	0.05191276
23	0x3b41e5dc	0.002958647
24	0x3dea5f48	0.11443955
25	0x3d2dfafc	0.042475685
26	0xbcd1c7e5	-0.025608012
27	0x3e736181	0.23767664
28	0x3d30ea05	0.04319193
29	0xbcc27205	-0.02373601
30	0xbd20ffa9	-0.039306317
31	0xbd7634d1	-0.060108963
32	0x3cda7eff	0.026671885
33	0x3d0e74a0	0.03477919
34	0xbdbe84f9	-0.09302706
35	0x3dacb54c	0.08433017
36	0xbbf28eb7	-0.007402267
37	0xbdb4fa5b	-0.08836814
38	0x3d7f7fad	0.06237762
39	0xbba2df9c	-0.004970504
40	0x3c550dbf	0.013003766
41	0xbd1cb46d	-0.038258005
42	0x3c62f7ba	0.013853008
43	0xbd132211	-0.03592116
44	0xbd79f31c	-0.061022863
45	0x3d364dfa	0.044507958
46	0x3b1f2a3a	0.0024286644
47	0x3d838a0e	0.06422816
48	0x3d2bd136	0.041947566
49	0x3e43b7a0	0.19113016
50	0x3b57d0d3	0.0032930865
51	0x3c1c5058	0.00954064
52	0x3d632ffa	0.055465676
53	0x3c74bf48	0.014938183
54	0xbc03fac2	-0.008055391
55	0xbd0e59a9	-0.034753475
56	0xbd0db7a3	-0.034598958
57	0xbcc3f577	-0.023920758
58	0x3d8bac0a	0.06819923
59	0x3e56ebba	0.2098836
60	0xbd19ece1	-0.03757942
61	0xbc83f018	-0.016105697
62	0x3e289d86	0.1646634
63	0x3d40aa88	0.04703763
64	0x3d953123	0.07284763
65	0xb914edaf	-0.00014202924
66	0x3c8fbe93	0.017546928
67	0xbc9f5e54	-0.019454159
68	0xbcfff815	-0.031246224
69	0xbddffd23	-0.10936954
70	0x3c471b9b	0.012152578
71	0x3d182a6b	0.037149828
72	0xbd873fe6	-0.066039845
73	0xbc82f477	-0.01598571
74	0xbd90ba67	-0.070668034
75	0xbdc55b17	-0.09636515
76	0xbcc72fc0	-0.024314761
77	0x3d48b58c	0.04900126
78	0x3e4c76d2	0.19967201
79	0x3e16470b	0.14675538
80	0xbd07c8ce	-0.033150487
81	0x3c1b960d	0.009496224
82	0x3d74d399	0.059772108
83	0x3ca11fda	0.019668508
84	0x3cbf6f89	0.023368614
85	0x3ddc7726	0.10764913
86	0xba8f79cf	-0.0010946336
87	0x3b441258	0.002991816
88	0xbc34fcc4	-0.011046592
89	0xbc862faa	-0.01638015
90	0xbd546fcc	-0.05186443
91	0x3ce5acad	0.02803644
92	0xbbea1a0f	-0.0071442197
93	0x3dc16d27	0.09444647
94	0xbd0d8873	-0.034553956
95	0x3d1e94d3	0.03871615
96	0x3abed591	0.0014559497
97	0xbcedef51	-0.029044779
98	0xbcdd2c1d	-0.026998574
99	0x3e0fe360	0.1405158
100	0xbd5fa450	-0.05460006
101	0x3c55941d	0.013035801
102	0xbd600ff1	-0.054702703
103	0x3e295de2	0.1653972
104	0x3c6360a1	0.013878019
105	0xbd66aad3	-0.056315254
106	0xbd73ebab	-0.059550922
107	0xbce203bd	-0.027589673
108	0xbdc10e66	-0.094265744
109	0x3e78de68	0.24303591
110	0x3e4d60a4	0.20056397
111	0x3cc7c76b	0.024387082
112	0xbcbeab2d	-0.023274982
113	0xbd78f0bc	-0.060776457
114	0x3d44f5d8	0.048086017
115	0x3d3de145	0.046357412
116	0x3e2d21b1	0.16907384
117	0xbdf0b769	-0.11753733
118	0x3d82b6eb	0.06382545
119	0xbccfaedd	-0.025351936
120	0x3db8733c	0.09006354
121	0xbd118ae9	-0.035532866
122	0xbcccdc3e	-0.025007363
123	0xbda3c7be	-0.07997082
124	0x3e83f10f	0.2576985
125	0xbc3d316e	-0.0115474295
126	0xbccef7cc	-0.025264643
127	0xbb97fcee	-0.004638306
128	0x3d32d0f3	0.0436563
129	0x3dee84cd	0.116464235
130	0xbd378d49	-0.044812474
131	0x3c8e62c9	0.017381089
132	0xbba12242	-0.004917414
133	0x3c19a90c	0.009378683
134	0x3cdeeec1	0.027213456
135	0x3b4dbcbf	0.003139302
136	0x3d3ba974	0.0458159
137	0x3e6a9578	0.2290858
138	0xbbb4ff20	-0.0055235773
139	0x3e95b784	0.29241574
140	0xbce14578	-0.027498946
141	0x3d09f69b	0.033682447
142	0x3a910193	0.0011063091
143	0xbd521307	-0.051287677
144	0x3ddf0372	0.10889329
145	0x3cf3d9dd	0.029766971
146	0x3cdb5240	0.026772618
147	0x3b06784b	0.0020518478
148	0xbca66564	-0.020312019
149	0xbd921ce4	-0.07134417
150	0xbd6f0f2d	-0.058364082
151	0xbb512629	-0.0031913614
152	0x3d1283e0	0.035770297
153	0xbc944cd6	-0.018103044
154	0xbb57f71f	-0.0032953692
155	0xbdb2b931	-0.08726729
156	0x3cc8406f	0.024444787
157	0xbcd88638	-0.026431188
158	0xbd00567c	-0.031332478
159	0x3d7c2406	0.061557792
160	0xbe021a5e	-0.12705371
161	0xbcd12c69	-0.025533872
162	0x3ddd3d9b	0.10802766
163	0xbda50b22	-0.08058764
164	0xbc8af0f2	-0.016960595
165	0xbc905234	-0.017617323
166	0x3d1d9bcd	0.03847866
167	0xbb38749f	-0.0028145683
168	0x3e2721a2	0.16321424
169	0xbd478bb2	-0.04871721
170	0xbd217b7d	-0.03942441
171	0x3e8e6f99	0.27819517
172	0x3d7bdc01	0.06148911
173	0x3ce3521c	0.027749114
174	0x3dcb9c51	0.09941924
175	0x3c81d90e	0.01585057
176	0x3d0da8a1	0.034584645
177	0x3db4c01c	0.088257045
178	0x3dba4609	0.090953894
179	0x3d4382a9	0.04773203
180	0xbd1ca99f	-0.0382477
181	0x3ce7e4ef	0.028307406
182	0x3e527f05	0.20556267
183	0x3cbf440d	0.023347879
184	0x3d1f1215	0.038835604
185	0x3db3d800	0.08781433
186	0xbd72dff2	-0.059295602
187	0xbd76b7d7	-0.060233917
188	0x3d30640a	0.043064155
189	0x3d7a18ce	0.06105881
190	0xbd933149	-0.07187135
191	0x3d3d91b2	0.046281524
192	0x3b9253c8	0.004465554
193	0x3d3430dc	0.04399191
194	0x3e2f87dd	0.17141671
195	0xbd491fa3	-0.049102437
196	0x3c992316	0.018693488
197	0x3c154366	0.009110307
198	0x3d99e42c	0.075142235
199	0x3e63afc8	0.22235024
200	0xbe33c313	-0.17554884
201	0xbdf653f6	-0.12027733
202	0x3c06afa0	0.008220583
203	0xbe03c990	-0.12869859
204	0x3dc40175	0.095705904
205	0x3d8af9f8	0.06785959
206	0x3d2578c3	0.04039837
207	0xbda1111b	-0.07864591
208	0xbddb5ffa	-0.107116655
209	0xbc18dd1b	-0.009330059
210	0x3c921aa8	0.017834976
211	0x3bbb36a5	0.0057133012
212	0x3dafcb80	0.085837364
213	0x3cd2ce1b	0.025733044
214	0xbc86f786	-0.01647545
215	0x3d583c43	0.052791845
216	0xbe00b163	-0.12567668
217	0x3d597a00	0.053094864
218	0x3d025b95	0.03182562
219	0x3d687784	0.056754604
220	0xbd83ac4f	-0.0642935
221	0xbc14a113	-0.009071606
222	0x3c2431d9	0.01002165
223	0x3c7ad984	0.015310649
224	0xbc10f44a	-0.008847306
225	0x3d80eaf0	0.06294811
226	0x3d7cff39	0.061766837
227	0x3d8ea9cc	0.0696598
228	0x3d522760	0.051307082
229	0xbd201722	-0.03908456
230	0xbca79d8d	-0.020460868
231	0x3d7bbc59	0.06145892
232	0xbc4b0b57	-0.01239284
233	0xbd196099	-0.03744564
234	0xbcd4a329	-0.025956707
235	0x3dd6644a	0.10468347
236	0x3c9c774d	0.019099856
237	0xbd8133ac	-0.06308684
238	0x3dc24457	0.09485691
239	0x3be94bff	0.007119655
240	0x3e6beccf	0.23039554
241	0x3e35c8b7	0.17752348
242	0xbc0a739e	-0.008450417
243	0x3e0332f3	0.12812404
244	0x3e5ea9cc	0.2174446
245	0x3bffc8c7	0.007805917
246	0x3bd796df	0.0065792645
247	0xbdcd4867	-0.10023575
248	0x3d83658a	0.064158514
249	0x3e065846	0.13119611
250	0x3d153296	0.036425196
251	0x3d8c02e4	0.06836489
252	0xbc215cbe	-0.009848772
253	0x3d78e983	0.06076957
254	0x3d3f0b03	0.04664136
255	0x3d64ff3d	0.055907477

fc3.weight f4 [2, 360]
0	0xbe2c6eb9	-0.16839112
1	0x3e766e60	0.24065542
2	0xbe2bcd1b	-0.1677746
3	0x3df7fae4	0.121084005
4	0xbe04c565	-0.12965925
5	0x3e7b07f4	0.24514753
6	0xbd9c066b	-0.07618412
7	0x3ccbdb64	0.024884887
8	0x3c3c1fe9	0.011482217
9	0xbe884895	-0.26617876
10	0x3debda35	0.11516229
11	0xbe385f19	-0.18005027
12	0x3e2a245a	0.1661543
13	0x3963c2f0	0.00021721027
14	0x3d9446a5	0.07240037
15	0xbe20ed0b	-0.15715425
16	0xbe938dc1	-0.28819087
17	0x3c47ef82	0.012203099
18	0xbe2c076f	-0.1679971
19	0x3cafa501	0.021440985
20	0x3d86f83c	0.06590316
21	0xbd6be1a7	-0.057588246
22	0x3d4e7cf3	0.05041213
23	0xbd5529e6	-0.05204191
24	0x3c39959d	0.0113271745
25	0x3cd4b513	0.02596525
26	0x3f018f1b	0.50608987
27	0x3bb7b175	0.0056058713
28	0xbc27e080	-0.010246396
29	0x3da0c960	0.07850909
30	0xbd8377f2	-0.06419362
31	0xbe8d07d3	-0.27545032
32	0xbddc5bfa	-0.10759731
33	0x3dc0d253	0.09415116
34	0xbdc76aaa	-0.097371414
35	0xbdeafc51	-0.11473907
36	0xbe16492c	-0.1467635
37	0x3d130fe5	0.03590383
38	0xbdac74ce	-0.08420716
39	0x3e81aab7	0.25325558
40	0x3dfe8acc	0.12428817
41	0x3d0b33bc	0.033984885
42	0xbd9cd51d	-0.07657836
43	0x3d8d1811	0.06889356
44	0xbd8d7161	-0.06906391
45	0xbdafacc8	-0.08577877
46	0x3cd41c83	0.025892502
47	0xbd8fe49c	-0.07026026
48	0xbe55aae3	-0.2086597
49	0xbb40849a	-0.0029375912
50	0x3e574b01	0.21024705
51	0x3d558d7e	0.05213689
52	0x3ea05bb1	0.31319955
53	0x3d0cd3d7	0.034381714
54	0xbaf6490f	-0.0018790084
55	0x3e49f8fe	0.19723889
56	0xbe33feb3	-0.17577629
57	0x3da6be62	0.081417814
58	0xbd9479a8	-0.072497666
59	0x3bbc1dfb	0.0057408786
60	0x3e005def	0.12535833
61	0xbe1327e3	-0.14370684
62	0x3cafe46a	0.021471221
63	0xbdce0c4e	-0.10060941
64	0x3b884b97	0.0041594016
65	0x3e01d5ba	0.12679186
66	0x3e905510	0.28189898
67	0xbe39ae17	-0.18132816
68	0xbe7677a9	-0.24069084
69	0xbe3c314b	-0.18378179
70	0x3eaba435	0.33523718
71	0x3cff80c0	0.031189322
72	0x3de47ede	0.111570105
73	0x3f1b60e4	0.6069472
74	0x3d1b2ea1	0.037886266
75	0xbd0f3acd	-0.034968186
76	0x3d5e23d8	0.054233402
77	0xbe19f782	-0.15035823
78	0xbb1e5702	-0.0024160747
79	0x3d198787	0.037482765
80	0x3e24bd7e	0.1608791
81	0x3ebebde0	0.37254238
82	0xbdaf05a7	-0.08546
83	0xbccf282e	-0.025287714
84	0x3db49f87	0.0881949
85	0x3cd01fdc	0.025405817
86	0xbcd9a43b	-0.026567569
87	0xbe2066c2	-0.15664199
88	0x3d33486e	0.043770246
89	0x3d6416c6	0.05568578
90	0xbba5b2a4	-0.005056696
91	0xbe7f7025	-0.24945123
92	0x3cdd0186	0.026978265
93	0xbde352d0	-0.110997796
94	0x3d148e4e	0.036268525
95	0xbd5e1217	-0.05421647
96	0x3e5dfa30	0.2167747
97	0x3e5e496b	0.21707694
98	0x3ead60db	0.33862957
99	0x3c92474f	0.017856268
100	0xbe340712	-0.17580822
101	0xbe9fe47f	-0.31229016
102	0x3d38c1d2	0.045106716
103	0x3ce2f023	0.027702397
104	0xbe128038	-0.14306724
105	0xbe650f93	-0.22369222
106	0xbd728e06	-0.059217475
107	0x3e14a0a0	0.14514399
108	0xbe28df60	-0.16491461
109	0xba3f882e	-0.0007306364
110	0xbba917f8	-0.005160328
111	0x3e86a492	0.26297432
112	0xbe2d5b1d	-0.16929288
113	0x3d8e5dde	0.069514975
114	0xbe12c335	-0.14332278
115	0xbc134f68	-0.0089911
116	0x3b1c8954	0.0023885565
117	0xbe7b87a5	-0.24563463
118	0x3e07cd1f	0.13261841
119	0x3e91a857	0.28448746
120	0x3ba8e311	0.0051540215
121	0xbe516da2	-0.20451978
122	0x3ce94aae	0.028477993
123	0xbdb76922	-0.08955599
124	0xbb883970	-0.0041572377
125	0x3d642af4	0.055705026
126	0x3d147dd8	0.036252826
127	0xbd470e50	-0.048597634
128	0xbc26bfe8	-0.01017759
129	0x3b21266b	0.002458955
130	0xbbb7756d	-0.005598715
131	0x3e893f23	0.26805982
132	0x3d27435f	0.040835734
133	0xbe1d0a94	-0.15336066
134	0xbde94b13	-0.113912724
135	0xbe43a883	-0.19107251
136	0x3e880097	0.2656295
137	0xb824ea02	-3.9318584e-05
138	0x3d04b3a6	0.03239789
139	0xbc70a6b0	-0.014688179
140	0xbe869dee	-0.26292366
141	0xbe578e0e	-0.21050283
142	0x3cf01a3e	0.029309388
143	0xbe1c65db	-0.1527323
144	0xbb35f72e	-0.0027765739
145	0x3c94c84a	0.018161912
146	0xbe3aa236	-0.18225941
147	0x3ef2a732	0.47393185
148	0xbe04b79c	-0.12960666
149	0xbe5a0e7e	-0.21294591
150	0xbe275b97	-0.16343533
151	0xbdee950c	-0.11649522
152	0x3ddf6c56	0.10909335
153	0x3d9f0b10	0.07765782
154	0x3e8becf5	0.2732922
155	0x3db5d228	0.08877975
156	0xbe167f9d	-0.14697118
157	0xbe95c7b0	-0.29253912
158	0x3e5a84bb	0.21339695
159	0xbcceeaf5	-0.02525852
160	0xbdc67c22	-0.09691645
161	0x3dcfd8c8	0.101487696
162	0xbd3edfbb	-0.046600085
163	0x3d2f5be6	0.04281225
164	0xbdbf8b25	-0.093527116
165	0x3e7f58c1	0.249362
166	0xbe06fb32	-0.13181761
167	0x3e540a7d	0.20707126
168	0x3c0aaff8	0.008464806
169	0x3defbe28	0.11706191
170	0x3e2a90b9	0.1665677
171	0xbc10388e	-0.008802546
172	0xbcfdfe92	-0.031005178
173	0x3ea4570a	0.32097656
174	0xbd974dd6	-0.07387893
175	0x3deba83f	0.115067
176	0xbddd7305	-0.10812954
177	0xbc19ecc6	-0.00939483
178	0x3b22d562	0.0024846424
179	0x3e3e3165	0.1857353
180	0x3baf6ef4	0.005353803
181	0x3c103690	0.008802071
182	0xbbc285f6	-0.0059363795
183	0x3ec735ab	0.38908133
184	0x3ce6da68	0.028180316
185	0xbd9892f2	-0.074499026
186	0xbdef9c9a	-0.11699791
187	0xbe3ea1f7	-0.18616472
188	0x3da4045d	0.08008645
189	0xbe25f60d	-0.16207142
190	0xbe47de2e	-0.19518349
191	0xbe0a1955	-0.13486226
192	0x3d7f474a	0.062323846
193	0x3d0cb52d	0.03435247
194	0xbbac3f39	-0.00525656
195	0xbdaae43c	-0.083443135
196	0x3d37b951	0.044854466
197	0x3e41d3de	0.18928477
198	0xbdeac9d2	-0.114642754
199	0xbc2a3240	-0.010387957
200	0xbc5a0c0f	-0.013308539
201	0x3e06a104	0.1314736
202	0xbc805fa7	-0.01567061
203	0xbc8c67ef	-0.017139403
204	0xbd6b68a3	-0.057472836
205	0xbe3206c8	-0.173854
206	0xbcb369b9	-0.021900998
207	0xbe460586	-0.19338045
208	0xbe3597df	-0.17733715
209	0x3d9061aa	0.07049878
210	0xbcde606d	-0.027145589
211	0x3ccca343	0.024980193
212	0x3c826783	0.015918499
213	0xbe4834d3	-0.19551401
214	0xbea4b2bd	-0.32167616
215	0x3c299574	0.010350574
216	0xbe9e8666	-0.30961913
217	0xbe2c552f	-0.1682937
218	0xbe1500a2	-0.14551023
219	0xbe41b062	-0.18914941
220	0xbbddef2a	-0.0067728953
221	0xbe58b106	-0.21161279
222	0xbe0134d0	-0.12617803
223	0xbdbc4182	-0.09192182
224	0xbe16cf8e	-0.14727613
225	0xbdc1e64d	-0.094677545
226	0xbdd2ccc2	-0.10292961
227	0x3e54c8cd	0.20779724
228	0xbde7eb2e	-0.11324154
229	0xbc75a41a	-0.014992738
230	0xbe353921	-0.17697574
231	0xbd8e5f69	-0.06951792
232	0x3e306619	0.17226447
233	0x3e08cb6a	0.13358846
234	0xbcaccfd2	-0.02109519
235	0xbcfe4712	-0.031039748
236	0xbe023466	-0.12715301
237	0x3d20166d	0.039083887
238	0x3c854624	0.016268797
239	0x3e478014	0.19482452
240	0xbbcbf9fd	-0.0062248693
241	0x3c102687	0.008798248
242	0xbd6e5c22	-0.058193333
243	0xba1c228e	-0.0005956077
244	0xbc82cd5d	-0.015967065
245	0x3e435bf4	0.19078046
246	0xbe0f281c	-0.13980144
247	0x3de17b7a	0.110098794
248	0xbe0865d4	-0.13320094
249	0xbce59d44	-0.028029092
250	0x3e501a89	0.20322622
251	0xbe247956	-0.16061911
252	0x3eb091b1	0.34486154
253	0xbdf5cc3d	-0.12001846
254	0x3ceebec8	0.029143706
255	0x3d994b47	0.07485061

fc3.bias f4 [2]
0	0xbd232881	-0.03983355
1	0x3e8d89b0	0.2764411
