checkpoint_critic0.pth (torch, 527007 bytes, 5 tensors)

fc1.weight f4 [400, 24]
00000000: 1d7b 8b3c 2069 4f3d bc30 b5bc 4c39 82bc
00000010: 7a6e 6fbc ce1f f0bb bc2a 833c f201 a03c
00000020: b720 ec3c 26e4 843c de07 5abb 8046 97bc
00000030: bb04 b93c a598 c1bc 30d8 3b3c 00f1 113d
00000040: b9fb 81bb a91c 273d be28 813c e7d8 813c
00000050: 87d9 abbc e75d 0dbe 8f2e 1fbd c30e ecbc
00000060: 5c75 243b 31b0 b0bd a9e3 0bbd 5f6a 15bd
00000070: 23f6 99bd 6206 04bd eddf 0c3d 81b0 2d3d
00000080: 0eff aa3d 339e e1bc c453 f4ba 30b7 9c3a
00000090: 6e72 d13c 26e9 4cbd 9caf 9d3c 18f1 343d
000000a0: c4f5 af3d ccfb 85b9 cc2c 77bc 23e6 73bc
000000b0: 54ce 7bbb 5625 3fbd b079 503b 8bf8 cc3c
000000c0: 3ed6 23bc 1f19 3dbc 6774 62bc 8c70 ba3b
000000d0: 8c99 52bd 20f1 9dbc efa8 403c ff49 68bc
000000e0: b982 b63c 4214 983c 674a 713c 89b7 4b3d
000000f0: aa49 d2bc 92ea b1bd 2805 91bc ee54 a23c
00000100: f8cc e13c 8112 6a3d 3a7f 2339 5109 0fbd
00000110: 7357 f13c 023d 1b3d c7fd d13c 7301 12bd
00000120: a529 ccbc a081 0b3c fd50 2abc 2a70 ffba
00000130: c0aa eabd 7cd4 0e3d ee36 083c 5f02 92bc
00000140: 3b62 f2bc f48c 94bc e902 a43c e1ed 81bc
00000150: 53ab 8c3c 3fdb 7ebc d364 96bc 96c7 f73c
00000160: b269 45bd 2be0 02bd 1afe 52bc f8a1 163d
00000170: b1d5 9f3d db6a 71bd 432f 4abb 1b2d 833b
00000180: 400c c33c 7b72 593d a748 0ebd e549 03bd
00000190: ec6d 60bc 1bb0 543d f3f9 083d 5fd8 223c
000001a0: 3925 443c 81b5 283d cf25 65bb 1844 8b3a
000001b0: 838a 46bd a424 9d3c 4c58 b438 9c4f cb39
000001c0: fa8c ac3d 2029 94bb 7aee a93c eccd e3bc
000001d0: e627 8fbd ddc5 e0bb eab0 d0bc 0ea7 cf3c
000001e0: b826 273d 890e bdbc eb16 47bb b1d1 c13a
000001f0: 1d30 eb3c 041e e7bd a5eb d0bb a927 013d
00000200: 2bdc 25bd 59c4 12bd 4208 ee3b 8526 ac3c
00000210: f8ae 25ba a85f 9cbd 9bbf 89bc 116a 4cbc
00000220: 01a8 203c 151e f6bc fa19 1cbd f0e3 afbd
00000230: cc94 a8bb c7ec 5a3d 70d4 3f3d c6de b2bd
00000240: 70d1 573d 76ea 8c3d 6a99 363d 608f 9dba
00000250: 1ec8 5cbd b595 31be 48a6 3dbd 48ec 9e3c
00000260: 7318 a8bc 0cad d73b 9f61 b2bc 3af0 acbc
00000270: f4e0 e83c 551c fabb dd46 e13c 3a85 d33c
00000280: bc74 59bd 3c20 62bd 0edc 813c bd9b 4ebc
00000290: cc01 813c b417 483d d97c 84bc dda0 10bc
000002a0: a784 87bc acbf a23c e719 babc ad9d 0b3d
000002b0: a207 97bc 6e14 c2bd 0d2b c63c cf46 32bd
000002c0: 22e6 4c3d 4614 a6bb a127 49bc e779 243b
000002d0: ddc4 dcbb 34cb 81bd ddc4 d03b 0fcc 1e3d
000002e0: d2c2 dd3c b062 323c 5f4a 87bb f7f2 ca3c
000002f0: e1fa cd3d 07ec b23c 3ee5 393c 80c7 d6ba
00000300: 06aa 1dbc e199 88bd 4986 1e3d 6283 82bc
00000310: d8bb 8f3d b85e bf3d 5be5 1cbd eadb b6bb
00000320: ada9 70bc 5559 1b3d 67fe 80bc 6b9e 163d
00000330: b0c8 093d c645 c5bc 8394 7e3c a554 d5bc
00000340: 4ce2 9a3b eb82 903d 4c29 b43c 8846 a6bc
00000350: eff0 92bd b4e7 c3bd 8ab4 c9bc 3895 a53c
00000360: b80c 093d 4585 dfbb 6ac4 abba b80e 59bd
00000370: 8a8c 723d b30f 9e3c 522e 54bb 1440 57bd
00000380: 8ffc 3b3b 039d 70bd 4103 2a3c 419a 04bd
00000390: 9295 9a3d 9042 333d 3c69 8abc 303a bdbd
000003a0: 2f33 a43c 3288 23bd 3b70 253c 11fb 9f3b
000003b0: c2f2 a83c 8642 133c 33ee 86bc 2290 0cba
000003c0: 4b92 12bd 4d76 053d bfeb eab9 2591 edbb
000003d0: e14a 22bc d89e 4b3b 5d4b 24bb d0d3 8dbd
000003e0: c411 eebb 61ed 133d 2e7a c4bb c4b5 58bc
000003f0: 4905 243d 414b f5bc 7ea7 24bc 7c14 db3c
0.017026478 0.050637364 -0.022117965 -0.015896462 -0.014613742 -0.00732801 0.016011588 0.019532178
0.028824193 0.01622207 -0.003326885 -0.018466234 0.022585263 -0.023632357 0.011465117 0.035630226
-0.0039667753 0.040798817 0.015766498 0.015850497 -0.020977749 -0.13805352 -0.03886276 -0.028815633
0.0025094366 -0.08627356 -0.03415266 -0.036478397 -0.0751765 -0.03223265 0.03439324 0.042404655
0.08349429 -0.027541256 -0.0018640687 0.001195645 0.02556726 -0.050027035 0.019248776 0.044175237
0.08591798 -0.0002555534 -0.015086364 -0.014886412 -0.0038422542 -0.046666466 0.0031810813 0.025020858
-0.00999981 -0.011541634 -0.013821698 0.005689686 -0.051415965 -0.019280016 0.011759027 -0.014177798
0.02227913 0.018564347 0.014727212 0.04973558 -0.025669891 -0.08687319 -0.017702654 0.019815888
0.027563557 0.057146553 0.00015592287 -0.034920994 0.029460644 0.03789998 0.025633706 -0.035645913
-0.024922201 0.008514792 -0.010395286 -0.0019488384 -0.11458349 0.03487061 0.0083138775 -0.017823396
-0.029587856 -0.018133618 0.020020919 -0.0158605 0.017171538 -0.015555202 -0.018358624 0.030246537
-0.048196502 -0.031952064 -0.012877965 0.03677556 0.0780443 -0.058939796 -0.0030850924 0.0040031797
0.023809552 0.053087693 -0.034737255 -0.032052893 -0.013698082 0.05192576 0.033441495 0.009939282
0.011971765 0.04118872 -0.0034965163 0.0010625152 -0.04847194 0.01918251 8.5995154e-05 0.0003877849
0.08425327 -0.004521504 0.020743597 -0.027808152 -0.06990032 -0.0068595246 -0.025474984 0.025348213
0.04080841 -0.02307822 -0.003037865 0.0014787224 0.028709466 -0.11285022 -0.0063757473 0.031531963
-0.04049317 -0.035831783 0.007264168 0.021014461 -0.0006320323 -0.076354325 -0.016814997 -0.01247646
0.00980568 -0.030043641 -0.03811071 -0.085883975 -0.005144691 0.053448465 0.046833456 -0.08733897
0.05268997 0.068806574 0.0445799 -0.0012020878 -0.053901784 -0.17342265 -0.046301156 0.019399777
-0.02051947 0.006581908 -0.021775065 -0.021110643 0.028427579 -0.007632772 0.02749961 0.025820363
-0.053089842 -0.055206522 0.015852 -0.012610373 0.015747927 0.04885073 -0.016172813 -0.008827415
-0.016542746 0.019866787 -0.02271743 0.03408592 -0.018436257 -0.09476553 0.02419045 -0.04352456
0.05002416 -0.0050683348 -0.012277515 0.0025097074 -0.006737335 -0.06337586 0.006371124 0.038768824
0.027070437 0.010887787 -0.004128739 0.024774058 0.10057617 0.021841062 0.0113461595 -0.001638636
-0.009623056 -0.06669975 0.038702283 -0.015931789 0.0701825 0.09344238 -0.038304668 -0.005580415
-0.014688891 0.03792699 -0.015746308 0.036772173 0.033638656 -0.024081122 0.015538338 -0.026041338
0.0047266837 0.070562206 0.021992348 -0.020297304 -0.07174861 -0.09565678 -0.02462222 0.020212755
0.033459395 -0.006821307 -0.0013104801 -0.052992553 0.05921606 0.019294595 -0.0032376242 -0.052551344
0.0028684472 -0.058743488 0.010376752 -0.03237367 0.075480595 0.04376465 -0.016895883 -0.09239614
0.020043937 -0.039924808 0.010097559 0.0048822244 0.020623568 0.008988028 -0.016471004 -0.00053620536
-0.035784047 0.032583524 -0.00044807603 -0.0072499686 -0.009905548 0.003107002 -0.0025069334 -0.06925166
-0.0072653014 0.036115054 -0.0059960103 -0.01322693 0.040044103 -0.02994311 -0.010049699 0.026743166

fc1.bias f4 [400]
00000000: 08df 033e 6cc2 c43d 72a8 8abd b3cb c4bd
00000010: 205e 19be 44a6 613e 9b5f 82bd 6705 183e
00000020: 1b0a 9bbc 3caa 47bd f246 f7bd 4672 323e
00000030: 19d7 07be 0578 dfbd a3aa 2c3d da58 13be
00000040: d94e 28bc 16a8 d73c 2ce1 6dbe ab64 fdbd
00000050: 9ae6 8bbd 9be9 15be ac28 0c3e df0a 9d3d
00000060: 7093 36be c5bf 3f3e ce29 4d3d dccb 01be
00000070: e8ea 563d a27d 7cbe 3502 cf3c b9b3 e4bc
00000080: 8874 913d 672a 413e 866f c8bc e673 31be
00000090: 3200 62bd cca9 5fbd 6745 0a3e 550e 033e
000000a0: af5b 58be 5009 bf3c 5b54 0dbe ed78 463e
000000b0: fc94 78be f115 e73c 8e5e f53c a1f8 473e
000000c0: 5766 0d3e 221e 633d 11ea 873d 288a ba3c
000000d0: 3f4d ddbd 74df 203e 8275 5fbe 83c8 39be
000000e0: 52e3 203e 9614 163c c3f6 95bd 6394 203e
000000f0: d632 a73d 2367 bfbd 1901 643e ab06 67bd
00000100: 6c17 293e 10b4 6ebe b1be 62be aba5 993b
00000110: c319 263e 5f1a 3abe ddbb c0bc 81ab 8abd
00000120: a96c 5ebe 8fac 92bd 18d7 58bd 2a3c c63d
00000130: 2137 46be 3b60 17be 7f65 f53c ebac 91bd
00000140: 3155 e43d a70b 0abe b32c 66be c7e2 ee3d
00000150: 6e27 d13d 5bb3 0dbe d99e 673e 9f05 323e
00000160: 41b1 60be 1e52 f4bc fb40 83bd 31de f73d
00000170: cc5d 9f3d 2c9d 07be ba60 4b3e ec6c 3abe
00000180: fdb4 07be f19c aa3d 3823 7ebe 1a49 80be
00000190: 38f7 423e 3dea c9bd 5340 8dbd f745 a43d
000001a0: 72eb 85bd c7bf c4bd 7570 3cbe 335b fbbd
000001b0: a8a9 12bc bd81 47be 669e a4bc 2756 85bc
000001c0: 1193 fb3d 390f 85be 95f5 2cbd 036b a4bc
000001d0: 030f 24bd 6ad4 2ebe 6d40 0d3e 1fb7 cd3d
000001e0: 4b3b babd ac51 233d 4982 8bbd e89d d6bd
000001f0: 0fed 343d 0a9e 1fbe 9b7c b03d 9a5a e13d
00000200: ef6c 583e ee02 6bbe 98ee baba 00b8 913c
00000210: 1819 08be aa93 c9bc 5625 72bd 3693 82bd
00000220: bd16 01be 90f1 44be dd15 32be f336 553e
00000230: 9541 6d3d 4189 de3d 992c 833d 9167 a4bd
00000240: 23d7 153e 026f d9bd c882 c9bb 085d 14be
00000250: 0737 4d3e 1886 83be 8365 2ebe b49d cc3b
00000260: 843a 1fbe 4d35 6cbe a501 27be 6134 bfbd
00000270: ad8f 39be 4c2c f4bd 8da0 ce3d 3865 203e
00000280: 2b20 a2bd 888b 85bb c502 04be b65f 063e
00000290: a27b b7bd 8956 98bd 6adf 64bd ba23 5c3b
000002a0: 491c 75be a6c5 363e 1c2f 023d c45e 30be
000002b0: 0553 7f3d 09af 68be b5ad 853d 9911 023e
000002c0: 1ff1 33bd f9be 47be 2c6f 2abe 8b64 0b3e
000002d0: 7813 38bd e893 123e 4d0b 04be 3e9f e43d
000002e0: 98c2 963d 7f5d c3bd d9ff f4bd 3ec0 7fbd
000002f0: 0bf2 9e3d f711 5d3e a6f1 da3d ebdd 60be
00000300: 61bb 50be 06da 2fbe b924 3abe 31ef 02be
00000310: 5ae1 6b3e 4f6f 063e 8856 91bd 76e6 85bd
00000320: c626 d0bd 503d 0c3d 8bd3 5cbb bc32 77bd
00000330: 6ff7 be3d 4b4b 4f3e 6472 f13d cc25 0abe
00000340: 4a75 0bbe f201 c03d 2576 183e 6832 3b3e
00000350: 27e2 fabd fae9 e73d 61b6 e0bd 5688 93bc
00000360: 0869 d9bd de68 b93b 355f 263e c22b df3d
00000370: 5b79 323d 5219 66be 1443 f0bd a45a 033d
00000380: 5492 353e ffb1 56bd 8963 0b3e bd4a b5bd
00000390: 80ae 3abe ada5 11be 4c0b 9e3d 7e0f b93d
000003a0: 2478 e23c 2404 8e3d 7bb1 cebd 9bd3 e2bd
000003b0: a5ec fd3d a7af dbbc 34fb 7ebd ed5b 47bd
000003c0: c899 f43d f1ba 1e3e c819 a1bd 0858 b13d
000003d0: ff9a 38be 866a 22bc 61cc 103e d149 25be
000003e0: 3d61 d33d 9d1a 963d 5457 6d3d 95ba 5a3d
000003f0: d955 16bd 4564 aebd 7bd5 c8bc 08dd 85bc
0.12878048 0.096073955 -0.0677041 -0.09609165 -0.14977312 0.22036082 -0.063658915 0.14845811
-0.018925717 -0.048746333 -0.120740786 0.17426404 -0.13265647 -0.10911564 0.04215492 -0.14389363
-0.010272705 0.026325267 -0.23230428 -0.123727165 -0.06831093 -0.14639895 0.1368739 0.07668089
-0.1782968 0.18725498 0.050088696 -0.12675422 0.052470118 -0.246573 0.025269607 -0.02791773
0.07102305 0.18863831 -0.024467241 -0.17329368 -0.055175968 -0.05460529 0.13503037 0.12798436
-0.21128725 0.02331987 -0.1380171 0.19382067 -0.24275583 0.028208705 0.029952314 0.19528438
0.13808571 0.05544866 0.066364415 0.022770956 -0.10805749 0.1571024 -0.2182217 -0.18142895
0.15711716 0.0091601815 -0.07322457 0.15681605 0.08163993 -0.09345844 0.22266044 -0.056402843
0.16512841 -0.23310876 -0.22143055 0.0046889386 0.16220765 -0.18174122 -0.02352708 -0.06770993
-0.21721138 -0.07161819 -0.052939504 0.09679444 -0.19356968 -0.14782803 0.029955624 -0.071130596
0.111490615 -0.13481008 -0.22477989 0.11664348 0.10212599 -0.1383795 0.2261919 0.17384957
-0.21942617 -0.029824313 -0.064088784 0.121029265 0.07781562 -0.1324355 0.19861117 -0.18205613
-0.13252635 0.083307154 -0.24818122 -0.25055772 0.19039619 -0.098591305 -0.068970345 0.08021157
-0.06539048 -0.09606891 -0.18402274 -0.12273254 -0.008951582 -0.19483085 -0.020095062 -0.016276432
0.1228391 -0.25988176 -0.042226393 -0.020070558 -0.04005338 -0.17073217 0.13794108 0.10044693
-0.090933405 0.03987281 -0.06811959 -0.10479337 0.04417139 -0.15587631 0.086175166 0.11003609
0.21135305 -0.22950336 -0.001426178 0.017787933 -0.13290823 -0.024606545 -0.059117638 -0.063757345
-0.1260633 -0.19232774 -0.17391153 0.20821743 0.057923872 0.10866023 0.06404991 -0.08027566
0.1463285 -0.10616876 -0.0061496235 -0.14488614 0.20040523 -0.25688243 -0.17030911 0.0062443856
-0.15549666 -0.23067208 -0.16309221 -0.09336162 -0.18121214 -0.119225115 0.100892164 0.15663612
-0.07916292 -0.0040754713 -0.12891681 0.13122448 -0.08959128 -0.0743838 -0.055877127 0.003359063
-0.23936571 0.17848834 0.03178321 -0.1722365 0.062335033 -0.2272302 0.065272726 0.12702025
-0.043931123 -0.19506444 -0.16643971 0.13612573 -0.04494044 0.14314234 -0.12894936 0.111631855
0.073613346 -0.09539317 -0.119628616 -0.062439196 0.0776101 0.21588884 0.10690622 -0.21959655
-0.2038398 -0.17173013 -0.18178071 -0.12786557 0.23035184 0.13128398 -0.07096583 -0.065380976
-0.101636454 0.03423816 -0.0033695425 -0.06035112 0.09324538 0.20243566 0.117893964 -0.13490981
-0.13618961 0.09375371 0.14888819 0.18280947 -0.122501664 0.11323924 -0.10972286 -0.018009346
-0.10615736 0.005658253 0.16247256 0.10897018 0.043572765 -0.22470596 -0.11731544 0.032068864
0.17731601 -0.052415844 0.13612188 -0.08852146 -0.18230629 -0.14223357 0.077169985 0.09036158
0.027645178 0.069343835 -0.100924455 -0.11075517 0.12398652 -0.026817156 -0.062251285 -0.04867165
0.11943394 0.15501 -0.078662455 0.08659369 -0.18027876 -0.0099130925 0.14140464 -0.1614144
0.10321281 0.07329295 0.05794461 0.053400595 -0.036702964 -0.08515219 -0.024515858 -0.016340747

fc2.weight f4 [300, 402]
00000000: 2afd 13bd b956 ec3a 721c 773d fc31 043d
00000010: 85ae 203d a8b3 a8bd baed 52be ac5b 573d
00000020: 7a4a cabc 9753 003c 2d1d a23d eaef a23c
00000030: 6a5e 86bd 0b0d 393d 791e 9bbc c7da abbd
00000040: f1ac 2dbd c6fd 81ba b031 8abd afba 6d3d
00000050: 9b4c a4bd 0410 86bd b0fc 92bd 2cb9 8c3d
00000060: d592 6abb b846 bebc 34d5 bebc 01eb 86bd
00000070: d690 19bd 35b6 c9bd 8bb6 713d 5b1c 5dbd
00000080: d85a 143d 9f52 aebc b46b 54bd 407e 8c3d
00000090: 41b6 fd38 eace 393d 48f9 163b 328e 1b3c
000000a0: d6ea 09bd 2c68 343d e983 2cbb d152 69bb
000000b0: 2b41 bcbd b70c 0f3c 7a3c 023c 39ce 3fbd
000000c0: b192 dc3c 9da8 9abd 9390 a2bd 8185 fd39
000000d0: 26b3 0b3d 78e7 d43c 3459 b03c ef3c 9cbb
000000e0: aa83 133d c6e7 f13a 6e59 18bc cbe0 293c
000000f0: ad97 6d3c fca7 0e3b 2788 bd3c 079b 46be
00000100: 75bf 7b3c 8de0 fbbb 4136 503d f687 ae3d
00000110: b163 ea3c 3957 92bd a0b4 f0bc a0a4 283c
00000120: e62f d1bc 76cb f63b d666 b83d ead8 cabc
00000130: 848a 3f3d a0b4 41bc a4b6 f73c ac64 81bc
00000140: 2cfd d6bc 8cd9 0ebc 2fc5 503d 515c dabc
00000150: cf1e 773d bb0e 1b3d 519c d4bb 8ad5 183d
00000160: 5e03 693c 325f 92bb 706a a83a 3e9b 83bd
00000170: a94f 973c 3411 5abb 4d13 b7bc 7a09 fcbc
00000180: b776 6b3d 158b 4fbc 1a0e 74bc 223c 03bd
00000190: d8cd 263c 44f8 053d a236 f53c 153a dfbb
000001a0: a4f8 06bd 2674 37bd 5c1c 6abd da73 84bd
000001b0: 9edf c93c b472 883a 16cb 873d ced1 9cbd
000001c0: fc98 17bd f88f 0dbd 4a1d 743c 6747 87bc
000001d0: c3ef db3c 82d9 3bbc 8b52 5fbc 1c42 93bc
000001e0: 602b eebb 2761 bfbd 1c0e 31bb 15c3 47be
000001f0: a3e2 80bd 7e52 e63c 2f3d 8b3c 3cb5 adbd
00000200: c8da 803c c629 35bb 3c35 2dbd ec22 fbbc
00000210: 75d9 4bbd 9162 243d 3889 37bd b48a 18bd
00000220: 631e e3ba 1fd1 21bd bf2b 3f3c 87ab 223d
00000230: 911b 99bb 7192 34bd a9b0 cebd 0f0a d43d
00000240: b6d5 8c3c 73dd a43c 7309 b83c ba21 383d
00000250: 7efb fc3c 3d07 14bd 4684 0d3b 5570 83bc
00000260: 4876 193d 5e4f 4c3c ef6d 44bd 0193 76bc
00000270: ce1d bcba 6609 223d 0902 f03c f223 8abc
00000280: 341e 28bc 6bad b23b 9912 a2bc 0158 e1bc
00000290: 4182 883d f864 eabc 32db 9fbb 47e5 20bd
000002a0: fdb7 fc3b 6668 eebc 57ef 313d eff8 723c
000002b0: 34a3 04bd b1c3 d03c 29ba 86ba c5ad a13a
000002c0: dbb2 c93c c429 eabc 1df0 223a 6d40 ffbc
000002d0: de6b 5f3d e4e7 8bbd 6a15 603c ed69 a9bc
000002e0: 8475 67bb 71a7 673d d68e 733a 7985 7f3d
000002f0: 87b9 19bd 323a 323c f934 8bbd cefd 4b3d
00000300: b5c0 283d ad13 a2bd f2f7 c73b eea9 3a3d
00000310: 0396 d53c b37b df3c b2b7 c5bd f21b 263d
00000320: 7c7b a83c 0a63 1f3c cc30 91bc f639 8cbb
00000330: be3e b0bc 7ce2 79bc eaf6 acbc 3409 1d3d
00000340: 3985 023a ae02 623d aaac 74bd aff8 cb3b
00000350: 8a0c 4dbd 06d8 8bbc bc69 d33c 80bc 07be
00000360: 1582 0b3d 4524 dd3c 4fba 88bd 9784 903c
00000370: c5ea 313d 9e1e 703d 1cd6 c43b d6df 4fbc
00000380: 67a9 8e3c 99cc 803d 12c9 19bd 36c9 49be
00000390: 5b68 12bd ad78 2ebe c99f 063d b7ce acbc
000003a0: d4a9 823d f0dd b939 fc28 3f3c 4dbc 2bbc
000003b0: f6a1 0fbd fa36 1eb9 60ca 623c 3ee5 363c
000003c0: 0d8b afbc 777a cf3c a5cc 063c 13b6 90bb
000003d0: 4d26 cf39 7c57 d63c f2d5 e1bd c88d b53c
000003e0: 95c0 20bd 2286 1cbd fc70 abbc 1005 23bd
000003f0: 30bc 513d e51f 24bd 2e5d 043c f8e5 8ebc
-0.036130108 0.0018031216 0.060329862 0.03227423 0.039228935 -0.08237392 -0.20598498 0.05257766
-0.024693716 0.007832429 0.07915721 0.01988979 -0.06560977 0.045178454 -0.018935429 -0.08391338
-0.042401258 -0.0009917549 -0.067477584 0.058039363 -0.08022424 -0.065460235 -0.071771026 0.06871256
-0.0035793085 -0.02322708 -0.023295023 -0.06587792 -0.037491642 -0.09849206 0.059011977 -0.05398212
0.036219448 -0.021279631 -0.051860526 0.06860018 0.000120979275 0.045363344 0.0023036767 0.009494351
-0.033671223 0.04404466 -0.0026323742 -0.003560234 -0.09192117 0.008731059 0.007948989 -0.04682753
0.026925417 -0.07551692 -0.079377316 0.0004835539 0.034106396 0.02598928 0.02152691 -0.004768006
0.036014237 0.0018455915 -0.009298665 0.010368536 0.014501494 0.0021767607 0.023136212 -0.19395076
0.015365471 -0.0076866806 0.05083299 0.08522026 0.02861199 -0.07145543 -0.029383004 0.010293156
-0.025535535 0.0075315787 0.090039894 -0.024761636 0.04676296 -0.0118228495 0.030238457 -0.015795074
-0.026243769 -0.008718859 0.0509693 -0.026655348 0.060332116 0.037855845 -0.006488361 0.03731302
0.014221994 -0.0044669146 0.0012849104 -0.064260945 0.018470602 -0.0033274414 -0.02234807 -0.030766238
0.057486262 -0.012667437 -0.01489594 -0.03203977 0.010180913 0.032707468 0.029933278 -0.006812344
-0.032951966 -0.044788502 -0.05715595 -0.064674094 0.024642762 0.0010410161 0.066305324 -0.076572046
-0.03701113 -0.034561127 0.014899561 -0.01651354 0.026847726 -0.011465432 -0.01363052 -0.01797586
-0.0072683543 -0.09344702 -0.0027016466 -0.19508012 -0.062932275 0.028115507 0.016996948 -0.08481833
0.015729323 -0.0027643307 -0.042287096 -0.0306563 -0.04976793 0.040133063 -0.044808596 -0.037241653
-0.0017327782 -0.039506074 0.011668145 0.039714362 -0.0046724756 -0.04408497 -0.10092289 0.10353481
0.017191749 0.020125126 0.022465443 0.04495404 0.03088164 -0.036139715 0.0021593734 -0.016044775
0.037466317 0.0124700945 -0.047956403 -0.015049697 -0.0014352144 0.039559744 0.029297845 -0.016862843
-0.010261107 0.005452802 -0.019784259 -0.027507784 0.06665469 -0.028612599 -0.004878425 -0.039281156
0.007712363 -0.029102515 0.043441143 0.014829858 -0.032382205 0.025483938 -0.0010278869 0.0012335113
0.024621418 -0.028584369 0.0006215589 -0.03115865 0.05454623 -0.06831339 0.0136769805 -0.020680392
-0.0035317848 0.05655617 0.00092909986 0.06238315 -0.03753045 0.010878133 -0.06797213 0.049802594
0.041199405 -0.07913909 0.0061025554 0.045572214 0.026072508 0.027280664 -0.09654178 0.040553994
0.020566694 0.009728203 -0.017723463 -0.0042793704 -0.021514293 -0.015251752 -0.021113832 0.038338855
0.0004978958 0.055178337 -0.059734978 0.0062247138 -0.050060786 -0.017070781 0.025807254 -0.13255501
0.034059603 0.026994834 -0.066761605 0.017641349 0.043436784 0.05862295 0.006006969 -0.012687644
0.017414762 0.06289024 -0.03754527 -0.19705662 -0.035744052 -0.17038222 0.032867227 -0.021094663
0.063800484 0.00035451306 0.011667486 -0.010481906 -0.035066567 -0.00015088535 0.013842195 0.011163054
-0.02142861 0.02532695 0.008227502 -0.004416236 0.00039510653 0.026164763 -0.11027135 0.022162333
-0.03924616 -0.038213857 -0.020927899 -0.03979975 0.05120486 -0.04006948 0.008078856 -0.017443642

fc2.bias f4 [300]
00000000: d26c 26bd 49f0 8fbc f936 6fbd 7648 063c
00000010: 5270 733d b401 a5bc b944 7bbc 8f8a 87bd
00000020: 514f 7fbd e81c 473d ff2f 823d bd9d 34bd
00000030: 7e49 4fbd ce9e 913c 1761 41bd c161 4a3d
00000040: b756 14bd 9e08 8cbb a41b 1abc da64 a3bd
00000050: 4856 8cbd b48a 223d 402d fb3c 7121 f9bb
00000060: efb5 843d 3a53 3dbd b457 b03d e71b 1f3d
00000070: a18b a2bc ff9c 53ba b6f2 843d 4464 b7bd
00000080: de11 d9bd bbce cd3c edf6 c43b 5db6 803d
00000090: a474 51bd da76 58bd eb6d a03c f238 1c3d
000000a0: 3ac9 45bc 45cd 133d d737 953d 02c9 9d3c
000000b0: f0e3 20bc 818f f63b dba6 973d 2c89 7bbd
000000c0: 053b ff3c 150c 61ba c500 89bd 4b3c 2abc
000000d0: c132 3a3c e1d1 043d 08a2 85bc e32f 40bc
000000e0: a469 71bc 4b56 01bd 71c5 0e3d b9c8 77bd
000000f0: 57d6 883d 2d9b c73c 933d 503d d830 4b3d
00000100: c092 ed3c b64c 9fbd d67a 843d e14f 49bd
00000110: b8ea 1fbd b252 07bd 377e 1dbd 4711 9ebd
00000120: 370a 46bd a4dc bf3d 0134 35bc e3b7 99bc
00000130: df3c 06bd 2b35 2c3d 44b4 873d 9fb7 9a3d
00000140: 0aea 9e3d acd2 ba39 9c27 9fbd 265f c5bc
00000150: 5144 cdbb 0a4d 293d 77e4 f63a 3945 b5bc
00000160: ea1f e13c a31e 9fbb eceb 483c ba16 a43c
00000170: 1d58 693d af95 88bd 1dda 693d 95f7 003b
00000180: b15f 923b 508c a0bb ef1d 433d 3d49 2c3d
00000190: 1b66 33bb ce0f fe3c 4516 35bc e56f b63c
000001a0: bd15 083d 4022 2d3d 9676 3fbd af46 96bd
000001b0: 09d5 713d d450 80bd a311 c73c 70ad 56bc
000001c0: e491 b63c 3756 8a3b 0f92 903d d0d0 3ebd
000001d0: 674c 013b fbfb 473c ec05 d4bc 76d9 d33c
000001e0: 8cf1 013d b185 66bd 0a41 96bc d74e dcbb
000001f0: 80a5 253c fde0 05bb 347b 89bd b7ae e7bc
00000200: 741a 9b3d 646a 3bbd 910b e3bd 2cb2 3d3c
00000210: b41b 51bd 42d9 7e3c bdeb 4d3d c55e 99bd
00000220: ce22 593d 5db4 d3bd 1f59 76bc 4974 47bd
00000230: 1ddb b7bc def2 833d b3ad 113d 9352 eabc
00000240: b860 4a3d bbd0 22bc 14b8 613b 1094 aabc
00000250: 3d58 76bc 0264 953d 5998 c6bd 26ed ef3c
00000260: 659d b4bc ed15 c9bc 7b3c 24bd 3a5e 783d
00000270: 40ca b53c 001b d939 3ca7 82bd 4432 afbd
00000280: 909a 1b3c e48c ccbc dc40 113d 37c2 15bd
00000290: 2d31 7c3c 5994 1abd b8a2 7fbc c4ad 383d
000002a0: ba29 943c 4967 d93a cb04 4e3d 3108 3abd
000002b0: b4f5 0b3d e1b3 a7bd 3ad0 52bc 6bc9 b33d
000002c0: 3262 1fbd 59c2 06bc fb59 523d b99c 25bd
000002d0: be69 0c3d 3db4 683d b2a1 763c 9872 63bd
000002e0: 114d e13a 5c48 1e3d 68ed c239 37c2 8cbc
000002f0: 251a b83d be63 783d d77a 2c3d 8bb6 85bc
00000300: 300c 033c 723f 663c eaca 0b3d f19e 8dbb
00000310: 0787 efbc 8cd2 853d a664 f2bc d8af 93bc
00000320: 11f3 833d 2201 91bd 46b6 dc3c f195 9f3c
00000330: 342e 473d 6d63 3e3d 4959 6e3d 1d1c a2bb
00000340: 1832 6bbd 9206 093b a818 5fbd b16e e63c
00000350: 1829 bb3c 6df4 6e3d 3068 8e3c 6956 8dbd
00000360: b5d5 a1bd a27b bd3c 14b8 c13b 6db1 5d3c
00000370: 9358 b3bc 2097 95bb 9f9c d738 58c6 f13b
00000380: 09a9 77bd 805b d2bc fd30 0bbb ffc6 c93c
00000390: ec77 bf3c f1a3 9f3c f322 a9bd 7e7d d13c
000003a0: 9152 6b3d f904 4abd 726b 033d ec9a 063d
000003b0: 4ce6 813d 6749 e93c 0dc2 123d 935a 38bc
000003c0: 46e2 853d 0faa 3ebd 5945 963c 16f7 b0bc
000003d0: 7588 19bb 1652 b9bb a582 da3c 9516 f33b
000003e0: 010e 87bc 9c98 b53b 4444 823d 96ea 303c
000003f0: ee23 97bc fd6b 693d 85c9 afbc 71c5 0a3d
-0.040631123 -0.017570632 -0.058402035 0.008195987 0.05943329 -0.020142414 -0.015336209 -0.06618225
-0.0623315 0.04861155 0.06356811 -0.044095743 -0.050607197 0.01777592 -0.047211733 0.04940963
-0.03621551 -0.004273488 -0.009406004 -0.0797822 -0.06852394 0.03968306 0.030661225 -0.0076028635
0.064800136 -0.04622195 0.08610478 0.03884497 -0.01984197 -0.00080724055 0.06491606 -0.08954671
-0.10599111 0.02512299 0.006010881 0.06284783 -0.051136628 -0.05284772 0.019583663 0.038140245
-0.012071902 0.036084432 0.07286041 0.019260887 -0.00981997 0.007524431 0.07404872 -0.061410114
0.031156072 -0.0008584869 -0.066896 -0.0103903515 0.01136464 0.03242672 -0.016312614 -0.011730167
-0.014734659 -0.031576436 0.034856264 -0.06049416 0.06681507 0.024365986 0.05083997 0.049607128
0.02900064 -0.07778303 0.064687416 -0.049148444 -0.039042205 -0.03303785 -0.038450446 -0.07718139
-0.048349585 0.09368256 -0.011059762 -0.018764442 -0.032772895 0.042042892 0.0662618 0.07554554
0.07759483 0.00035633647 -0.07771227 -0.024093222 -0.0062642475 0.041333236 0.0018836398 -0.022127734
0.027481038 -0.004855947 0.012263279 0.020030368 0.056968797 -0.06669175 0.057092775 0.001967882
0.0044669737 -0.004899539 0.04763597 0.042062033 -0.0027374092 0.031013396 -0.011052673 0.022270152
0.033223856 0.04226899 -0.04674395 -0.073377006 0.059041057 -0.06265417 0.024300402 -0.013102874
0.022286363 0.0042217034 0.070591085 -0.046585858 0.0019729377 0.012206073 -0.02588173 0.02586053
0.031724498 -0.05627984 -0.01834156 -0.0067232656 0.010110259 -0.0020428293 -0.06712952 -0.028281553
0.07573405 -0.04575576 -0.110861905 0.011578124 -0.05105181 0.015554728 0.050273646 -0.07488779
0.053011708 -0.10337136 -0.015035897 -0.048694883 -0.022443349 0.064428076 0.035566043 -0.028603828
0.049408644 -0.0099374605 0.0034441995 -0.020822555 -0.015035686 0.072944656 -0.09697027 0.029287886
-0.022047708 -0.024546588 -0.04009674 0.060636736 0.022191167 0.00041409582 -0.06379554 -0.08554509
0.0094973 -0.024969526 0.035462245 -0.03656217 0.015392584 -0.03773913 -0.01560276 0.04508759
0.018086303 0.0016586568 0.05029754 -0.04541797 0.034169868 -0.08188606 -0.012867028 0.08778652
-0.038912006 -0.008225047 0.051355343 -0.040432665 0.03428053 0.056812514 0.0150532 -0.055529207
0.0017189105 0.038643226 0.00037179445 -0.017182453 0.08989362 0.060641997 0.042109337 -0.016322395
0.007998511 0.0140532125 0.03412906 -0.004321926 -0.02923919 0.06534299 -0.029589009 -0.018028185
0.064428456 -0.07080294 0.026942383 0.019480677 0.048628047 0.04648154 0.058190618 -0.004947199
-0.05742082 0.0020908457 -0.054466873 0.028128954 0.022846743 0.05833857 0.017383665 -0.06901247
-0.079020895 0.023130242 0.0059118364 0.013531071 -0.021892821 -0.0045651346 0.00010281172 0.0073783807
-0.06046394 -0.025678396 -0.0021238916 0.024631022 0.023372613 0.019487353 -0.08258619 0.025572535
0.05745179 -0.04932115 0.03208489 0.03286259 0.06342754 0.028477384 0.035829592 -0.011252063
0.06537299 -0.0465489 0.018343614 -0.021602195 -0.0023427282 -0.0056555374 0.026673624 0.0074184635
-0.01648617 0.005541874 0.06360677 0.010798117 -0.01844975 0.05698775 -0.021458397 0.0338797

fc3.weight f4 [1, 300]
00000000: 14dc 47bc 1492 28bb 3f5b 4abc 9a56 3cbc
00000010: 8aec 6d3b 310c 9d3c 172c fcbc 5300 12bd
00000020: e3ab 91bb 1caa 903b 1385 3a3c 95f0 4b3a
00000030: 4033 c5b9 ba78 763b 18b3 d23b 3589 833b
00000040: e71e c3bc 9d7e cf3c f5d0 8abc a0e6 8bbc
00000050: 669a 1bbc 98d8 3c3b 8429 b23c 248c a3bc
00000060: a408 323b 8442 633c ebf0 583b cd67 873b
00000070: 9871 e93b b08a 19bb 2b26 523b a8e4 8abc
00000080: 2f35 9fbc 8050 923b 4a2b 3abc 66d0 46bc
00000090: 386b 59bc aa60 19bc 5318 153c d168 903b
000000a0: f7ee 253c 4df0 d23c 8025 e63b c309 c0bc
000000b0: 724c 51bc f59e 63bc 78d7 5e3b 1f86 85bc
000000c0: c3b1 8cba 55a4 733b eda3 89bc 3243 61bc
000000d0: d63b 6b3d fd6f 2a3b b454 33bc adb2 a33b
000000e0: ff2d 93bb 5ffa 7c3c 0706 873c 7712 4538
000000f0: 4d73 2f3b 5696 a7bc 3262 bc3b 2ff4 0dbd
00000100: c012 823c ab1d 91bc 1cc0 c7bc 9d4e 68bc
00000110: 7823 a9bc 54f9 d3bc 72f8 953a dd32 dbbb
00000120: 1584 d6bc 93d4 963b 548f 01bc 09d3 19bc
00000130: 3d82 7abb 701a be3b 033b 5d3b 0fdc 453b
00000140: ebc6 803b b7cd f13c 3046 a5bc f473 94bc
00000150: e070 753c 8dd7 583b f0bf 7ebc c520 713b
00000160: 522f e83b a937 b4bc ad86 673b 6e73 853b
00000170: 401c 6c3b 0415 3dbc c852 ca3c 8f40 813c
00000180: a593 013d 3733 ba3c 2b6b e33c 17ae 9fbc
00000190: 6bce 49bc 1578 a4bc e12b 123a 2a9d 4dbc
000001a0: 0f59 a43b ab30 4abc f1d6 bdbb de44 05bc
000001b0: e69a bcbc 04a0 2ebd 3416 973b bd39 b63c
000001c0: dd26 adbc fb7d 2ebc 03ef 403b a8dc 89bc
000001d0: 66bc 503c a6d8 4fbb c9ae 0bbc 4517 97bc
000001e0: a725 febc f544 3bbc d6be 63bc 5390 05bd
000001f0: 57cc a33c 5ad2 25bb 2b79 90bb 73c4 133d
00000200: 4aa9 883c 072a bfbc 0b40 4abc 9bc2 8c3c
00000210: ba31 2bbc 2c97 063a 2b74 2abc f318 cbbc
00000220: 250f a33b a555 4fbc 0ff8 19bc 8d04 88bc
00000230: ba2d 31bb cf09 353b 4ac2 6b3b 44e8 3fbc
00000240: 5e25 3abc 8c3b 9e3b b7f3 1f3c 6b42 12bc
00000250: 298e 93bc 0478 913b 1780 6fbc 96e3 b43c
00000260: 8e18 233c 257a 02bc 6736 4dbb 2565 c1bc
00000270: f4f9 263c bf84 11bc 004c 86bc fa68 b6bc
00000280: 5780 2bbc 4bf4 54bc c801 873b d41d c73b
00000290: 2462 813c 03da 63bc a3f2 9d3c a9ee 5b3b
000002a0: 9523 86bc e460 2dbd 66fc 50bc 57d7 25bd
000002b0: 26ec 993b aeda 74bc 2779 b23b 207b 7b3b
000002c0: 98a6 40bc 422c 203b 9c04 923b 4e63 bbbc
000002d0: 42fd cf3b 489e 5bbc e69e 343b fc37 083a
000002e0: 9cfb f9bb e5bf 213b 09d2 9e3c 572f 04bc
000002f0: 3622 563b b656 843b 226c 70bd 7980 393d
00000300: 4245 aa3b 7507 83bb 9a42 463b 1655 343b
00000310: 4b9e d1bb dbd0 afbc 1292 97bd ea9a be3b
00000320: 8c32 893b 9cda 74bc 31ab d93c 9597 c63b
00000330: 8ad9 653c 437b 28bd 950c bc3b 352e 783b
00000340: 260f bcbc 27cc 94bc eb42 5abc 8ce0 5c3b
00000350: 5737 0a3c 9c8b 703b 4a8f 3a3b 090d 3bbc
00000360: 64f6 a5bc ad7f 4f3b 8505 6dbc ba03 47bc
00000370: bf50 253b ef0f 093c d996 23bc 6ef0 9fbc
00000380: ca17 883b 2543 8abc 313e 833b 789d 373c
00000390: 4d6c bd3c 63ad 4bbd 8125 51bc 279a 633c
000003a0: 6fd6 6d3b 61fd 57bd 7fa2 12bb 0522 ef3c
000003b0: e2dd 493c 15b1 693b 6da6 763b 2c4b c13a
000003c0: 7515 923b bb2e eabc b79d 4bbc f867 913b
000003d0: a830 2f3b 759c 72bb 977f b83b a6d3 cf3b
000003e0: c49c 063d 7f4e e33c 32f2 2a3b 9099 ba3c
000003f0: a13b b2bb e6ef 773b 5066 fabb 6171 263c
-0.012198467 -0.0025721835 -0.012350856 -0.011495257 0.0036304318 0.019170852 -0.030782742 -0.03564484
-0.0044455393 0.00441481 0.011384266 0.0007779685 -0.00037612952 0.003760858 0.006430041 0.004014159
-0.023818446 0.025328929 -0.016945342 -0.017077744 -0.009497261 0.0028815623 0.021748312 -0.019964285
0.0027165795 0.013870839 0.0033102583 0.004132247 0.007124137 -0.0023428611 0.0032066207 -0.016954735
-0.01943454 0.0044651628 -0.01136286 -0.012134647 -0.013270192 -0.009361425 0.009100038 0.0044070263
0.010127774 0.02574935 0.0070235133 -0.023442155 -0.012774574 -0.013892879 0.003400294 -0.016299305
-0.001073413 0.0037176807 -0.016801799 -0.013748931 0.05743011 0.0026006692 -0.010945488 0.004995665
-0.004491567 0.0154405525 0.016482366 4.6985657e-05 0.0026771605 -0.020457428 0.0057490105 -0.0346567
0.015878081 -0.017714342 -0.024383597 -0.014178899 -0.020646796 -0.025875725 0.001144184 -0.006689413
-0.026186028 0.0046029775 -0.007907707 -0.009388694 -0.00382246 0.0058014914 0.0033757098 0.003019098
0.003929963 0.029517038 -0.02017507 -0.018121697 0.014980525 0.0033087463 -0.015548691 0.0036793214
0.007085719 -0.021999197 0.0035328076 0.004072598 0.003602758 -0.011540655 0.024697676 0.015777854
0.031634945 0.0227295 0.027761063 -0.019492192 -0.01231728 -0.02007679 0.00055759965 -0.012549678
0.0050154994 -0.012340705 -0.0057934453 -0.008134095 -0.02302308 -0.04263307 0.004610801 0.022244329
-0.021136696 -0.010650153 0.0029439337 -0.01682885 0.01274023 -0.0031714826 -0.008525559 -0.018443713
-0.031023813 -0.011430015 -0.013900479 -0.03260834 0.019994898 -0.0025302381 -0.0044089756 0.03607602
0.016682286 -0.02333547 -0.012344371 0.017182639 -0.010448867 0.00051342207 -0.010403673 -0.02479217
0.0049761706 -0.012654697 -0.009397521 -0.016603732 -0.0027035312 0.0027624255 0.003597396 -0.011713091
-0.011361448 0.004828876 0.009762696 -0.008926968 -0.018012123 0.004439356 -0.014617941 0.022081178
0.009954585 -0.007963692 -0.0031312944 -0.0236078 0.010191429 -0.008881747 -0.016393661 -0.022266854
-0.01046761 -0.012997697 0.0041200854 0.006076554 0.015793867 -0.0139069585 0.019280737 0.0033559
-0.016374389 -0.04232873 -0.012755489 -0.040488567 0.0046973405 -0.014944715 0.0054465714 0.0038372949
-0.011758469 0.0024440442 0.004456116 -0.0228745 0.0063473294 -0.013404436 0.002756053 0.00051963306
-0.007628871 0.0024681028 0.019387262 -0.008067927 0.00326742 0.004038657 -0.058696873 0.045288537
0.0051962445 -0.0039986917 0.00302521 0.0027516535 -0.006397044 -0.021461895 -0.074009076 0.005816807
0.004186934 -0.014944699 0.026570888 0.0060605505 0.014028916 -0.041133177 0.0057388046 0.0037869338
-0.022956442 -0.018163754 -0.013321619 0.0033703176 0.008436046 0.0036704307 0.0028466755 -0.011416682
-0.02025909 0.0031661794 -0.014466648 -0.012146885 0.002522513 0.008365615 -0.009984695 -0.019523825
0.0041532265 -0.01687772 0.0040052165 0.011206977 0.02312293 -0.0497259 -0.012765289 0.013891733
0.0036291142 -0.052731875 -0.0022374687 0.029191026 0.012320967 0.0035658528 0.0037635819 0.0014747134
0.0044581243 -0.028586736 -0.012427739 0.004437443 0.0026731882 -0.0037019525 0.0056304443 0.006342369
0.032864347 0.02774739 0.00260843 0.022778302 -0.005439237 0.00378322 -0.007641591 0.010158868
